saved_models/pytorch_connect/saved_model_income17.pt (torch, 4554 bytes, 5 tensors)

layers.0.weight f4 [16, 8]
-0.32573348 -0.036710877 -0.073905036 -0.033670086 0.30746716 0.22353001 0.032215405 -0.032852814
-0.07546631 0.22118032 -0.1406056 0.042099338 0.08316977 -0.27869976 -0.26505136 0.29546884
-0.23525496 -0.2755088 -0.24336378 -0.26902223 -0.090982616 -0.11744892 0.023196965 0.104991645
-0.13089645 -0.046957802 0.3268872 0.26746994 -0.35943714 -0.0066122604 -0.036216263 0.08331626
-0.1414991 0.2595731 0.34612292 0.09496949 0.02759816 -0.20947185 -0.21141402 -0.05606251
-0.2813756 -0.2571545 0.10850616 0.32952753 -0.091496706 -0.18072791 0.09949316 -0.029464718
-0.18957287 -0.19666494 -0.17925648 -0.0831686 0.17052558 0.14486682 0.30951437 -0.2483273
-0.08199378 0.2119071 -0.29554844 0.27909616 -0.2627537 -0.35877952 -0.31986195 0.17290516
-0.068996854 -0.08218381 -0.22110453 0.16918 -0.113251634 -0.083335586 -0.32474926 0.20016268
0.051315248 0.12782398 -0.318879 -0.32584476 0.16280045 -0.30581585 -0.08488984 0.24444428
0.15391739 -0.20933408 0.081479825 0.12979114 -0.13040672 -0.027547093 0.2808877 0.19853112
0.24120893 -0.25101334 -0.117448695 -0.1571313 -0.17718773 0.062269542 0.021748478 0.19242741
0.023418231 0.17694183 0.26397616 0.10894222 0.34374952 0.06801589 -0.29831988 0.049673438
0.06328703 0.01521272 0.2919174 -0.25572577 -0.07778203 0.31823495 -0.33018124 0.006213657
-0.0076996456 0.33704928 -0.21531902 -0.19893166 -0.11422304 0.055310793 -0.060906272 -0.018618304
0.11124277 0.003437567 0.32290193 0.22330546 0.028057598 -0.09379017 0.104796134 0.2575229
00000000: 8ac6 a6be 255e 16bd 865b 97bd a5e9 09bd
00000010: 566c 9d3e 0de5 643e 4df4 033d ac90 06bd
00000020: 158e 9abd 187d 623e eafa 0fbe 5b70 2c3d
00000030: ea54 aa3d bcb1 8ebe d0b4 87be b147 973e
00000040: ade6 70be 7d0f 8dbe 5b34 79be 48bd 89be
00000050: 1855 babd 0f89 f0bd 9007 be3c dc05 d73d
00000060: b809 06be d356 40bd c25d a73e d2f1 883e
00000070: 2508 b8be a9ab d8bb 8157 14bd b7a1 aa3d
00000080: 24e5 10be c4e6 843e 0637 b13e 5d7f c23d
00000090: 8915 e23c ca7f 56be eb7c 58be cda1 65bd
000000a0: 7610 90be c1a9 83be 7a38 de3d d5b7 a83e
000000b0: a062 bbbd bd10 39be 12c3 cb3d fe5f f1bc
000000c0: 641f 42be 8962 49be 038f 37be 4d54 aabd
000000d0: 429e 2e3e f857 143e ab78 9e3e 8349 7ebe
000000e0: 5bec a7bd 2dfe 583e 2052 97be b1e5 8e3e
000000f0: a787 86be f3b1 b7be f2c4 a3be 0d0e 313e
00000100: 394e 8dbd fc4f a8bd 3a69 62be 863d 2d3e
00000110: 79f0 e7bd d9ab aabd 8945 a6be 72f7 4c3e
00000120: f02f 523d 4ae4 023e 1c44 a3be 20d5 a6be
00000130: 29b5 263e e593 9cbe b9da adbd 9a4f 7a3e
00000140: 859c 1d3e ac5b 56be e5de a63d f8e7 043e
00000150: 5789 05be 71aa e1bc 83d0 8f3e be4b 4b3e
00000160: 79ff 763e d284 80be f188 f0bd 07e7 20be
00000170: b370 35be 590e 7f3d dd29 b23c b10b 453e
00000180: 97d7 bf3c 3d30 353e e227 873e 191d df3d
00000190: f0ff af3e ea4b 8b3d 62bd 98be 6076 4b3d
000001a0: a19c 813d c63e 793c 3376 953e 7dee 82be
000001b0: 2f4c 9fbd b1ef a23e 840d a9be ef9b cb3b
000001c0: 4f4d fcbb b991 ac3e 977c 5cbe beb4 4bbe
000001d0: c5ed e9bd 928d 623d db78 79bd 6a85 98bc
000001e0: 40d3 e33d ce48 613b 6753 a53e 30aa 643e
000001f0: 0cd9 e53c 1015 c0bd 5b9f d63d 0bda 833e

layers.0.bias f4 [16]
0.24554248 0.13010341 -0.24485828 0.021713823 -0.16292447 0.19174029 -0.037934244 0.20977496
0.18734676 -0.029337363 -0.24546534 -0.2519108 -0.2758328 0.10400181 -0.3479399 -0.2532522
00000000: 7d6f 7b3e d439 053e 21bc 7abe 30e1 b13c
00000010: acd5 26be 9157 443e f060 1bbd 3fcf 563e
00000020: d4d7 3f3e e954 f0bc 445b 7bbe 74fa 80be
00000030: f539 8dbe e7fe d43d 2e25 b2be 46aa 81be

layers.1.weight f4 [16, 16]
-0.08747061 0.0077418415 0.15314624 0.0020639 -0.029662874 -0.17030697 0.2486895 -0.023948792
0.0005502081 -0.17799087 0.04175076 -0.2093346 -0.025936719 0.09096863 -0.24262804 0.23740852
0.120541185 -0.06745267 -0.1284177 -0.22089788 0.038594157 -0.24416366 -0.20814392 -0.1249786
-0.18025413 -0.08538002 0.20944282 0.03485748 -0.16981912 -0.111067295 0.0831815 0.14853308
-0.020725003 -0.01927475 0.1439488 0.08234144 0.0043131923 -0.056090444 -0.17438237 -0.18380208
-0.18858618 -0.06729861 -0.19537155 -0.056285553 -0.057700522 0.08771804 -0.23984928 0.1298055
0.041819833 0.016367178 -0.21605338 0.15113448 0.08267857 -0.038089834 0.24095072 0.20704782
-0.21653916 0.13654904 0.19276161 -0.2038742 -0.20728293 0.03774626 0.23908994 0.09699127
-0.197328 0.0660058 0.11870915 0.2231466 0.0031524163 0.01772601 -0.05796786 0.02798443
-0.22162274 0.069328964 -0.109466195 -0.21063577 -0.03327345 -0.2339538 -0.06372703 -0.20941852
0.16273834 -0.035783205 -0.19003434 0.00013779997 -0.010013805 -0.0047979215 0.0064996076 0.097023346
-0.234321 -0.013397137 0.2089565 0.1517052 0.15190978 0.061090212 -0.0019834244 -0.13555615
-0.19678569 -0.1211318 -0.24101296 0.14347754 -0.23378418 0.19532529 0.13810134 -0.13971393
0.0799629 -0.16119428 -0.21445072 -0.09542591 -0.022545582 0.21158919 0.075748526 0.1308914
-0.11627722 -0.015604019 0.060334563 -0.07259774 -0.12170243 -0.21558437 -0.20752984 -0.12507898
-0.04384306 -0.12400311 -0.16963914 -0.2041513 -0.22775745 -0.19183204 0.09109676 -0.00842616
0.04530736 0.15555058 -0.146652 0.100134924 -0.06132305 0.12619683 -0.026917133 0.21985869
-0.15867351 -0.103992365 0.21115081 0.08011671 -0.17842704 0.049174573 0.14615129 0.11118903
0.13363414 0.045834865 -0.021845747 0.13517511 -0.0022541597 -0.24762602 -0.00077036687 0.15011337
0.18083714 -0.06928018 -0.14083385 0.011169454 -0.17366326 0.062031772 0.12555432 -0.08860294
-0.09232115 -0.07796255 -0.18237804 0.015677262 0.10835504 -0.17520052 -0.13902678 0.20399387
-0.1734713 0.23668838 0.036411814 0.027375603 0.13821173 0.071150765 -0.17893939 -0.1336248
0.17960878 0.007817163 0.16313371 0.023813184 0.053640544 -0.08254609 0.1382658 0.096722454
-0.15511791 -0.046613034 0.07632045 -0.12943293 0.107975245 0.023649937 -0.030467603 0.072862834
-0.19955097 0.105835006 -0.24041131 0.07717255 0.15616438 -0.10942469 -0.23975472 -0.020854
0.06267778 0.05911068 0.22693895 -0.075857766 -0.1270293 0.08758983 0.029242508 -0.022033427
-0.04887443 0.20802517 0.0012732237 -0.043773912 0.047182854 0.07669363 0.15814118 0.20463699
-0.2358379 0.0690613 -0.11644466 -0.014446249 -0.0015337191 -0.062257558 0.09129188 0.1132866
0.13728473 -0.04923947 -0.14410768 0.13664137 -0.06104353 0.23804103 -0.00954488 0.15639953
0.16696629 0.09444435 -0.006317548 0.17552756 -0.014295815 0.019026665 -0.037712634 -0.07567209
0.16044027 0.20096703 -0.17745984 0.18427561 -0.21071842 -0.1991889 0.10383955 0.19520843
0.052568406 0.019111648 0.22525923 0.19410032 -0.12906267 0.18889537 0.017146237 0.16730563
00000000: cb23 b3bd 46af fd3b 5ed2 1c3e 7f42 073b
00000010: 8eff f2bc f364 2ebe 76a8 7e3e 4230 c4bc
00000020: d73b 103a 3d43 36be d802 2b3d cf5b 56be
00000030: 3e79 d4bc c34d ba3d 7c73 78be 381b 733e
00000040: 4cde f63d a024 8abd ee7f 03be 0e33 62be
00000050: e814 1e3d 0a06 7abe ae23 55be c8f4 ffbd
00000060: 8a94 38be b8db aebd 2e78 563e b8c6 0e3d
00000070: 10e5 2dbe 4077 e3bd 105b aa3d 0e19 183e
00000080: 7bc7 a9bc 15e6 9dbc 5067 133e a1a2 a83d
00000090: ae55 8d3b 18bf 65bd 4b91 32be 9d36 3cbe
000000a0: bc1c 41be dbd3 89bd 7b0f 48be ae8b 66bd
000000b0: 6257 6cbd 84a5 b33d 0d9b 75be bceb 043e
000000c0: 464b 2b3d 7614 863c 193d 5dbe ffc2 1a3e
000000d0: 6253 a93d 1604 1cbd c9bb 763e 5804 543e
000000e0: 71bc 5dbe 83d3 0b3e 4d63 453e 66c4 50be
000000f0: fa41 54be d39b 1a3d fed3 743e 5ca3 c63d
00000100: 5a10 4abe 0d2e 873d c81d f33d 8b80 643e
00000110: c598 4e3b 2336 913c b56f 6dbd 9a3f e53c
00000120: 12f1 62be 58fc 8d3d d02f e0bd e7b0 57be
00000130: be49 08bd 9691 6fbe 5183 82bd cf71 56be
00000140: e1a4 263e 6991 12bd 5d98 42be 667e 1039
00000150: f110 24bc e237 9dbb a9fa d43b 2db4 c63d
00000160: d8f1 6fbe aa7f 5bbc b1f8 553e 9c58 1b3e
00000170: 3d8e 1b3e bb39 7a3d 57fc 01bb 3bcf 0abe
00000180: 3082 49be f313 f8bd 1acc 76be c7eb 123e
00000190: 1f65 6fbe 5a03 483e 706a 0d3e 2b11 0fbe
000001a0: 97c3 a33d 1d10 25be f898 5bbe a96e c3bd
000001b0: 83b1 b8bc d6aa 583e 0b22 9b3d 6508 063e
000001c0: c022 eebd 00a8 7fbc 6021 773d 20ae 94bd
000001d0: 203f f9bd 26c2 5cbe b482 54be b414 00be
000001e0: c894 33bd 58f5 fdbd e2b5 2dbe 0a0d 51be
000001f0: 4039 69be 9e6f 44be f090 ba3d e00d 0abc
00000200: 3694 393d a748 1f3e f12b 16be 8a13 cd3d
00000210: e12d 7bbd be39 013e 5281 dcbc a322 613e
00000220: 4f7b 22be f3f9 d4bd eb37 583e 3b14 a43d
00000230: 94b5 36be 476b 493d afa8 153e 13b7 e33d
00000240: 63d7 083e 57bd 3b3d daf5 b2bc 586b 0a3e
00000250: 86ba 13bb ad91 7dbe 72f2 49ba 52b7 193e
00000260: 5f2d 393e c4e2 8dbd c036 10be 1600 373c
00000270: c8d4 31be 0715 7e3d 5091 003e 7575 b5bd
00000280: df12 bdbd d4aa 9fbd 4fc1 3abe 9a6d 803c
00000290: 3fe9 dd3d c467 33be 095d 0ebe c5e3 503e
000002a0: 76a2 31be 705e 723e 8e24 153d cd42 e03c
000002b0: 6087 0d3e 7eb7 913d e33b 37be f1d4 08be
000002c0: 5deb 373e 8f13 003c 860c 273e de13 c33c
000002d0: 30b6 5b3d ed0d a9bd 8d95 0d3e 6c16 c63d
000002e0: 3bd7 1ebe 4fed 3ebd e54d 9c3d 118a 04be
000002f0: 2022 dd3d 83bd c13c 3297 f9bc 1c39 953d
00000300: 1757 4cbe 06c0 d83d 622e 76be a40c 9e3d
00000310: 8ee9 1f3e 0d1a e0bd 4382 75be 02d6 aabc
00000320: 355d 803d 0a1e 723d af62 683e 515b 9bbd
00000330: f813 02be 4c62 b33d fc8d ef3c 727f b4bc
00000340: 8e30 48bd 8d04 553e 4ce2 a63a 464c 33bd
00000350: cf42 413d 8d11 9d3d c3ef 213e 5c8c 513e
00000360: 7e7f 71be 0370 8d3d 8a7a eebd f6af 6cbc
00000370: 1307 c9ba c801 7fbd 3df7 ba3d ce02 e83d
00000380: 5e94 0c3e 54af 49bd f790 13be b7eb 0b3e
00000390: c808 7abd 07c1 733e 2162 1cbc 3327 203e
000003a0: 36f9 2a3e 0a6c c13d 6f03 cfbb 7fbd 333e
000003b0: fe38 6abc cfdd 9b3c 9078 1abd f8f9 9abd
000003c0: 744a 243e 4dca 4d3e 08b8 35be bfb2 3c3e
000003d0: 92c6 57be 2df8 4bbe d4a9 d43d b8e4 473e
000003e0: f851 573d 0890 9c3c 5baa 663e 3cc2 463e
000003f0: 0129 04be ca6d 413e 4476 8c3c 2b52 2b3e

layers.1.bias f4 [16]
-0.20864835 -0.19257823 0.21951823 0.19194764 -0.18268424 0.120407686 -0.050694212 0.002771914
-0.06983069 0.16224168 -0.09982972 0.030793725 -0.19922723 0.1395073 0.06390596 -0.11239965
00000000: eaa7 55be 3a33 45be 63c9 603e ec8d 443e
00000010: 9411 3bbe 4e98 f63d bca4 4fbd 00a9 353b
00000020: 6503 8fbd af22 263e 8673 ccbd 1f43 fc3c
00000030: 3902 4cbe 00db 0e3e 21e1 823d ca31 e6bd

layers.2.weight f4 [1, 16]
-0.04050247 -0.09545493 0.057449326 -0.21845998 0.09869105 -0.032083217 0.11988716 -0.028039247
-0.25322622 0.022484114 -0.25132477 0.07465408 -0.044737775 0.08951976 -0.09087345 -0.13560596
00000000: ebe5 25bd e07d c3bd fc4f 6b3d f9b3 5fbe
00000010: 891e ca3d b169 03bd 6687 f53d 90b2 e5bc
00000020: dea6 81be 9b30 b83c a4ad 80be 3de4 983d
00000030: f53e 37bd 2356 b73d dc1b babd 4adc 0abe
