saved_models/pytorch_connect/saved_model_compas9.pt (torch, 4480 bytes, 5 tensors)

layers.0.weight f4 [16, 7]
00000000: 58d3 113c 10e0 b0be f79a 5b3d bfc7 21bd
00000010: e25b 98bd 93d7 843e 663e a13d 39b3 a7bd
00000020: 1c5f acbb d9ac c1be fac6 6ebe 2f6d 823e
00000030: 2cca 26be 7b2e 623e b427 273b 6c1c 9c3e
00000040: 8661 2abe 9ad5 45be 511c 4d3e c30f 7b3d
00000050: 847e 49be ac28 733e bd62 aabe dcf5 cebd
00000060: c0c0 22be 70de 77be 5604 963e 9b60 9abe
00000070: 87eb 89bd 8e81 533e c2f8 92be 46ba 123c
00000080: 8c89 903e e94a a73e 72bb 553e b1ec d2bc
00000090: 4e76 f8bd ccfe 49be 0ecd 4a3e f43c 19be
000000a0: 7824 51be dd06 6e3e 829f a23e f66e 17be
000000b0: 7688 903e e5e1 8ebd 734f bbbd 4414 b3bd
000000c0: 49c1 24be a3cd 73be cdfd 4d3e 2b00 133c
000000d0: 6e44 afbe adff 813e d5d2 2cbe bcf1 b8bc
000000e0: 1b01 94be b425 abbe b0d0 63be a7b8 923d
000000f0: 475b c0be 4377 533e a627 fdbd 1976 9dbd
00000100: d97e 9abd bd29 51be a779 6b3e 97b4 713e
00000110: bd1d 0cbe 5438 7b3e b389 51be 549d ea3c
00000120: b237 8cbe eefd 813e 0ad5 a03d b467 96be
00000130: 256b 813e edcb 9e3e 6432 58be 89ef 3a3e
00000140: c88b b03e b783 93be 03b1 b03d 5dd9 e7bd
00000150: 9d02 a63e 3e73 923e f867 5b3d 7fb4 abbe
00000160: 3867 273e fbc9 8e3d 6bc3 02be 74e9 b6bb
00000170: c4e2 80be 9107 ab3e a542 0ebe fab3 db3d
00000180: ad06 473d 73d4 6fbe d249 42be 9cd0 a53e
00000190: 3b51 b8be adfb 79be 5d1f b13e 0674 a13d
000001a0: a636 913d ae9a 6dbe 91f0 7cbe d22a 073e
000001b0: 577b c53c 2ea9 bd3d 1468 1e3e 47e2 203d
0.008900486 -0.34545946 0.053614583 -0.039497133 -0.074394 0.2594572 0.0787323 -0.08188481
-0.0052603614 -0.37827185 -0.23318091 0.25473925 -0.1628806 0.22088043 0.0025505843 0.30490434
-0.16638765 -0.19319764 0.20030333 0.06129433 -0.19677168 0.23745984 -0.33278456 -0.10105488
-0.15893841 -0.24205947 0.29300183 -0.3015183 -0.067343764 0.2065489 -0.28705412 0.008955544
0.2822994 0.3267434 0.20872286 -0.025747629 -0.1213194 -0.19726104 0.19804785 -0.14964658
-0.20424068 0.23244806 0.3176232 -0.14788422 0.2822911 -0.0697668 -0.09146013 -0.087441
-0.16089357 -0.23808913 0.20116349 0.008972208 -0.34231895 0.25390378 -0.16877301 -0.022576205
-0.28907093 -0.33427203 -0.22247577 0.07164126 -0.3756964 0.20650963 -0.12361078 -0.07688541
-0.075437255 -0.20426078 0.22995625 0.23604046 -0.13683219 0.24533206 -0.20462684 0.028639473
-0.27386242 0.25389045 0.07853134 -0.29375994 0.25277057 0.31014958 -0.21112972 0.18255438
0.34481645 -0.28811428 0.08627512 -0.11320756 0.3242387 0.28603548 0.05356595 -0.33536145
0.16347969 0.069721185 -0.12769859 -0.005582029 -0.25173008 0.3340421 -0.1389261 0.10727687
0.04859035 -0.23420887 -0.18973473 0.3238572 -0.35999474 -0.24412413 0.3459424 0.07883458
0.070905015 -0.23203537 -0.24701144 0.13199928 0.024106665 0.09260784 0.1546939 0.039278295

layers.0.bias f4 [16]
00000000: 2518 b1be bfe9 ef3c 1e6f 85bd f16c efbd
00000010: 7161 ebbd 7175 693e ed27 c7bc 25b6 77be
00000020: 5b6c d53d 408c a3be d62c 713e 2c4b 523e
00000030: 2843 71bd a36c fd3c ab03 a138 df50 0dbe
-0.34588733 0.029286264 -0.065153345 -0.11690701 -0.11493195 0.22798707 -0.02431103 -0.24190576
0.10421058 -0.3194294 0.2355226 0.20536488 -0.058901936 0.030935591 7.6777615e-05 -0.13800381

layers.1.weight f4 [16, 16]
00000000: 00f3 dc3d 5dce 72be c062 683e 7f17 44be
00000010: acc5 4abe 83c5 c6bd d1a3 b53d 0f2b d53b
00000020: 5266 63be 4df9 79bd e20c 513e 9623 0c3e
00000030: 536c debd 33a1 69bd 6996 d83d 4ea6 e7bc
00000040: d93e 213d a8f6 85bd dc52 f03d dfd7 8a3d
00000050: a4a1 76bd b762 3cbe 1f6d 9a3c ba70 50be
00000060: db57 7a3e 7973 8d3d 3a83 5fbd eaec 473e
00000070: 688b 773e ed4c 3dbe 9f81 253e d820 64be
00000080: 601c 263d fa1b b53d c17e 913d 6059 ca3c
00000090: 549c 7dbe f0dd fa3c 604d 7cbd dee3 50be
000000a0: 91a2 17be e50f 963d 53fb 833d 803a 2b3b
000000b0: 00a4 473c d03f a2bd 9e1a be3d 0a01 2dbe
000000c0: 70c8 0cbd d82d 16bc e2af 693e 775c 4d3e
000000d0: 19e2 c5bd 6ea4 a23d b3d0 243e ca06 52be
000000e0: d22b 213d b47e bcbd c973 c5bd 1f5e 27bd
000000f0: a3f1 1cba d1ca 4c3e 272f 443e 12e1 9fbd
00000100: 195b ba3b 5cdb 813c 8461 063e dd18 033d
00000110: 60b6 5d3e 258a c9bd d12f e63d 4465 eabd
00000120: 67a0 39be 2aae 243d 6dea 393e 9711 563e
00000130: 8ee7 8b3d 0844 08be c5a4 c9bd 96b1 a6bd
00000140: 5a64 3a3e 09c2 963d a0db 22be 32c7 ec3c
00000150: e126 7ebd 63f1 403e 324c 6dbe 711b 77be
00000160: 5faa 76bd c81e 0abe 2f77 723e 5459 4bbe
00000170: 516f c83c 44d4 06bd d9cb 3abe 93ed 1c3e
00000180: 1891 073c 8882 d73d 321d 4f3e 09be 493e
00000190: 6c2c f43d a34c 79bd 0204 68be a5f7 743e
000001a0: 202d e73d 4a1a 5b3e 0ecd 4a3e e622 15bc
000001b0: 9413 633d 4bb7 253d 7184 22be 977d a13d
000001c0: e6d5 58bd 49df 5f3c cae4 203e efa7 95bb
000001d0: 44a0 30be b4be a53d 0757 9ebd 39f2 6cbe
000001e0: ecfc 623d f928 213d 22c9 35be ec27 6abd
000001f0: f7c6 1abe 9135 11be 953d d1bd cf89 5a3e
00000200: 1911 35bd 68e6 213b 4af6 6d3e 3351 1cbe
00000210: d2e6 92bc 903e 53bc b5a7 e4bd 54e5 afbb
00000220: 95b0 0bbe f261 30be bccf 57be c742 61be
00000230: fc91 6d3e abaf fabd b08a 7bbc 79e9 4cbe
00000240: 701c 46be d032 5bbe df97 5f3c 9d45 38be
00000250: d311 593e 3ed6 6ebe dc63 49be d2f7 87bc
00000260: 4c64 f13d 44fb 1e3e 5f66 22bc d95e 763e
00000270: 0c7a 683e 16e5 1f3e e2ac 0cbe e050 2d3e
00000280: 89e0 4bbe c2b8 74be d030 26be 2ba9 5dbe
00000290: 3292 3f3e 5595 b0bc c0ac 36be a2d2 c4bd
000002a0: 7e3d 473e eec8 16bb fa3f f73d b86b 093e
000002b0: 9775 cf3d 7b58 533c 09cb 4e3b 60d2 373c
000002c0: f457 21be 1379 e43d d8f9 523e e1fb 013e
000002d0: 28be e83d 369d c8bc dadc d1bd 8763 76bc
000002e0: 65b2 04be d445 623e d88b 33bd a14a 783e
000002f0: 1101 e33c fe8e 763e 36e4 72be a38a 6d3e
00000300: 9a2c 9f3d 7596 2abe 10e4 8e3d 6a89 cdbd
00000310: de0d f8bd 9003 b13d 0122 7c3e d43a e23d
00000320: 6d2b d13c e536 043e af07 733e 9611 4fbe
00000330: f5af febd e632 fabd 9508 8bbc 03eb ef3d
00000340: cc2f ed3b 98ac 2ebe d9a8 0abd 43e4 3dbe
00000350: c770 143e 062d 793e ca85 f2bb 48dc 0b3d
00000360: a24a 693e 6915 9abd 06d9 a9bd 9fa0 7a3e
00000370: 527a 293d 5c61 54bd 6bec 153e a1c5 38be
00000380: 87e8 babc 8570 11bc 87ae 473e d9c0 23be
00000390: 4742 bdbd 78bd f7bd 232b 203d 7829 73bd
000003a0: 1c9f b6bc d1ad f3bd 8f31 97bd d2d9 afbc
000003b0: 6055 173e a936 eabd 2028 03be 8bfe 12be
000003c0: b674 183e f218 6ebe 5a9a 76be a530 0bbe
000003d0: 2166 16be 60c4 ff3d 6b1a 57be 4489 a5bc
000003e0: 64cb 8b3c 3998 5d3d a8ac afbd 7b54 9abd
000003f0: 7091 08be 8d11 273e cb8c 58be 7212 d93d
0.10788536 -0.23711534 0.2269392 -0.19149588 -0.19801968 -0.09705641 0.08869136 0.006505377
-0.22207001 -0.061028767 0.2041507 0.1368545 -0.10860505 -0.057038497 0.105755635 -0.028277542
0.039366577 -0.065411866 0.11734554 0.067794554 -0.060212746 -0.18397032 0.018850861 -0.20355502
0.24447577 0.0690679 -0.054568507 0.1952397 0.24174273 -0.18486376 0.16162728 -0.22278154
0.040554404 0.08843227 0.071042545 0.02470082 -0.24766666 0.030623406 -0.061597228 -0.20399424
-0.14808108 0.073272504 0.06444421 0.0026127398 0.012185097 -0.079223275 0.092824206 -0.16894928
-0.03437084 -0.009166203 0.22821 0.20054804 -0.09662265 0.07941519 0.16095237 -0.20510402
0.03934843 -0.09203854 -0.09641225 -0.040861245 -0.00059869344 0.19999243 0.19158612 -0.07806601
0.005687129 0.015851669 0.13123137 0.032006133 0.21651602 -0.09840802 0.11239589 -0.11445096
-0.18127595 0.04020516 0.18155833 0.20905147 0.06831275 -0.13307202 -0.098458804 -0.081393406
0.18202344 0.07361228 -0.15904093 0.028903577 -0.062048797 0.18842082 -0.23173597 -0.24131562
-0.060221072 -0.13488305 0.23678277 -0.19858295 0.024467142 -0.032917276 -0.18241824 0.15325002
0.008274339 0.10522944 0.20225981 0.19701399 0.11922535 -0.060864102 -0.22657779 0.23922594
0.11287904 0.21396747 0.19804785 -0.009102559 0.055438593 0.040458005 -0.15870835 0.078852825
-0.052938364 0.013664075 0.15712276 -0.0045671384 -0.17248636 0.08093014 -0.07731443 -0.23139276
0.055416986 0.039345715 -0.17752507 -0.05716698 -0.15114962 -0.1418059 -0.10216824 0.21341632
-0.04420576 0.0024703983 0.23238483 -0.1526535 -0.01793233 -0.012893334 -0.111648 -0.005367914
-0.1364158 -0.17224863 -0.21075338 -0.2199813 0.2320022 -0.12240537 -0.01535289 -0.20010938
-0.19346786 -0.21406102 0.013647049 -0.17995305 0.21198206 -0.23323914 -0.19667 -0.016597662
0.11786708 0.15525538 -0.0099121025 0.24059619 0.22702807 0.15614733 -0.13737825 0.16925383
-0.19909872 -0.23898605 -0.16229558 -0.21646564 0.18708113 -0.021555582 -0.17839336 -0.096104875
0.19457051 -0.0023007947 0.120727494 0.13419998 0.1012985 0.012899513 0.0031554124 0.011219591
-0.15756208 0.111559056 0.2060312 0.1269374 0.113643944 -0.024489027 -0.10247202 -0.015038378
-0.12958677 0.2209695 -0.043834537 0.24247219 0.02771047 0.24077985 -0.23719868 0.23197417
0.07772179 -0.16658957 0.06977093 -0.10035975 -0.1211202 0.086432576 0.24622346 0.11046377
0.025533402 0.12911566 0.237334 -0.20221552 -0.12435905 -0.12216739 -0.016971866 0.11714747
0.007238364 -0.17058027 -0.033852432 -0.18544106 0.14496146 0.24333581 -0.007401203 0.034145623
0.22782376 -0.07523615 -0.08293347 0.24475335 0.04137642 -0.05185066 0.14640968 -0.1804414
-0.022815956 -0.008876924 0.1950017 -0.15991534 -0.09241157 -0.12096685 0.03910364 -0.05936572
-0.022292666 -0.11898387 -0.073824994 -0.02146617 0.14778662 -0.11436207 -0.12808275 -0.14354913
0.14888272 -0.23251703 -0.24082318 -0.13592775 -0.14687397 0.124886274 -0.21006171 -0.020207055
0.017064758 0.05410025 -0.085778534 -0.075356446 -0.1333673 0.16315289 -0.21147458 0.10599221

layers.1.bias f4 [16]
00000000: 08de aabd 126b 0dbd 1259 11be d974 a0bc
00000010: 1bb6 523d 7570 603b 5fef 2cbe cea7 af3d
00000020: 5182 613d 1ba4 393e e9ee e3bb 1f4d 49be
00000030: 2282 bcbd fa71 da3d 4d6e 6a3e b83a 1abd
-0.0834313 -0.03452594 -0.14194134 -0.019586967 0.0514432 0.0034246717 -0.16888188 0.08576928
0.05505592 0.18129008 -0.0069559705 -0.19658326 -0.09204508 0.106662706 0.22893639 -0.037653655

layers.2.weight f4 [1, 16]
00000000: 5fb0 26be a71d f33d 2241 dcbd 4002 4ebd
00000010: 5c4b 1a3d 7913 0dbd ab8c 07be a142 413e
00000020: f543 233c 789d 2a3e fc82 433c 862c a63d
00000030: e033 75be 0ace 463e ae84 943c cbb8 b8bc
-0.16278218 0.1187089 -0.107546106 -0.050295115 0.037669525 -0.0344424 -0.13237254 0.18873073
0.009964933 0.16661632 0.011933085 0.08113961 -0.2394557 0.19414535 0.018129673 -0.022549054
