saved_models/pytorch_connect/saved_model_coverage14.pth (torch, 6302 bytes, 5 tensors)

weight f4 [16, 13]
0	0xbe3a2ba8	-0.18180716
1	0x3ddd7455	0.10813204
2	0xbe817ce2	-0.2529059
3	0xbdf6a4ad	-0.12043128
4	0x3d751ba4	0.059840813
5	0xbe3dcc03	-0.18534856
6	0xbd0b7f44	-0.034056917
7	0xbe097312	-0.13422802
8	0x3da5b43a	0.08091016
9	0x3e834f19	0.25646284
10	0xbe1aa48f	-0.15101837
11	0xbeb0e82b	-0.3455213
12	0x3e2dc96e	0.1697137
13	0x3e3723aa	0.17884699
14	0xbe3a2e3f	-0.18181704
15	0x3d8663b2	0.06561984
16	0xbda8e2d2	-0.082463875
17	0x3f050955	0.51967365
18	0x3e2b1981	0.16708948
19	0x3e836565	0.25663295
20	0x3d8cade9	0.06869108
21	0x3e6b4eb1	0.22979237
22	0xbc56011a	-0.013061786
23	0x3bfc633b	0.007702259
24	0x3f0f59bd	0.55996305
25	0xbe930c4b	-0.28720316
26	0xbe135825	-0.14389093
27	0x3dd58d46	0.104273364
28	0xbd137136	-0.03599664
29	0xbe72a6b1	-0.236964
30	0x3de726ea	0.11286719
31	0x3e83f98b	0.25776324
32	0xbd65fe64	-0.05615081
33	0xbe931c59	-0.28732565
34	0x3c068705	0.008210902
35	0x3d43e70a	0.047827758
36	0xbdda59b6	-0.10661642
37	0x3d94b708	0.07261473
38	0x3e1be2db	0.15223257
39	0x3d5d8a94	0.054087237
40	0xbd919adf	-0.071096174
41	0x3e9ec087	0.31006262
42	0xbe915724	-0.28386796
43	0x3e198426	0.14991817
44	0xbe1ab4ed	-0.1510808
45	0x3cd6d032	0.026222322
46	0xbe6ba256	-0.23011145
47	0x3e11ed34	0.14250642
48	0xbc2b0e9e	-0.010440497
49	0x3d64779f	0.055778142
50	0xbe00d5c6	-0.12581548
51	0x3d439bdd	0.047756065
52	0x3db4863b	0.08814665
53	0xbe1cbc3f	-0.15306185
54	0x3e4c0ef7	0.19927584
55	0x3e2276ac	0.15865582
56	0x3c5c88e9	0.013460376
57	0x3da372f2	0.079809085
58	0xbcc26729	-0.023730831
59	0xbc1b7298	-0.0094877705
60	0xbe68a0d0	-0.22717595
61	0xbe4fbe43	-0.20287423
62	0xbda8a0bf	-0.08233785
63	0xbe42da96	-0.19028696
64	0xbdf4ef87	-0.11959749
65	0xbb32649e	-0.0027220617
66	0x3cc6937f	0.024240253
67	0xbe580b7f	-0.21098135
68	0xbe1c5e80	-0.15270424
69	0xbe3b7af9	-0.18308629
70	0x3e3ec881	0.18631174
71	0x3e90e692	0.2830091
72	0x3cde674a	0.027148861
73	0xbd9a6dc7	-0.075404696
74	0xbea9ed35	-0.33188787
75	0x3e237dc6	0.15965948
76	0xbe3f28d4	-0.18667918
77	0xbe868cf4	-0.26279414
78	0x3d6a747d	0.057239998
79	0xbda883ea	-0.082282856
80	0xbd861ed9	-0.065488525
81	0x3ea9dbb2	0.33175427
82	0x3e061998	0.130957
83	0xbdcad2b7	-0.09903472
84	0x3d173804	0.036918655
85	0x3d8985ce	0.06714974
86	0x3e868dde	0.2628011
87	0xbe72da5d	-0.23716111
88	0xbe78f09e	-0.24310538
89	0x3d859e59	0.06524343
90	0xbea33a3e	-0.31880373
91	0x3e7d9949	0.24765505
92	0xbeb41207	-0.35170004
93	0xbe715b91	-0.23570086
94	0x3ec09f30	0.3762145
95	0x3e719da6	0.23595294
96	0xbe88202e	-0.2658705
97	0x3df34945	0.118792094
98	0x3cdb414e	0.026764538
99	0xbe9f8971	-0.31159547
100	0x3e677618	0.22603643
101	0xbea3004d	-0.31836167
102	0x3d882014	0.066467434
103	0xbe8896f0	-0.26677656
104	0xbda7a8f4	-0.08186522
105	0xbdeed31c	-0.1166136
106	0xbd068140	-0.032838106
107	0xbd1a14d4	-0.03761752
108	0xbe1b8ef9	-0.15191258
109	0xbd9862c5	-0.07440714
110	0x3d386e77	0.045027222
111	0xbd398032	-0.045288272
112	0x3dee483f	0.116348736
113	0x3d0f967f	0.035055634
114	0xbe9ad869	-0.30243233
115	0xbd1a0e5a	-0.037611343
116	0x3e8cff65	0.275386
117	0x3e966f12	0.29381615
118	0xbe00b04c	-0.12567252
119	0x3e4acc36	0.19804463
120	0x3df33693	0.118756436
121	0x3d928a22	0.07155253
122	0xbe79c732	-0.24392393
123	0x3e518939	0.20462503
124	0xbded13d8	-0.115760505
125	0x3d057388	0.032580882
126	0xbeaabc1f	-0.3334665
127	0x3ddc85a7	0.1076768
128	0x3c7ce5a6	0.015435612
129	0xbe3e9f9a	-0.1861557
130	0x3d5dc915	0.054146845
131	0x3d376474	0.044773534
132	0xbe556fdb	-0.2084345
133	0xbe67d2f6	-0.22639069
134	0xbd7223df	-0.05911624
135	0xbe18c7d0	-0.14919972
136	0x3e9125bb	0.283491
137	0x3d56049c	0.05225049
138	0x3e29b600	0.16573334
139	0xbbe99e35	-0.0071294555
140	0x3cd0d3b2	0.02549157
141	0x3e7432b2	0.23847464
142	0x3dc5172b	0.096235596
143	0x3e85faf1	0.26168016
144	0xbe4c89ef	-0.19974492
145	0x3da5e487	0.08100229
146	0x3e9b1214	0.3028723
147	0x3d686c93	0.05674417
148	0xbdd08ff8	-0.1018371
149	0x3e848410	0.25882006
150	0xbd4ab6ac	-0.049490616
151	0xbdfe7ade	-0.12425779
152	0xbdd4a999	-0.10383911
153	0x3e72abd1	0.23698355
154	0x3e004431	0.12526013
155	0x3e04440b	0.12916581
156	0xbdf58c9c	-0.1198971
157	0x3dbe3d80	0.09289074
158	0xbe85d842	-0.26141554
159	0xbe696ce5	-0.22795446
160	0x3e7b0b7c	0.245161
161	0x3dfeeab6	0.12447111
162	0x3e14e9a9	0.1454226
163	0xbe7e0e7b	-0.24810211
164	0x3d0fc2c8	0.035097867
165	0xbe31d992	-0.17368153
166	0x3c369661	0.011144252
167	0xbe889537	-0.26676342
168	0x3ea695ba	0.32536107
169	0x3e194409	0.1496736
170	0x3e1d8fe4	0.15386921
171	0x3e1ff886	0.15622148
172	0x3e195773	0.14974765
173	0xbe7da0e7	-0.2476841
174	0x3e562ef9	0.20916356
175	0x3e6d2d88	0.231619
176	0xbe3c7748	-0.18404877
177	0xbc974f9e	-0.018470582
178	0xbed8f709	-0.42375973
179	0x3e853338	0.2601564
180	0x3ecc41da	0.3989399
181	0x3e282fba	0.16424456
182	0x3eb98d67	0.36240694
183	0x3e85dc5b	0.2614468
184	0xbcb3757d	-0.021906609
185	0x3e9ebf29	0.3100522
186	0xbd1f5ed0	-0.03890878
187	0x3e9b977a	0.30389005
188	0x3e116b0a	0.14200988
189	0xbe8082c6	-0.25099772
190	0xbe0bd7d1	-0.13656546
191	0xbdb136d8	-0.08653039
192	0xbe24342f	-0.16035531
193	0x3e937516	0.28800267
194	0xbe3ae988	-0.18253148
195	0x3edc24d8	0.4299686
196	0xbd88fc74	-0.066887766
197	0x3ded3d46	0.115839526
198	0x3e1c5ea5	0.15270479
199	0x3e1b227a	0.1514987
200	0xbe175e4f	-0.1478207
201	0xbe396276	-0.18103966
202	0xbe491563	-0.19637065
203	0xbedad2ff	-0.42739102
204	0xbed668f6	-0.41876954
205	0xbefdcd19	-0.4957054
206	0xbe5d1124	-0.2158857
207	0xbeac05b9	-0.33598116

bias f4 [16]
0	0x3c44ffed	0.012023908
1	0x3ea28758	0.31743884
2	0xbe988f99	-0.29797056
3	0x3dee88b2	0.11647166
4	0xbe6df8d8	-0.23239458
5	0xbd22f213	-0.03978164
6	0x3cd379f2	0.025814984
7	0xbca28f55	-0.019843737
8	0xbed07a65	-0.4071838
9	0xbe39cbf7	-0.18144213
10	0xbdea78c8	-0.114488184
11	0x3e7029f0	0.23453498
12	0x3e3d5b49	0.18491854
13	0xbe32d46b	-0.17463844
14	0x3d83ad86	0.06429581
15	0xbd96b385	-0.073584594

weight f4 [16, 16]
0	0xbeb9e59f	-0.36308
1	0x3e4fa6a9	0.2027842
2	0x3d64d4be	0.05586695
3	0x3d924cda	0.071435645
4	0x3df4c592	0.11951746
5	0x3e3f5bf0	0.18687415
6	0xbda85a3d	-0.082203366
7	0xbe445ffd	-0.19177242
8	0xbe1b7734	-0.15182191
9	0x3e6c1a51	0.23056914
10	0xbd780154	-0.06054814
11	0xbe3af86c	-0.18258828
12	0xbe9d7a9d	-0.3075761
13	0x3d0f376c	0.034964964
14	0xbcd0b5e0	-0.02547735
15	0xbe2af725	-0.1669584
16	0x3e1d4813	0.15359525
17	0xbdccdf6f	-0.10003554
18	0xbcbd797d	-0.02312922
19	0x3c9fe75d	0.019519502
20	0xbd19b5e0	-0.037526965
21	0xbdfc6cfd	-0.12325475
22	0xbe0144b5	-0.12623866
23	0xbe339a54	-0.1753934
24	0x3e305cec	0.17222947
25	0xbde119ac	-0.10991225
26	0x3e29762e	0.16548988
27	0xbd795ce7	-0.060879614
28	0x3e664f06	0.22491083
29	0xbe1eb55d	-0.15498872
30	0x3db77e1c	0.089596
31	0x3dd6851d	0.10474608
32	0x3d35ba87	0.04436734
33	0xbc8fa9d5	-0.017537037
34	0x3d688a88	0.05677274
35	0xbdd462a5	-0.103703775
36	0xbd0deb41	-0.034648184
37	0x3ce7f5e2	0.028315488
38	0x3d90c151	0.07068122
39	0xbe4d9da5	-0.20079668
40	0xbe40e215	-0.18836243
41	0xbdc6c143	-0.097048305
42	0xbdf24eeb	-0.11831459
43	0xbe5ba539	-0.21449746
44	0xbe893bbc	-0.26803386
45	0x3e440407	0.19142161
46	0x3e6d8888	0.23196614
47	0xbd407552	-0.046986885
48	0xbdba69cc	-0.091022104
49	0x3dd26be2	0.10274483
50	0xbe6211ed	-0.2207715
51	0xbdce97f3	-0.10087576
52	0x3d78040d	0.060550738
53	0xbcc1b717	-0.023646874
54	0x3e298fa3	0.165587
55	0x3e8a5ff7	0.2702634
56	0xbd3d7a11	-0.04625899
57	0xbd0083a9	-0.03137556
58	0xbe17edf9	-0.14836873
59	0x3df19ddc	0.117976874
60	0xbcbd793f	-0.023129104
61	0x3e833282	0.25624472
62	0x3e03e88d	0.1288168
63	0x3ec16550	0.37772608
64	0x3d1de0d2	0.038544483
65	0xbe77e5d2	-0.24208763
66	0xbdb9c59a	-0.09070893
67	0xbd50c6c6	-0.050970815
68	0xbe609b69	-0.21934284
69	0xbcbd5dc3	-0.023115998
70	0xbc5cb7d5	-0.013471563
71	0xbe83738e	-0.256741
72	0xbda0235e	-0.07819246
73	0x3d6dc122	0.058045514
74	0x3e84a51d	0.2590722
75	0x3e135806	0.14389047
76	0xbe7d3504	-0.24727255
77	0xbe3c16f4	-0.18368131
78	0xbe37ce2a	-0.17949739
79	0x3e259656	0.1617063
80	0xbd1d7afe	-0.038447373
81	0x3e243afd	0.16038127
82	0xbd947ab9	-0.0724997
83	0x3d913fb0	0.070922256
84	0xbdf88b25	-0.12135915
85	0x3e46563f	0.19368838
86	0xbddd83b7	-0.10816138
87	0x3e4071d8	0.18793428
88	0xbda3621b	-0.079776965
89	0xbe0ec07b	-0.13940613
90	0x3dc2b0c9	0.09506375
91	0xbe38b21e	-0.18036696
92	0xbe28cc93	-0.16484289
93	0xbd04cb89	-0.03242067
94	0xbe4fccc0	-0.2029295
95	0x3d02345a	0.031788208
96	0xbe885933	-0.26630554
97	0xbdc286b4	-0.09498349
98	0xbe20f8a8	-0.15719855
99	0xbaf21f57	-0.0018472475
100	0xbcf4c25e	-0.029877838
101	0xbdacb10f	-0.08432209
102	0x3db1db8b	0.086844526
103	0x3e74cda5	0.23906572
104	0xbe631790	-0.22176957
105	0xbd2fc352	-0.04291088
106	0x3d6909cb	0.056894105
107	0x3df4644f	0.11933195
108	0xbed0ff9e	-0.4082002
109	0xbda12b14	-0.078695446
110	0x3ea4df24	0.32201493
111	0x3ea3eef8	0.32018256
112	0x3e0b0911	0.13577677
113	0xbce7b2de	-0.028283533
114	0xbda64f04	-0.0812054
115	0xbdcbc657	-0.0994994
116	0x3dfe076e	0.12403761
117	0xbe36108a	-0.17779747
118	0x3ea24889	0.31695965
119	0x3eb583be	0.35452074
120	0xbcfa1fad	-0.030532682
121	0xbcb8e66d	-0.022570813
122	0xbe39385b	-0.18087904
123	0x3e0a5167	0.13507615
124	0xbd18017f	-0.0371108
125	0xbe6b2d11	-0.2296641
126	0x3dbf87c4	0.09352067
127	0x3e6f88ee	0.23392078
128	0xbdde6738	-0.10859531
129	0xbd0160ad	-0.031586338
130	0xbc921f7a	-0.017837275
131	0xbe333ec2	-0.17504409
132	0x3e2d94b1	0.16951253
133	0x3e6270ed	0.2211339
134	0x3c41ebf9	0.011836045
135	0x3e23b91d	0.15988584
136	0x3d45b92f	0.048272308
137	0x3ea5be0e	0.32371563
138	0x3e3b02bf	0.18262766
139	0xbda4f884	-0.08055213
140	0xbe776b57	-0.2416204
141	0x3e62bdc9	0.2214271
142	0x3c99d103	0.018776422
143	0x3ed5e490	0.41775942
144	0x3d98055d	0.07422898
145	0xbe7cb86e	-0.2467973
146	0xbdc2482f	-0.09486424
147	0xbe331e27	-0.17491971
148	0x3c17be9b	0.0092617525
149	0x3e801802	0.25018317
150	0xbdbb61fb	-0.09149548
151	0xba278a8e	-0.00063911907
152	0x3bd9256e	0.0066267764
153	0x3e894d31	0.26816705
154	0x3d57f23e	0.052721255
155	0x3d164433	0.036686134
156	0xba3d9e95	-0.00072334084
157	0x3e32ebb7	0.1747273
158	0xbe04dc14	-0.12974578
159	0x3dd6fe56	0.104977295
160	0x3c4045cd	0.011735392
161	0xbe71109f	-0.23541497
162	0xbd2fb161	-0.04289377
163	0xbe1e9277	-0.1548556
164	0x3d80fa94	0.06297794
165	0x3cd6a268	0.026200488
166	0xbe022e0f	-0.12712882
167	0xbe703a08	-0.23459637
168	0x3d5b9df9	0.05361745
169	0x3d9b5ab3	0.07585659
170	0x3d534837	0.05158254
171	0x3ba3704e	0.004987753
172	0x3cc71bea	0.024305303
173	0xbdb5a49b	-0.088692866
174	0x3e3a1f1f	0.18175934
175	0x3db05e8a	0.08611782
176	0x3e906ccc	0.28208005
177	0xbe8abb74	-0.2709614
178	0x3d65fa8a	0.056147136
179	0x3e5ab8ba	0.2135953
180	0xbe6f3b29	-0.23362412
181	0xbe34d7f3	-0.17660503
182	0xbda87b7e	-0.08226679
183	0x3e58bdbf	0.21166132
184	0xbcbfc067	-0.023407174
185	0x3cb82750	0.022479683
186	0x3e8fc05a	0.2807644
187	0xbe1afe7e	-0.15136144
188	0xbe311e5a	-0.17296734
189	0xbd92ec4c	-0.07173976
190	0x3e5daefa	0.2164878
191	0x3e1bd9c7	0.15219794
192	0xbe70128d	-0.23444577
193	0xbe224c63	-0.15849452
194	0xbcaf97c2	-0.021434668
195	0xbe67909e	-0.22613761
196	0xbdf24fc6	-0.11831622
197	0xbdd84c01	-0.105613716
198	0xbd9e1781	-0.07719327
199	0x3e14e1be	0.14539239
200	0x3d9ae2fe	0.075628266
201	0x3c031cae	0.008002443
202	0xbe1f29c2	-0.15543273
203	0xbe1a1ea3	-0.1505075
204	0xbe4a0f54	-0.1973241
205	0xbe251759	-0.16122188
206	0xbdcdb96e	-0.100451335
207	0x3df91108	0.121614516
208	0x3e3bfcf2	0.1835821
209	0x3e27efd7	0.16400085
210	0xb90a2969	-0.00013176132
211	0xbe32b3de	-0.17451426
212	0x3db78d79	0.08962531
213	0xbe2c2b8f	-0.16813491
214	0xbdaa49ba	-0.083148435
215	0xbe2b2745	-0.16714199
216	0xbdee708b	-0.116425596
217	0x3e2f6cb8	0.17131317
218	0xbe44ab6f	-0.19206022
219	0xbe5383b8	-0.20655715
220	0x3e4d843a	0.20069972
221	0xbe52f270	-0.20600295
222	0xbd33d27d	-0.04390191
223	0xbe169812	-0.14706448
224	0x3dc73e0c	0.097286314
225	0x3e1fb355	0.15595753
226	0x3e075814	0.13217193
227	0xbe92216f	-0.28541133
228	0xbd4dfd5a	-0.050290443
229	0xbe01b962	-0.12668374
230	0xbd13eeb8	-0.03611633
231	0x3e535256	0.20636877
232	0x3c36a59e	0.011147885
233	0xbbe4acad	-0.0069785924
234	0x3d3c7007	0.046005275
235	0xbcd969c2	-0.026539687
236	0x3d5d20b7	0.053986277
237	0x3e7fc424	0.24977165
238	0x3e524115	0.2053264
239	0x3dfc1d8e	0.123103246
240	0xbddaa3bf	-0.10675763
241	0x3e5bbf26	0.21459636
242	0x3dd99f7d	0.10626123
243	0x3de5121a	0.11185093
244	0xbd5404f6	-0.051762544
245	0x3d9309c4	0.07179597
246	0x3dece5ce	0.11567269
247	0xbe14d28e	-0.14533445
248	0xbd90e4df	-0.07074904
249	0x3ca2251d	0.019793088
250	0x3e5058b8	0.20346344
251	0x3e6bb64b	0.23018758
252	0xbd4fde5b	-0.050749164
253	0x3e049cb2	0.129504
254	0x3d403173	0.04692216
255	0x3e75c371	0.24000336

bias f4 [16]
0	0xbd401882	-0.046898372
1	0xbd33520e	-0.043779425
2	0x3e0bdcfb	0.13658516
3	0x3eac665f	0.33671853
4	0xbcd3167a	-0.025767554
5	0xbdb74d23	-0.089502595
6	0x3ee6569f	0.44987962
7	0xbe2c817c	-0.1684627
8	0x3ea6d831	0.32586816
9	0x3c9dee5a	0.019278694
10	0x3d84bcd5	0.06481329
11	0x3dc6227d	0.09674547
12	0xbda576b0	-0.080792785
13	0x3e94817f	0.29005048
14	0xbe8d6dea	-0.2762292
15	0x3d02fc33	0.031978797

weight f4 [1, 16]
0	0x3dfce7f4	0.12348929
1	0xbdeec463	-0.116585515
2	0x3e75621c	0.23963207
3	0x3e534bd9	0.20634402
4	0xbe107ec5	-0.14110859
5	0xbd1ed32f	-0.03877562
6	0x3ee18545	0.4404699
7	0x3ea47764	0.32122338
8	0x3eb1221e	0.34596342
9	0x3ccb4a91	0.02481583
10	0xbd0dba68	-0.0346016
11	0x3e08bd29	0.13353409
12	0xbddf4937	-0.109026365
13	0xbe2f35e3	-0.171104
14	0x3e172d8c	0.14763469
15	0xbdf2efe7	-0.11862164
