saved_models/pytorch_connect/saved_model_income1.pt (torch, 4544 bytes, 5 tensors)

layers.0.weight f4 [16, 8]
-0.17405482 -0.11047715 -0.20544638 0.27405846 -0.32597 0.3229943 0.24754657 -0.10836624
-0.0920105 0.10570891 0.33398756 -0.04283791 -0.08362718 -0.18886001 -0.14354634 -0.2451802
0.0865622 -0.29866254 0.03172355 -0.060673587 0.33272114 -0.26833284 -0.20516723 3.4005312e-05
0.27884015 -0.3545755 0.028897395 0.044253565 -0.27281442 0.19837317 0.10511463 -0.027105564
0.27621606 0.0016487947 -0.05425803 0.17730562 0.32207984 0.33500278 0.2091415 0.252908
-0.0831781 0.17954141 -0.25348377 0.30845076 0.015008789 -0.26105428 0.012445699 0.038954124
-0.05934351 -0.057201106 -0.16221887 0.07723913 0.011111325 -0.32617238 -0.08637605 0.2247241
0.18575847 -0.09704907 -0.11962499 -0.14161342 -0.3035579 0.07737427 0.27617475 -0.13712996
0.20025913 -0.14939086 -0.32823563 -0.20077842 0.22669044 0.244207 -0.03871413 0.041115496
0.08111944 0.29901072 -0.032923266 -0.1183678 0.07453772 -0.32952836 -0.24257357 -0.30751848
-0.19210376 0.066330045 0.05116194 0.1460522 -0.14551243 0.3025949 -0.22753732 0.2003638
0.27906057 0.3256773 0.22021426 0.2626742 0.014630946 0.09845964 0.1634131 -0.25490293
-0.0077485936 0.19017191 -0.17044841 0.06875454 -0.23255116 -0.19065496 -0.05928251 -0.05288247
-0.32315356 0.3143485 0.16130316 0.09174766 0.18027265 0.15299839 -0.055741116 0.2910302
-0.06141895 0.19916359 0.12484031 -0.17215672 0.13695176 -0.2937083 0.061810553 -0.3273105
-0.05699957 0.0028479914 -0.2815443 0.15593722 0.13960724 0.27336317 0.13839865 -0.26006404
00000000: 6d3b 32be d841 e2bd 8960 52be 6451 8c3e
00000010: 8ae5 a6be 825f a53e d97c 7d3e 1fef ddbd
00000020: 0070 bcbd ea7d d83d 6b00 ab3e ce76 2fbd
00000030: ba44 abbd 8564 41be d0fd 12be 8510 7bbe
00000040: 8647 b13d 4cea 98be 8ef0 013d de84 78bd
00000050: 6d5a aa3e ec62 89be 5c17 52be eda0 0e38
00000060: 23c4 8e3e ec8a b5be 3bba ec3c 3a43 353d
00000070: 55ae 8bbe 5622 4b3e 5746 d73d 7d0c debc
00000080: 316c 8d3e 5f1c d83a ab3d 5ebd 9b8f 353e
00000090: a6e7 a43e 7c85 ab3e 3029 563e 287d 813e
000000a0: 4859 aabd b4d9 373e a0c8 81be 42ed 9d3e
000000b0: 6ce7 753c e8a8 85be 0ce9 4b3c 5c8e 1f3d
000000c0: 2e12 73bd b54b 6abd b41c 26be 8d2f 9e3d
000000d0: 460c 363c 1100 a7be ede5 b0bd 131e 663e
000000e0: 7837 3e3e aac1 c6bd f2fd f4bd 1c03 11be
000000f0: f16b 9bbe 6776 9e3d c766 8d3e cc6b 0cbe
00000100: bb10 4d3e ebf9 18be 800e a8be dc98 4dbe
00000110: 8a21 683e 6611 7a3e b592 1ebd b968 283d
00000120: f321 a63d ef17 993e 8cda 06bd d16a f2bd
00000130: 3ba7 983d f1b7 a8be 3565 78be 1073 9dbe
00000140: d9b6 44be 0cd8 873d 2f8f 513d b58e 153e
00000150: 3601 15be b8ed 9a3e 8bff 68be 2b2c 4d3e
00000160: 07e1 8e3e 2dbf a63e d97f 613e 3c7d 863e
00000170: a3b6 6f3c 35a5 c93d c455 273e a382 82be
00000180: eae7 fdbb 6dbc 423e 078a 2ebe 2ecf 8c3d
00000190: e421 6ebe 0e3b 43be 38d2 72bd 4a9b 58bd
000001a0: 6274 a5be 49f2 a03e a82c 253e 32e6 bb3d
000001b0: 6599 383e 9cab 1c3e cc50 64bd e901 953e
000001c0: 7092 7bbd 8af1 4b3e 47ac ff3d da49 30be
000001d0: 153d 0c3e ef60 96be 102d 7d3d 3e95 a7be
000001e0: 6278 69bd 5ea5 3a3b 9326 90be 02ae 1f3e
000001f0: 33f5 0e3e 42f6 8b3e 60b8 0d3e 1d27 85be

layers.0.bias f4 [16]
-0.035056856 0.18807386 0.046873793 0.08529511 0.10548289 0.07421542 0.16482936 -0.08005729
0.28221884 0.04793238 0.073986456 -0.11746718 -0.042723104 0.1494743 0.1455273 -0.33786914
00000000: c797 0fbd 6f96 403e bcfe 3f3d 34af ae3d
00000010: 6a07 d83d 41fe 973d 07c9 283e 14f5 a3bd
00000020: fd7e 903e be54 443d 3686 973d a292 f0bd
00000030: 6cfe 2ebd ca0f 193e 1c05 153e 2ffd acbe

layers.1.weight f4 [16, 16]
0.13416581 0.043418847 0.09802014 0.06372575 0.12320078 -0.07335268 -0.15579882 0.2158794
0.016866622 -0.16443077 0.17094977 0.11468116 -0.03985115 0.027681451 0.13211009 -0.097392716
-0.23287931 0.2041247 0.13026696 0.16679657 0.1821501 -0.020213611 -0.14630115 -0.014742567
-0.027885405 0.003566858 0.018439006 -0.09547882 -0.03580342 0.13161732 -0.09275149 -0.1734154
0.14318135 -0.19950771 0.16681735 0.23081534 0.04403778 0.04651095 0.12233404 -0.008505923
0.09503241 0.06222514 0.017286194 -0.16790485 0.017433604 0.044883274 0.075249456 0.033304073
-0.0063817124 -0.22097361 -0.1531262 -0.15677637 -0.089187354 -0.14950915 -0.000117047144 -0.108978994
0.2269758 -0.18235011 -0.08084585 -0.027377546 0.03085702 0.21027055 0.0227999 -0.21416068
0.20728958 0.10586592 0.14202891 -0.21269326 0.050689586 -0.15994045 -0.11782517 0.043752927
0.02862966 0.17230125 -0.0051051904 0.09941567 -0.06130323 0.010856024 -0.09337964 0.053545892
0.0881404 -0.19368765 -0.22789265 -0.1255759 0.0426694 -0.21792345 -0.12308779 -0.19797638
0.10238736 0.0032981297 0.12659808 0.045484804 -0.12089796 0.1858799 -0.062556274 -0.063329175
0.12702881 0.19138767 -0.22548671 0.20437267 0.17442816 -0.21156098 -0.10320611 0.19349882
0.20691475 -0.05279719 -0.030108467 -0.19869061 -0.19668365 -0.23612568 0.107312374 -0.09356097
-0.07687817 -0.15882465 -0.063599646 -0.059051547 -0.031723995 0.1380617 0.18877693 -0.054431017
0.09699991 0.16701251 -0.12907012 0.10731642 -0.13280682 0.09951004 -0.11006868 -0.09658311
0.040530737 -0.13744888 0.03943068 -0.21689686 -0.15571387 -0.23578219 -0.1311546 -0.18531509
0.18354994 0.20515546 -0.12653978 0.22260742 0.16815971 -0.11840809 -0.043242384 0.13133237
-0.054990508 0.22967719 0.19652982 -0.23739617 -0.019853203 -0.08582517 -0.02392778 -0.24701186
-0.22923718 0.074586764 -0.2383709 0.14923964 0.17942902 0.1576704 0.016761936 -0.044777833
0.002155057 -0.07610242 -0.07247184 0.17096545 0.12631199 0.109377705 -0.03352182 -0.11651141
-0.14819576 -0.15721323 0.010864788 0.19331947 0.0384368 -0.16405311 -0.1542716 0.040953368
-0.01971806 0.07219835 0.13842082 -0.018853918 -0.10992854 -0.24095587 -0.0799309 -0.15396143
-0.17158242 -0.04910722 0.08673176 -0.11807965 -0.049668554 0.10990211 0.15781258 -0.18907128
-0.2134593 0.06778034 -0.12850393 -0.07503691 -0.008983236 -0.0903072 -0.012737561 0.07714393
-0.053050965 0.19367233 0.14620222 -0.10242685 0.01657591 0.21433797 -0.10828496 0.22203216
-0.13922375 -0.23109668 -0.079546064 -0.12772204 -0.18625201 -0.1630127 -0.060563404 -0.01652921
0.13875768 0.065526456 0.22699995 -0.22291233 -0.21617511 -0.0370803 0.23758563 0.027282903
0.16593567 0.14728679 0.17737338 -0.112667315 -0.030206725 -0.090164065 0.19316518 -0.07640443
0.1564929 -0.24726708 -0.10626837 -0.117431656 -0.019706799 -0.00020099332 0.022229852 -0.07168621
-0.122790754 0.08383548 -0.20523445 -0.05978361 0.009258667 0.19948836 0.06841724 -0.036301605
0.21400091 0.16608001 -0.16765353 0.08567319 0.03343734 0.14397594 -0.15181303 0.0008116376
00000000: c362 093e f6d7 313d c8be c83d a582 823d
00000010: b150 fc3d ee39 96bd ba89 1fbe 7d0f 5d3e
00000020: df2b 8a3c 8a60 28be 750d 2f3e f5dd ea3d
00000030: f63a 23bd 36c4 e23c de47 073e d575 c7bd
00000040: ea77 6ebe 1106 513e b464 053e b8cc 2a3e
00000050: 8e85 3a3e 0497 a5bc f8cf 15be cf8a 71bc
00000060: ef6f e4bc f2c1 693b 660d 973c 668a c3bd
00000070: 9ba6 12bd b1c6 063e 7ef4 bdbd ce93 31be
00000080: 229e 123e c04b 4cbe 2bd2 2a3e db5a 6c3e
00000090: f660 343d 4482 3e3d 458a fa3d 6d5c 0bbc
000000a0: 5aa0 c23d cadf 7e3d c79b 8d3c 40ef 2bbe
000000b0: ebd0 8e3c 86d7 373d 631c 9a3d da69 083d
000000c0: af1d d1bb e846 62be 1dcd 1cbe fc89 20be
000000d0: dca7 b6bd ed18 19be 3577 f5b8 6130 dfbd
000000e0: 586c 683e fdb9 3abe 8292 a5bd e046 e0bc
000000f0: dcc7 fc3c 2a51 573e dbc6 ba3c f04c 5bbe
00000100: b843 543e 3bd0 d83d 0770 113e 43cc 59be
00000110: e29f 4f3d 6ec7 23be 534e f1bd 4536 333d
00000120: c088 ea3c bd6f 303e 7149 a7bb 719a cb3d
00000130: 1819 7bbd 77dd 313c d33d bfbd f052 5b3d
00000140: f482 b43d 0e56 46be b15c 69be f896 00be
00000150: 1cc6 2e3d 5327 5fbe 7415 fcbd 52ba 4abe
00000160: 77b0 d13d 6f25 583b eda2 013e 464e 3a3d
00000170: 5a99 f7bd 4d57 3e3e 811d 80bd bab2 81bd
00000180: d713 023e 21fb 433e fde5 66be 1247 513e
00000190: 4c9d 323e 71a3 58be ba5d d3bd 8e24 463e
000001a0: 76e1 533e de41 58bd 08a6 f6bc 8d75 4bbe
000001b0: 7067 49be eeca 71be 97c6 db3d e59c bfbd
000001c0: 4d72 9dbd eea2 22be 8840 82bd 09e0 71bd
000001d0: 05f1 01bd 0c60 0d3e bd4e 413e 0ff3 5ebd
000001e0: e4a7 c63d 5405 2b3e f52a 04be b6c8 db3d
000001f0: 83fe 07be ebcb cb3d b06b e1bd 5ecd c5bd
00000200: 8f03 263d 66bf 0cbe 1182 213d 361a 5ebe
00000210: 7573 1fbe e370 71be 644d 06be 3dc3 3dbe
00000220: 84f4 3b3e 4614 523e a593 01be 33f3 633e
00000230: 0f32 2c3e f17f f2bd ed1e 31bd fe7b 063e
00000240: ba3d 61bd 7f30 6b3e 1d3f 493e fb17 73be
00000250: 2fa3 a2bc 1bc5 afbd 3104 c4bc adf0 7cbe
00000260: 27bd 6abe f2c0 983d 8017 74be 47d2 183e
00000270: 3ebc 373e 5974 213e 5450 893c f668 37bd
00000280: db3b 0d3b 96db 9bbd 1e6c 94bd 9111 2f3e
00000290: ee57 013e 6b01 e03d 2d4e 09bd 899d eebd
000002a0: a1c0 17be 81fc 20be 3902 323c 8af5 453e
000002b0: e86f 1d3d 8afd 27be 60f9 1dbe b8be 273d
000002c0: c587 a1bc bbdc 933d 30be 0d3e 8873 9abc
000002d0: 3722 e1bd 23bd 76be d0b2 a3bd 11a8 1dbe
000002e0: 4db3 2fbe a724 49bd 6ca0 b13d bed3 f1bd
000002f0: 4171 4bbd 5c14 e13d 9f99 213e e79b 41be
00000300: 1395 5abe 6bd0 8a3d 8996 03be f4ac 99bd
00000310: 6c2e 13bc fbf2 b8bd 34b1 50bc a3fd 9d3d
00000320: f84b 59bd 0a52 463e 09b6 153e 2bc5 d1bd
00000330: 34ca 873c 6a7b 5b3e 81c4 ddbd 665c 633e
00000340: ac90 0ebe 9ca4 6cbe 0ce9 a2bd 91c9 02be
00000350: d9b8 3ebe cdec 26be 5511 78bd 4468 87bc
00000360: 7e16 0e3e bc32 863d ad72 683e 2143 64be
00000370: 025d 5dbe 83e1 17bd a649 733e 6580 df3c
00000380: 0aeb 293e 59d2 163e 5ea1 353e 1fbe e6bd
00000390: 1874 f7bc f0a7 b8bd 18cd 453e ed79 9cbd
000003a0: ad3f 203e 9533 7dbe 3ba3 d9bd 0280 f0bd
000003b0: 2770 a1bc bcc1 52b9 611b b63c 38d0 92bd
000003c0: b879 fbbd f0b1 ab3d fb28 52be a9df 74bd
000003d0: aab1 173c ad46 4c3e 571e 8c3d feb0 14bd
000003e0: 0e23 5b3e e110 2a3e 5ead 2bbe 6d75 af3d
000003f0: 98f5 083d 6e6e 133e e074 1bbe 14c4 543a

layers.1.bias f4 [16]
0.22507304 0.12288316 -0.24107243 -0.22818021 -0.11497785 0.08860066 -0.090306886 -0.024326542
0.028600818 -0.14693949 0.12668207 0.14548822 0.16767903 -0.09794591 0.12426609 0.074900664
00000000: 8c79 663e 2baa fb3d b1db 76be 13a8 69be
00000010: 8279 ebbd 4374 b53d d1f2 b8bd 7548 c7bc
00000020: 434c ea3c 4e77 16be f2b8 013e ddfa 143e
00000030: 0db4 2b3e de97 c8bd 387f fe3d 8565 993d

layers.2.weight f4 [1, 16]
0.07356544 -0.09495384 -0.17898756 0.084041014 -0.20725963 0.19333114 -0.008649302 -0.05661813
0.027913453 -0.21500672 -0.048367374 0.15810537 0.061894163 0.18795669 0.15066427 0.12804049
00000000: 7aa9 963d 2977 c2bd 8448 37be b21d ac3d
00000010: de3b 54be 99f8 453e cdb5 0dbc 6ae8 67bd
00000020: c1aa e43c b92a 5cbe de1c 46bd 60e6 213e
00000030: bc84 7d3d b877 403e bc47 1a3e 0c1d 033e
