saved_models/pytorch_connect/saved_model_compas19.pt (torch, 4490 bytes, 5 tensors)

layers.0.weight f4 [16, 7]
00000000: ac90 353e 98c6 523e 0c51 893e bc91 393e
00000010: cebd 57bd 6d42 2cbe dd03 5abe 06eb 003d
00000020: 34e6 85be 2cee 6cbe eec2 3c3c f799 81bd
00000030: d76e 40bd 2da0 9dbe 3d90 533d b8a3 5dbe
00000040: c0b9 2a3e 4d0e c23e d92f 273e 8705 7fbe
00000050: ed11 8abe 38cb 09be 41e2 a7bd a71f 8dbe
00000060: d901 63be a3a1 a93e b0bd 49bd 406c a93e
00000070: 1f9e a73d 0980 94be d240 acbe 303e 69be
00000080: 107e 593d c87b 87be 3338 7b3e d483 833d
00000090: 3e0c 133d f544 b93e 24d4 933d 00d8 48bd
000000a0: 1cda bf3e f791 8abc 7483 5abe 80e3 16bd
000000b0: cc0d bb3e d1f4 8e3d e971 7abd 13f3 8fbd
000000c0: 3483 90be d767 c1bc 8fe1 913d 4dd7 0a3e
000000d0: 7d0f 9dbe d443 b13e efa6 483c deb2 9b3d
000000e0: 80a6 1c3e 1d72 ecbd 2152 d5bd 0100 98be
000000f0: c40a 953e 387d 913e 199c 6d3e c43b 103d
00000100: b3ff 1d3e eed7 423d 156e 303e 2076 0e3e
00000110: 6493 b83e 6c89 96be 0b39 f53d 949c 6f3c
00000120: 57aa 18be 2112 943e 014f 513e 11c8 9dbe
00000130: 0362 713e efbe 403e 0532 543e f934 893c
00000140: 1b93 2ebe 1d93 bdbe 15be 21be 5f33 903e
00000150: 94e6 b83e 41c4 15be 7a6b a6be 2cc8 a9be
00000160: 8700 f6bc 50aa eb3c 862c b8be 550a 313e
00000170: d2d7 1abe 3cf3 b03e 2f27 94bc a162 473d
00000180: 11d5 33be 0371 ad3e 99b3 44bc 3183 aabe
00000190: 2160 ffbd 0469 40be 738b a83e 24a6 57be
000001a0: ea93 99be a3b4 21be f7be 403e 835e 8ebd
000001b0: 81bb e4bb c3bc a63d d2af 38be 6da7 b73e
0.17730969 0.2058357 0.26819646 0.18122 -0.052671246 -0.16822214 -0.21290536 0.031474136
-0.26152194 -0.2313773 0.011521084 -0.063281946 -0.046980705 -0.30786267 0.05165123 -0.21644485
0.1667242 0.37901536 0.16326846 -0.24904452 -0.269668 -0.13456428 -0.081974514 -0.2756321
-0.22168674 0.33131132 -0.049253166 0.330904 0.08184456 -0.29003933 -0.33643204 -0.22777629
0.05309874 -0.26461625 0.24533157 0.064216286 0.035900347 0.36185423 0.07218197 -0.04903412
0.37471092 -0.016915305 -0.21339208 -0.036838055 0.36533964 0.06980289 -0.06114379 -0.070287846
-0.282251 -0.023609085 0.071231 0.13558693 -0.3067588 0.3462206 0.012246831 0.076024756
0.1529789 -0.11545203 -0.104160555 -0.29687503 0.29109776 0.28415847 0.23204078 0.035213247
0.15429573 0.047569208 0.17229493 0.13912249 0.3604995 -0.2940172 0.11973771 0.0146247335
-0.1490873 0.2892008 0.20440294 -0.308167 0.23572545 0.18822835 0.20722206 0.016748892
-0.17048304 -0.370263 -0.15795167 0.28164193 0.36113417 -0.14625646 -0.32503873 -0.33160532
-0.030029548 0.028767735 -0.3597147 0.17289098 -0.15121391 0.34560573 -0.01808509 0.048678044
-0.17561747 0.33875284 -0.01200571 -0.33303216 -0.12469507 -0.1879006 0.3291889 -0.21059471
-0.29995662 -0.15791564 0.18822847 -0.069516204 -0.00698036 0.08141472 -0.1803582 0.35869923

layers.0.bias f4 [16]
00000000: e096 0abe 9928 4fbe ff24 583e 8dbb 96be
00000010: 394a 7ebe 8cd2 63be d5a2 c43d 0c70 b53d
00000020: f4a5 873e 1c3d 953e d15d 5dbe b0ca d2bd
00000030: 674b fb3d f16d 17be 33a2 663e be8f 643e
-0.13534117 -0.2023033 0.21107863 -0.29439965 -0.24833001 -0.22248286 0.0960137 0.08859262
0.264938 0.29148185 -0.2161782 -0.10292566 0.12270241 -0.14788033 0.22522812 0.22320458

layers.1.weight f4 [16, 16]
00000000: df0c 713e 7d12 573d 680c 0dbd 694a 6c3e
00000010: 4b92 203c 29aa 453e cd3a 48be 8fdd 293e
00000020: 39f8 e5bd 8f88 2e3e 29c9 e83d 7bba 353d
00000030: 30eb 60be bd1b d3bd 4c79 f13d c4ec 5bbd
00000040: 7c26 e1bd 7b23 3e3e 0b33 803e c147 a4bd
00000050: 53fa 3a3e 042a 1cbe 18bb 23be 5465 3b3e
00000060: 994c 65bd 28d7 4bbd 5c39 7a3e 32d7 c73d
00000070: 750c d93c 75f3 773e fa30 1abe ee0f 5bbe
00000080: 49dd febd 360b 13be 4b99 31bc 2542 613e
00000090: 88db 003d d5e1 bb3d fc8e 9bbd b582 a1bd
000000a0: ae98 b0bd 0dd6 4dbe 3f5e 0a3e 0c74 a03d
000000b0: fe26 203e a0df 733d 3ef4 95bc 4095 d6bc
000000c0: 2c24 39be f099 ccbd c38b 91bd 23e4 5d3e
000000d0: cce9 693e 1659 b9bb 1724 503e 85fa 353e
000000e0: aa5f 363e 6494 47be 4417 1fbe de7d 54be
000000f0: 8543 d4bd 1d12 10be a24c 5b3d d790 5dbe
00000100: 8802 c63d 275d 22be a713 8d3d 86cd edbd
00000110: b52c 163e 018e 65be b9a4 0cbd 3daa 75be
00000120: c1d4 9d3d 6839 223e fa43 bb3d 4a54 debd
00000130: be54 c6bd 142e f5bc b65d 79be 84b9 2ebd
00000140: bd84 47ba 44a9 323d a68b 99bd ea69 24be
00000150: 2647 14be 81ce 3dbe e3b5 513e 2a4c 65be
00000160: 86b9 523e 30de c33d 8add 123e 6a5d 1f3d
00000170: 5edc b63d 96cc 97bd 4804 6c3e ab4e 183d
00000180: 9bc3 bd3d 9504 0fbe 25f6 143e dd7f 5b3e
00000190: 4c41 2fbe 9391 77be a982 de3a 0621 553d
000001a0: f188 783c abfe 1bbd 10a0 7a3e 607a 633e
000001b0: 1458 08be dccc f0bd 5e90 2cbe 6f6d 3e3e
000001c0: 6b5c 5d3e 7c7f 07bc b1e1 123e bc9a 0abe
000001d0: 2e9b 44bd f6c2 0c3d aa48 e73d 909f 73be
000001e0: e53c 24be d0f1 443e 02a6 36be 998e e33d
000001f0: 2772 c13d 03ef 35be cfb1 113e 8199 483e
00000200: bf66 bfbd 5f5d bd3d d25b 623e 8fdd 63be
00000210: 1de3 ad3d ff25 ac3d b567 06be 768e c6bd
00000220: b512 a03d 172a 5c3e 30ca 89bc efca 5d3d
00000230: 2599 9a3d d2db 5e3e 08a5 723e 95c6 f13d
00000240: e339 af3d 8971 a3bd fe49 8bbc a22e e5bd
00000250: b998 61be 4e26 8abc 74c0 e5bd 48d3 2ebe
00000260: dd3b 103d 257b 7ebd ea68 0d3e 9016 a13d
00000270: 46ec 6ebe 2b1f dbbd e586 5d3d 00a7 1d3e
00000280: d70c 123e 88df 363d 1d5e 3dbe 7d97 193e
00000290: 3af4 f03d fd42 543e f7a5 e9bc 6253 ce3d
000002a0: 88c8 c93d 99bb b1bd 6bba be3d 57a5 afbc
000002b0: 8186 493e 4e3d 69be f549 5fbd a6bd 6fbe
000002c0: bf7f f43d c305 54bd d201 2a3d 14d1 5e3e
000002d0: 391c 01bd 328f 94bd 4704 a23c ade7 c43d
000002e0: dc82 2dbe 339e 093e 7481 eabd 4114 19bd
000002f0: fd78 7fbe a4cb f03d 200b 22be 901b 33be
00000300: fd53 7d3e 034e 8b3d 3bbb 0ebe ab05 313e
00000310: 4627 003d d313 b03d afb4 5e3e ccd1 5f3e
00000320: 24ad 403e fbc7 5fbe 9940 6a3e 7b03 04be
00000330: e648 e1bb 9a91 06bd b82e 6e3c feea 29be
00000340: c01b 77be cef3 be3d c599 88bc 417d 473e
00000350: 65c4 85bd 09b7 3fbd fc27 9e3a e57e b6bd
00000360: 0cc5 863d 4bd0 193e 5391 273e 2080 6c3e
00000370: 273f 33bd 1129 97bd f782 f5bc 1baa ca3d
00000380: ad03 a93b 4db5 80bd e1eb 4abe f61f 0f3e
00000390: 2309 40bd 9558 15bc 0530 99bd 2071 2bbe
000003a0: 7770 373e 41dd 24be 9603 3c3e 9a52 61be
000003b0: 2b82 62bb db6c 27be 111e 0fbd 27a6 2d3e
000003c0: 0662 a73d 71b0 5f3e 791f 1e3e 8349 21be
000003d0: c71d 25be fc99 9fbd 257c 653d 80dd 0abe
000003e0: 24bc e03d 88d2 52be a1ba 44be 4c8d 52be
000003f0: 19db 2a3e 3b35 2d3e 6155 9c3d 0446 51bc
0.23540066 0.052507866 -0.03443566 0.2307526 0.009800504 0.19303192 -0.1955368 0.16588424
-0.11228985 0.1704428 0.11366493 0.044367295 -0.21964717 -0.10308025 0.11790714 -0.053692594
-0.109936684 0.18568222 0.25038943 -0.080214985 0.18259554 -0.15250403 -0.1598934 0.18300372
-0.055981252 -0.049765736 0.24435943 0.09757842 0.026495198 0.24213965 -0.15057746 -0.21392795
-0.124445505 -0.14359745 -0.010839771 0.21997888 0.03145936 0.091739334 -0.075956315 -0.078862585
-0.08622871 -0.20101185 0.13512515 0.07834634 0.15639874 0.059539437 -0.01830494 -0.026194215
-0.18080205 -0.09990299 -0.071067356 0.21669059 0.22843093 -0.005656372 0.20326267 0.17771347
0.1780993 -0.194902 -0.15536219 -0.2075114 -0.10364441 -0.1406941 0.05353988 -0.21637283
0.096684515 -0.15855847 0.06888514 -0.11611466 0.14665492 -0.22417451 -0.03433678 -0.23990722
0.07706595 0.15842211 0.09143825 -0.108559206 -0.09684132 -0.029929198 -0.24352154 -0.04265739
-0.0007611027 0.043618456 -0.07497339 -0.16056028 -0.14480266 -0.18535806 0.2047954 -0.22392336
0.20578584 0.09563863 0.14342323 0.038907446 0.089287505 -0.074120685 0.23048508 0.0371844
0.092658244 -0.13966592 0.14547022 0.21435495 -0.17114753 -0.24176626 0.0016976196 0.052033447
0.015169368 -0.038084667 0.24475121 0.22214651 -0.13314849 -0.11757824 -0.16851947 0.18596433
0.21617286 -0.008270141 0.14343907 -0.13535589 -0.047999553 0.034365617 0.112931564 -0.23791337
-0.16038854 0.19232869 -0.17836764 0.11111183 0.09445601 -0.17766957 0.14227985 0.19589807
-0.09345769 0.09246325 0.22105339 -0.22252487 0.08490584 0.08405685 -0.13125499 -0.09695141
0.07816068 0.21500431 -0.016820043 0.05414861 0.07548741 0.21763542 0.23695767 0.11805455
0.08555963 -0.079806395 -0.017003056 -0.11190535 -0.22030915 -0.016863968 -0.11218348 -0.17072785
0.03521334 -0.06212916 0.13809553 0.078656316 -0.23332319 -0.10699304 0.054083724 0.15395737
0.1426271 0.04464677 -0.18492933 0.14999194 0.117653325 0.20728679 -0.028521521 0.10074498
0.098527014 -0.086783595 0.093129 -0.021441145 0.19680215 -0.22777292 -0.05451389 -0.23412189
0.11938428 -0.051763307 0.041505642 0.21759444 -0.031521056 -0.07253875 0.01977743 0.09614501
-0.1694445 0.13439254 -0.114504725 -0.03737283 -0.24948497 0.11757591 -0.15824556 -0.17490983
0.2473907 0.06801989 -0.1393861 0.17287318 0.031287454 0.08597531 0.21748613 0.21857375
0.18816048 -0.2185363 0.22876205 -0.12891953 -0.0068751452 -0.0328537 0.014537506 -0.16593549
-0.2413168 0.09323846 -0.016674886 0.19481374 -0.065316 -0.046805415 0.001206636 -0.08910922
0.065805525 0.15020864 0.1636403 0.23095751 -0.0437614 -0.0738088 -0.029969675 0.09895726
0.005157909 -0.062845804 -0.19816543 0.13977036 -0.046883713 -0.009115358 -0.07479862 -0.16742373
0.17913996 -0.16100027 0.18360743 -0.22004166 -0.003456245 -0.16350119 -0.034940783 0.16957913
0.08172993 0.21844651 0.15441693 -0.15750699 -0.1612464 -0.07793042 0.056026597 -0.13561058
0.10973385 -0.20588124 -0.19211818 -0.20561713 0.16685142 0.16914837 0.07633472 -0.012773041

layers.1.bias f4 [16]
00000000: 982c e73d b69f 4dbd d9cb 543e ed60 203e
00000010: 7bbe 4c3e 879c 113e 00d5 b9bb eae0 0e3d
00000020: 3fc3 6c3e de42 383e 61ce 333e 8a0a d13d
00000030: 8e0d e3bd 1f28 1e3e 8ca9 773e 445c 8f3d
0.112878025 -0.05020114 0.20780887 0.15661974 0.19994538 0.14219867 -0.0056711435 0.034882464
0.23121355 0.17994258 0.17559196 0.10207088 -0.1108657 0.15444992 0.24185771 0.0700002

layers.2.weight f4 [1, 16]
00000000: 089e 59bc 3668 223e a831 503d 5d94 2b3d
00000010: b7e1 8f3c cf2f f9bd 607e 5cbe b429 043e
00000020: e43a 43be 90df 8739 e93b dfbd e1de 813c
00000030: 1240 a13d b164 d83d 1989 12be 189c 4d3e
-0.0132823065 0.15860066 0.050828606 0.041889537 0.017563684 -0.12167322 -0.21532583 0.12906533
-0.19065434 0.00025915774 -0.10900099 0.015853347 0.078735486 0.1056608 -0.14310111 0.20079076
