saved_models/pytorch_connect/saved_model_coverage10.pth (torch, 6302 bytes, 5 tensors)

weight f4 [16, 13]
00000000: 4423 08be 73ca ba3d 272c 683d 7bde bb3d
00000010: 13cf 44be 8284 bebc 2a49 93be 7e44 113d
00000020: 231a b23d 14af 8fbe ae8a 93be a96a 093d
00000030: 62cf 79be 457b de3d 6175 893b 5bb2 7fbe
00000040: 78c3 383e d84c 33be 6618 4a3e 6cc5 21bd
00000050: c94d 443d 44e7 5cbe 2c29 65bd 186c d3bd
00000060: e3ec f9bd 474c 8fbd ca9a 943e c4e6 f7bc
00000070: 076c 783e e959 0dbe 95c8 52be a18f 743d
00000080: 6317 803e 6514 49bc 0c5d 6ebe 22a0 833e
00000090: 0d3b 553e bc76 37bd 07e1 54bc 93b0 7b3d
000000a0: 4db3 043d 9897 713e 807c c43d 3a32 30be
000000b0: 68c2 1b3e c091 41be 4b4b babd 7ac5 b33d
000000c0: da21 203e 204a 3fbe 315e 6e3e 9fbd 8bbd
000000d0: e911 68be 4619 acbc 18b2 c53d fa75 0d3e
000000e0: 6eb3 8d3b e6ce fcbd 758a 113e 1aa3 9fbd
000000f0: 06e9 5dbe 34d9 333e 3ef6 8abe 1303 26be
00000100: 6f80 6f3b 5689 86be 4463 08be c961 88bd
00000110: 0581 05be 5002 2f3d c3c5 60be 8294 643e
00000120: 9d9f 7c3d 8e9f 37bc ee2d 923d e6ca 203e
00000130: 86ac 28be 7ba7 90bc fd90 89bc 61cb de3d
00000140: c0a7 713e 4679 613e bdc8 5b3e 626c 16be
00000150: 2e52 053d 8b5f 9b3d df70 493e 5405 103e
00000160: 2337 8e3e 24ee a5bd e917 19be dc7d 74bd
00000170: c06b 753e baf9 383d 9fff 34be a08b c83d
00000180: 184a f9bd 0ba4 7bbe c9e8 84be f5a9 183e
00000190: ffd0 5a3e a108 d93d 9c27 0d3e b0bc 853e
000001a0: be86 6c3d e217 31bb ccc2 5e3d 1cb2 2d3e
000001b0: 22a3 75be 1686 6abe be32 cb3c 562b 4f3e
000001c0: 5068 af3c c307 32bd c786 763e c2cc 41bc
000001d0: c8dd 0dbe f936 48bd 2ff6 8b3d dcfd b3bd
000001e0: 13ff 383e 1a17 213e 311b 0e3d 6201 923d
000001f0: 0614 41be a6dd b03d 8368 65be f4cf 8dbe
00000200: 18aa 13be 52dc 253e 006e 553e e3fb 613e
00000210: bdcf 8abb cfd3 6f3e c03d 3c3e 5c1c e53d
00000220: 05ed c3bd b4a4 a43b 88d9 83be 4fc1 2ebd
00000230: 9048 f23d 6e22 63be 4e47 df3d 2c08 1d3e
00000240: a6f1 a33c 0f33 5fbe 9774 cbbd 8888 86be
00000250: ff67 7d3e ca8a f4bd 87a1 373d a851 b0bd
00000260: b9c7 803e 01d5 4e3e 99a9 6a3e ec6f 3ebd
00000270: 9184 e1bd 622e 333e 819e 353e 9f38 9bbe
00000280: 8e46 e1bd be33 32be ad4e 6d3e c1d9 a63d
00000290: a524 1c3e 2f2b 4b3d 6ef5 0f3d c344 2dbe
000002a0: 95e1 d3bd 7271 603e 5fed 8b3e 4d8e c23d
000002b0: a5f6 20be deba 193d a76d 73be 94fc c33d
000002c0: f594 523e 0bd8 d7bd 98ff ac3d 9ce2 e63d
000002d0: f5f1 453e f606 273e 1f43 903d 01d4 353d
000002e0: 9f55 803d c4f1 85bd 3b98 9e3d 8a42 66be
000002f0: c12e 68bd 0a2c 6cbc 0ceb e63d 3b00 0cbd
00000300: 2764 d8bd ed60 39bd 177a a73d 6c1f d73d
00000310: be1c 88be 44bc 63be c8f2 3e3e 56a2 73bc
00000320: d7dd 8cbe 7de9 5d3e 2ba5 5dbe 7af2 013e
00000330: 4ec9 abbd ec68 533e d3e7 093d 7297 2b3e
-0.13294703 0.091206454 0.056682732 0.09173294 -0.19219618 -0.023256544 -0.28766757 0.03546571
0.086963914 -0.28063262 -0.28816742 0.033548985 -0.24395517 0.108633555 0.004194901 -0.24970381
0.18043315 -0.17509782 0.1973587 -0.039494917 0.047925744 -0.21572596 -0.055947468 -0.103233516
-0.12203386 -0.069969706 0.29024345 -0.030261405 0.24259959 -0.13803829 -0.20584328 0.059707288
0.25017843 -0.012272929 -0.23277682 0.2570811 0.20823307 -0.04479097 -0.012993104 0.06144769
0.032397557 0.23592985 0.09594059 -0.1720666 0.15210879 -0.18903255 -0.09096392 0.087779
0.15637913 -0.1868062 0.23278119 -0.06823277 -0.22663082 -0.021008145 0.09653109 0.13814536
0.004324368 -0.1234415 0.14212973 -0.07794781 -0.21670923 0.17563325 -0.27140993 -0.1621211
0.0036545058 -0.26276654 -0.13319117 -0.06659276 -0.13037498 0.042726815 -0.2195044 0.22322276
0.061675657 -0.011207474 0.07137667 0.157024 -0.16472062 -0.017657986 -0.016792769 0.10878635
0.23599148 0.22018918 0.21463294 -0.14689782 0.032549076 0.07586583 0.19671963 0.14064533
0.2777644 -0.08102062 -0.14950527 -0.05969034 0.23966885 0.045160033 -0.17675637 0.09792256
-0.121723354 -0.24574296 -0.2595885 0.14908583 0.21368788 0.10597349 0.13784641 0.2612052
0.057745688 -0.0027022292 0.05438499 0.16962475 -0.23988011 -0.22902712 0.02480447 0.20231375
0.021412045 -0.043464433 0.24074851 -0.011828603 -0.13854134 -0.04888055 0.06834065 -0.08788654
0.18066053 0.15731469 0.0346939 0.0712917 -0.18855295 0.08636026 -0.2240315 -0.27697718
-0.14420354 0.16197327 0.20842743 0.22068743 -0.00423619 0.23420642 0.18382931 0.1118705
-0.09566692 0.005024517 -0.257519 -0.042664822 0.118302464 -0.22181103 0.10902272 0.15335149
0.020012688 -0.21796821 -0.09934347 -0.2627604 0.24746703 -0.119405344 0.04483178 -0.08609325
0.25152376 0.20198442 0.22916259 -0.046493456 -0.11011613 0.17498162 0.17736246 -0.30316636
-0.10999785 -0.1740255 0.23174544 0.08147002 0.15248354 0.04960173 0.03514617 -0.16920762
-0.10345761 0.21918276 0.27329537 0.09499798 -0.15719087 0.037531726 -0.23772298 0.0956966
0.20564635 -0.10539254 0.08447188 0.11273691 0.1933058 0.16311249 0.07044052 0.044391636
0.06266331 -0.06540254 0.077438794 -0.2248632 -0.056685213 -0.014414797 0.112753004 -0.034179907
-0.105659775 -0.04525845 0.08177584 0.1050404 -0.2658443 -0.22239786 0.18647301 -0.014870247
-0.27513 0.216711 -0.21645038 0.12690154 -0.08388005 0.20645493 0.03366835 0.1675699

bias f4 [16]
00000000: 67b9 61bd 0e81 2d3e 4dc0 0b3e 32f4 5c3d
00000010: 7e78 233e b071 d13d 896e 583d 4de0 01be
00000020: 51ad 513e 0abf 1abe 4157 5ebe 0ee1 453e
00000030: bbf6 76be 6693 953d 2ffc 33be abec 2ebe
-0.055108454 0.16943762 0.13647576 0.05394382 0.15963933 0.10226762 0.05283979 -0.1268322
0.20476271 -0.15111938 -0.21712972 0.19324133 -0.24117558 0.07303505 -0.17576669 -0.17082469

weight f4 [16, 16]
00000000: 174e 15be 1f75 5abe 1161 ff3d a747 63be
00000010: 1634 2bbe f959 3ebe 3ca3 8c3d 9f71 6e3d
00000020: 19c5 31be 3403 21be e667 2d3e 47f4 43be
00000030: 6a09 d73d fa84 833e 4932 803d 6c8a 323e
00000040: 4255 52be 02e4 623e 9bc3 c03d f1ab b63d
00000050: 35be 993d a002 6c3e c888 49be b57b 2ebd
00000060: a1b3 473e b2f4 273d 025e 22be 6ee9 af3d
00000070: f956 ebbd cac4 553e 0694 d3bd 2657 b23d
00000080: fef3 febd db1e 73be 9e17 5cbe 7c8d e3bd
00000090: c49f 38be 4609 30be 2990 a4bd 4c49 313e
000000a0: 1f26 723d 3ea8 953b b1a0 e7bd 48f2 2fbd
000000b0: 8737 783e a3d2 d3bd f55f 5bbc ff5b 1ebe
000000c0: 7e3b 7e3e 7850 5e3d a729 00be fa90 b9bd
000000d0: 5518 cebb 45b1 c33d 7ce5 88bd c773 32be
000000e0: 8b1c 183e 75be 973e 63c1 68be aac9 203c
000000f0: ea61 3cbe 5031 8b3d e7c4 203e 75a4 183d
00000100: 89e3 20be 25c6 813d 6436 373e d2ad 273e
00000110: eb06 03be deb4 ab3d 07b7 9b3d dc83 d93c
00000120: fce0 a4bd fa59 27be c45c 03be edc4 de3c
00000130: 9321 0a3e 4cbc 04be 05da a5bd 5f1f 6d3e
00000140: 0715 6bbe 52f7 503e f20b 7f3c 0a77 86bd
00000150: b3e0 c5bd fea1 75be 1c24 27be b654 debd
00000160: 26ee 1c3d b91a 12bc 6957 7e3d 97f6 023e
00000170: 8af3 abbd 105a 5d3e f24f 043e 3a93 3cbe
00000180: b145 693e 85d5 4dbe 139c 7ebd 1088 c1bd
00000190: ed24 72bc 5364 763e e7b6 20be 4bf5 7c3e
000001a0: c1b5 7bbe f397 80be 9703 05bd 362b 323d
000001b0: 8d6d 44be 47bf 04bd c470 c639 acb8 db3d
000001c0: 2e5b 503e 5e13 323e 603d 65be a204 303e
000001d0: 5f74 82bd 6091 44be d668 04be b7ef 3cbe
000001e0: c28e 4bbe 4be4 4cbd 014e 29be 6770 dd3d
000001f0: c818 06be 2f9e 3b3e 3ba8 efbd a0cf d3bc
00000200: 74f0 093d 22a8 063e 2337 6f3e 1730 433e
00000210: a324 1abe 68cd 973d 57d7 493d a4ae 223d
00000220: 6098 213e c558 0ebd 246b 13bd 0bb8 3f3e
00000230: 3427 04bc 9b8c f0bd 7c20 9b3d 13d7 3a3e
00000240: 089d 43bd 6401 633d 3e59 50bc 820b ccbd
00000250: c292 4b3d 65f4 b53d 6a7e 5e3e 55c0 623c
00000260: 1a55 443e 937a 2dbe 58fe 47be f7c7 113e
00000270: d0ab 483e 7b3f e4bd e6da f53d 29cc 10bd
00000280: 86c7 143e c271 303e 1e52 563e aed1 a5bd
00000290: be9a d3bc c362 373e 045d 353c 9c25 003e
000002a0: effa 31be dba8 4c3e 6f64 0bbe f4be 1c3e
000002b0: 3fd6 743e 95b2 243d 3aad e03d 9258 183d
000002c0: c41a 2b3e 8124 183e 3058 19bd ae60 39be
000002d0: f8bd 05be 0dcc 2b3e f1ba a63c 2e7b 30be
000002e0: 2d4d 6cbe fd62 61bd b00a 58bc 671d 5b3e
000002f0: ddbf b3bd d884 713e a637 5dbe 0aaa 7bbe
00000300: 445d 003e 4859 42be 4188 303d 2286 513e
00000310: 78d5 0d3e ca89 153d bf0d f23d 2dce bfbd
00000320: 25f6 ef3d 19e2 38be 2a76 353d 6713 2a3e
00000330: 6fa2 83be 8c64 41be cf0b 9fbd 2a4c 573e
00000340: 307d 2d3e 46bd 793e c0c9 00be 67b6 393e
00000350: aab1 2bbe 0981 8f3d 4a0b dbbb 2b0a 903d
00000360: baaa 3c3e 43dc 813d c338 2abe 240c 423e
00000370: c282 1dbe 6b44 cabd eab9 88bc 9617 e7bd
00000380: b95e e23d 6c84 8c3c 0019 dfbd 9207 10be
00000390: 90da 343e ae8c 17be a351 363e 15d1 40be
000003a0: 5df1 053e 9c4c 4dbe 775f 143e dd72 233e
000003b0: 3b4e f43d e21a 46bd 622c 143e 58ca e63c
000003c0: 4233 613d 468e c4bc 778d 14be 54a2 3bbe
000003d0: 1337 1f3c b179 a63d 0b93 31be 4ac4 53be
000003e0: a839 d2bc 4578 0f3e f20c 16be 6b81 cf3d
000003f0: 9bda 12be bed3 8a3d de87 40be 319e 173e
-0.1458057 -0.2133374 0.12469686 -0.22195302 -0.16719088 -0.1858901 0.06867072 0.058213826
-0.17360343 -0.15723878 0.16934165 -0.19136153 0.104998425 0.2568739 0.06259591 0.17435616
-0.20540336 0.2215729 0.09412309 0.08919514 0.07506982 0.23047876 -0.19681084 -0.042598445
0.19502117 0.041004844 -0.15856174 0.08589445 -0.11491198 0.2087585 -0.103309676 0.087080285
-0.124488816 -0.23742239 -0.21493384 -0.111109704 -0.18029696 -0.17191038 -0.08035309 0.17313117
0.059118386 0.004567175 -0.11309946 -0.042955667 0.24239932 -0.1034291 -0.013389577 -0.15464781
0.24827382 0.05427596 -0.12515889 -0.09060855 -0.0062895217 0.09555296 -0.06684396 -0.17426978
0.14854638 0.29637495 -0.22730021 0.009813705 -0.18396726 0.06796515 0.15700112 0.037266213
-0.15711798 0.06336621 0.17891842 0.16374901 -0.12795608 0.08384107 0.07603269 0.026552133
-0.08050725 -0.16342917 -0.12828356 0.02719351 0.1348937 -0.12962455 -0.080982246 0.23156498
-0.2295724 0.20406845 0.015566813 -0.06565674 -0.096619986 -0.23987576 -0.16322368 -0.10856001
0.038313054 -0.008917504 0.06209508 0.12789379 -0.08396061 0.21616387 0.12921122 -0.18415537
0.22780491 -0.20100982 -0.062160563 -0.0944978 -0.014779312 0.24061708 -0.15694772 0.24702947
-0.24581052 -0.25115928 -0.032474127 0.04349824 -0.19182415 -0.03240898 0.0003784952 0.10728583
0.20347282 0.173902 -0.22386694 0.17189267 -0.06369852 -0.19196081 -0.12930617 -0.18450819
-0.19878677 -0.050022405 -0.16533662 0.10812455 -0.13095391 0.18322061 -0.11702009 -0.02585584
0.03367658 0.13150075 0.23360877 0.19061314 -0.15053038 0.07412225 0.04927763 0.03971733
0.15780783 -0.034752626 -0.03599085 0.1872255 -0.008065987 -0.11745568 0.07574555 0.18246107
-0.04775718 0.055421248 -0.0127165895 -0.099631324 0.049700506 0.08884505 0.2172791 0.013839801
0.19173089 -0.1694129 -0.19530618 0.14236437 0.19596791 -0.111449204 0.12004642 -0.035350952
0.14529237 0.17230895 0.20929763 -0.08096634 -0.025830623 0.17908768 0.01106954 0.12514347
-0.1738088 0.19986288 -0.13612531 0.15307218 0.23909853 0.04020937 0.1097054 0.037193842
0.16709429 0.14857675 -0.037437618 -0.18103287 -0.13060749 0.16777058 0.020352812 -0.1723449
-0.23076315 -0.055026043 -0.013186142 0.21397935 -0.087768294 0.23585832 -0.2160326 -0.24576584
0.12535578 -0.1897937 0.04309869 0.20461324 0.13850963 0.03650836 0.11819028 -0.09365497
0.1171687 -0.18055 0.044302143 0.16608964 -0.25709864 -0.18886012 -0.07765924 0.21025148
0.16942286 0.24388608 -0.12576962 0.18135987 -0.16766992 0.070070334 -0.0066846954 0.070331894
0.18424502 0.0634084 -0.16623215 0.18949944 -0.15381911 -0.09876331 -0.016690213 -0.112837955
0.11053223 0.017152987 -0.1089344 -0.14065388 0.176615 -0.14799759 0.1780458 -0.18829758
0.13080354 -0.20048755 0.14489542 0.15961786 0.11928984 -0.04836548 0.14470056 0.028172657
0.054980524 -0.023993623 -0.1450709 -0.18323642 0.009717721 0.081286795 -0.17341249 -0.20680347
-0.025662258 0.14010723 -0.14653376 0.101321064 -0.14341204 0.06778668 -0.18801829 0.14806439

bias f4 [16]
00000000: d144 acbd 2cfd 01bd abab a73d 9c42 ab3d
00000010: 66e6 7abe 24a4 22be aae3 cb3c 9e48 32be
00000020: ec7b ea3d 992c 1f3e a2bc 603e fe64 68be
00000030: 5c0e 02be 1191 6a3e c83c e8bc 2463 fbbc
-0.08411563 -0.031735584 0.0818704 0.08362314 -0.24501953 -0.15882927 0.024888832 -0.17410514
0.114494175 0.15544356 0.21946958 -0.22694775 -0.1270079 0.22906901 -0.028349295 -0.030686922

weight f4 [1, 16]
00000000: 0b5f e73d 8027 163d d869 86bd b7c0 9ebe
00000010: 7e6d 67be 45eb fa3d c0e0 753d 40fb 4cbd
00000020: 8b97 aa3d 8d2e 323e 3b1e d13d 67dc b6bc
00000030: 7b63 43be 340c 07be 1619 14be 0160 61be
0.11297425 0.036658764 -0.06563157 -0.31006405 -0.22600362 0.12251905 0.06002879 -0.0500443
0.08329686 0.1740057 0.10210844 -0.022321893 -0.19080918 -0.13188249 -0.14462695 -0.22009279
