saved_models/pytorch_connect/saved_model_coverage7.pth (torch, 6228 bytes, 5 tensors)

weight f4 [16, 13]
0	0x3dfdc569	0.123911686
1	0x3d880931	0.06642378
2	0x3e3711a9	0.1787783
3	0x3d949a42	0.07255985
4	0x3e2bb6eb	0.16768996
5	0x3d141b3f	0.036158796
6	0xbd8e72d8	-0.069554985
7	0xbd8d7688	-0.06907374
8	0xbdba29b5	-0.09089986
9	0x3dc788ef	0.09742915
10	0xbc5c90ee	-0.013462288
11	0x3e29baa6	0.16575107
12	0x3e258dd6	0.16167387
13	0xbe3c3aa9	-0.18381752
14	0xbdb20587	-0.086924605
15	0x3d173558	0.036916107
16	0xbd22bc6e	-0.03973048
17	0xbe8b0eb2	-0.2715965
18	0xbe3d73d4	-0.18501216
19	0x3dd45d71	0.10369385
20	0x3cc5ac94	0.024130143
21	0x3e24b465	0.1608444
22	0x3db2db1b	0.08733197
23	0x3d9824b9	0.07428879
24	0x3e81a0d6	0.2531802
25	0x3e681bec	0.22666901
26	0x3d55f5ef	0.052236494
27	0xbde5da0a	-0.11223228
28	0x3e1729b1	0.14761998
29	0x3c1e2928	0.009653367
30	0x3cc1f161	0.023674669
31	0x3df0c10e	0.11755572
32	0x3e2e1a37	0.17002188
33	0x3e85f45e	0.26163
34	0x3dc7b362	0.097510114
35	0x3dbb101b	0.09133931
36	0xbe842a5e	-0.25813574
37	0xbc626b47	-0.013819522
38	0xbe46d103	-0.19415669
39	0x3dd16b1d	0.10225508
40	0x3de50d55	0.111841835
41	0x3cd37d91	0.02581671
42	0xbe5aafdf	-0.21356152
43	0xbe82d057	-0.25549576
44	0xbd7a272e	-0.06107252
45	0x3e9d104e	0.30676502
46	0xbe004889	-0.1252767
47	0xbe80320f	-0.25038192
48	0xbdb6ab77	-0.08919423
49	0x3d12663b	0.035742026
50	0xbcb4c9fe	-0.022068974
51	0xbe0ba884	-0.13638502
52	0xbe45e1fe	-0.1932449
53	0xbdb20a15	-0.08693329
54	0xbdc2bd7e	-0.09508799
55	0xbe81f925	-0.25385395
56	0x3e861213	0.26185665
57	0xbe84bb64	-0.25924218
58	0xbd5736dc	-0.052542552
59	0xbdecf162	-0.115694776
60	0xbe3815a8	-0.17977011
61	0x3d3d9ad3	0.04629023
62	0x3d8979a1	0.06712652
63	0x3c03a996	0.008036038
64	0xbd30ed06	-0.043194793
65	0xbe8b74a4	-0.27237427
66	0x3e7a888b	0.2446615
67	0x3e339084	0.17535597
68	0xbe829864	-0.2550689
69	0xbcff91ff	-0.031197546
70	0xbe331d85	-0.1749173
71	0x3db01e9e	0.0859959
72	0xbd921385	-0.07132629
73	0x3d73df9f	0.059539434
74	0xbdb840b1	-0.08996714
75	0xbe572727	-0.21011029
76	0xbe8bde28	-0.2731793
77	0xbe5f9485	-0.21834
78	0xbdcc3d25	-0.099726
79	0x3e88caac	0.26717126
80	0x3d040e1d	0.032240022
81	0xbe8b40eb	-0.27197966
82	0xbdd362aa	-0.10321553
83	0xbe81d711	-0.25359395
84	0xbe8235f5	-0.2543179
85	0xbc980bff	-0.018560408
86	0x3e127833	0.14303665
87	0x3e2ea0e4	0.17053562
88	0x3df23ebf	0.11828374
89	0xbe7f0d05	-0.2490731
90	0x3e3ff249	0.18744768
91	0xbe87d11b	-0.26526722
92	0xbe2aff82	-0.16699031
93	0x3e746975	0.23868354
94	0xbdee5d75	-0.11638919
95	0xbe59327c	-0.21210665
96	0x3d613864	0.05498542
97	0xbe3a3389	-0.18183722
98	0xbc98676d	-0.018604005
99	0x3e81e59c	0.2537049
100	0xbda22521	-0.07917238
101	0x3cc927ea	0.024555165
102	0x3e68f7a1	0.22750713
103	0x3e8c2b91	0.2737699
104	0xbdbb7364	-0.091528684
105	0x3dcad7be	0.09904431
106	0x3df901d2	0.1215855
107	0xbe58bd13	-0.21165876
108	0x3d5daa27	0.054117348
109	0x3e5490ad	0.20758314
110	0x3e05881d	0.13040204
111	0xbe2627f3	-0.16226177
112	0x3e43aa1d	0.19107862
113	0xbe8fc1ec	-0.28077638
114	0xbe3bc3cf	-0.18336414
115	0x3bd599aa	0.0065185623
116	0xbe4a06da	-0.19729176
117	0x3d9012a1	0.07034803
118	0x3e164e29	0.14678253
119	0x3e4e3e57	0.20140968
120	0xbe98b701	-0.2982712
121	0x3e6c89e6	0.23099479
122	0x3d026fe3	0.031844985
123	0x3ea724e6	0.3264534
124	0xbd9583e6	-0.07300548
125	0xbdd82056	-0.105530426
126	0x3e0a30bd	0.13495155
127	0x3e829880	0.25506973
128	0xbe08a069	-0.13342442
129	0xbda7ab6f	-0.08186995
130	0xbd728023	-0.059204232
131	0x3d8fd5f0	0.07023227
132	0x3d363174	0.044480756
133	0x3e315ec4	0.17321306
134	0x3d7d8ff1	0.06190485
135	0xbe7fd859	-0.24984874
136	0xbc33470d	-0.010942233
137	0xbe4a13f9	-0.19734181
138	0xbe38be71	-0.18041398
139	0x3e19cde4	0.15019947
140	0xbe0f3982	-0.13986781
141	0x3dbd79a5	0.092517175
142	0xbdb2f4bb	-0.08738085
143	0xbd4a4c0c	-0.04938893
144	0xbe4160f7	-0.18884645
145	0xbd61901e	-0.05506908
146	0xbd248b38	-0.04017183
147	0x3cf357b5	0.029704908
148	0x3d0f045e	0.034916274
149	0xbe881d05	-0.2658464
150	0x3e5714c3	0.21004014
151	0x3c870f6f	0.016486851
152	0xbe489c94	-0.1959098
153	0x3e8b35f5	0.27189603
154	0x3e13da18	0.14438665
155	0x3e21bb12	0.15794018
156	0xbe2b56af	-0.16732286
157	0x3e1ac5fd	0.15114589
158	0x3d135342	0.035968073
159	0xbe46b984	-0.19406706
160	0xbc8aa795	-0.016925612
161	0x3d920f88	0.071318686
162	0x3da4fba0	0.08055806
163	0xbe2d6d62	-0.16936257
164	0x3e087748	0.13326752
165	0x3e85618a	0.2605098
166	0xbe006433	-0.12538223
167	0x3e8171e2	0.25282198
168	0x3c0bb954	0.008528072
169	0xbe83d0aa	-0.25745136
170	0x3e05ce9f	0.13067101
171	0xbd166cee	-0.036724977
172	0xbdbac311	-0.09119237
173	0xbe484adf	-0.19559811
174	0xbe39f724	-0.18160683
175	0x3e50811e	0.20361754
176	0x3de485f9	0.11158366
177	0xbd8d3e14	-0.06896606
178	0x3bc917bb	0.006136862
179	0xbe71ee65	-0.23626097
180	0x3dd39992	0.103320256
181	0x3c86e465	0.016466329
182	0x3d40d406	0.0470772
183	0x3e732727	0.23745404
184	0xbcf4cbaf	-0.02988228
185	0xbddba01b	-0.10723897
186	0xbe764510	-0.24049783
187	0xbe35549d	-0.17708059
188	0x3e0a7c40	0.1352396
189	0x3e516cdf	0.20451687
190	0xbe4a7214	-0.1977008
191	0x3e876002	0.26440436
192	0x3c872736	0.01649819
193	0xbdcd0318	-0.10010356
194	0xbd28aaa7	-0.04117837
195	0xbe1f9e59	-0.15587749
196	0xbe4cedaf	-0.20012544
197	0x3d94f6dd	0.07273648
198	0x3d20dcf8	0.039273232
199	0x3d411437	0.04713842
200	0xbe001bcb	-0.12510602
201	0xbc5d6cf6	-0.013514748
202	0x3d23ab11	0.039958064
203	0xbd82032c	-0.06348261
204	0xbe30a0f6	-0.17248902
205	0xbdd54cdc	-0.104150504
206	0x3e7ab2c2	0.24482253
207	0x3e019cf5	0.1265753

bias f4 [16]
0	0x3d2792a2	0.040911324
1	0xbe82afc4	-0.25524724
2	0x3e04497a	0.12918654
3	0x3dd7e311	0.10541356
4	0xbdde2230	-0.108463645
5	0x3b11af88	0.002222987
6	0xbd5f1f3d	-0.05447315
7	0xbe25bc22	-0.16185048
8	0xbe86490e	-0.2622761
9	0x3ddb5b52	0.10710777
10	0x3e39f03c	0.18158048
11	0x3d5ee282	0.054415233
12	0xbe38d46e	-0.18049785
13	0xbe2bd4a3	-0.16780333
14	0xbe17df08	-0.14831173
15	0x3cd890e8	0.026436284

weight f4 [16, 16]
0	0x3b1b1ad5	0.0023667116
1	0x3c77fdd5	0.015136202
2	0x3e639174	0.22223455
3	0x3e4fc7a4	0.20291
4	0x3e7297d8	0.23690736
5	0x3cea9a0f	0.028637914
6	0xbd9e685f	-0.07734751
7	0xbe62e4b3	-0.22157554
8	0xbdcc5be8	-0.09978467
9	0x3e2ac644	0.16677195
10	0x3e30a2f7	0.17249666
11	0x3dc7dbf3	0.09758749
12	0xbe803df6	-0.25047272
13	0xbe46df38	-0.19421089
14	0x3e5a6ba3	0.21330123
15	0x3e2ebeff	0.17065047
16	0xbe20aca0	-0.15690851
17	0x3bc267bb	0.005932776
18	0xbd3fdacb	-0.046839517
19	0x3d7bf5c3	0.061513674
20	0x3e2955b5	0.16536601
21	0x3e41b364	0.18916088
22	0x3e59b159	0.21259059
23	0xbcf61629	-0.030039864
24	0xbe3d1a3f	-0.18467043
25	0x3e9758ae	0.29559845
26	0xbe016abb	-0.1263837
27	0xbd11e00f	-0.03561407
28	0xbe659b14	-0.22422439
29	0x3ce8416a	0.028351504
30	0x3de8716b	0.11349758
31	0xbdea934b	-0.11453875
32	0xbe0b847c	-0.13624758
33	0x3e3d1a74	0.18467122
34	0x3db4e7d7	0.088332824
35	0xbe694878	-0.22781551
36	0x3d84f4eb	0.06492027
37	0xbe4ad03e	-0.19806
38	0x3d0d2a5b	0.03446422
39	0xbda09015	-0.078399815
40	0xbb81e30c	-0.0039638337
41	0x3dd9c981	0.10634137
42	0xbcfa2ffc	-0.030540459
43	0x3d62410e	0.055237822
44	0x3b7f6241	0.0038968476
45	0xbde667e3	-0.112502836
46	0xbdafb2ca	-0.08579023
47	0xbde4cd52	-0.11171974
48	0xbe65e7e9	-0.22451748
49	0x3dffd296	0.12491338
50	0x3db8d78f	0.090254895
51	0xbe44330d	-0.191601
52	0xbd67f0b8	-0.05662605
53	0x3e05ad76	0.13054451
54	0xbd97e423	-0.074165605
55	0x3e7e1227	0.24811612
56	0x3e302859	0.17202891
57	0x3d747ee9	0.059691343
58	0xbd86e0ee	-0.06585871
59	0xbe4d8166	-0.20068893
60	0x3e262410	0.16224694
61	0x3e0fcadf	0.14042233
62	0x3deb265c	0.11481926
63	0xbd7febe1	-0.06248081
64	0xbb8bcf28	-0.0042666383
65	0x3dff7966	0.12474327
66	0xbc8cc3e5	-0.017183254
67	0x3cec6dbd	0.028860921
68	0xbe3f7bde	-0.18699595
69	0xbd7e42cc	-0.06207542
70	0x3e64a321	0.22327854
71	0xbdd26007	-0.10272222
72	0xbe73dfeb	-0.23815887
73	0xbe50e76b	-0.20400779
74	0x3cc7d0cc	0.024391554
75	0xbe82516a	-0.2545274
76	0xbc88840e	-0.016664531
77	0x3e3da700	0.18520737
78	0x3d984c34	0.074364096
79	0xbe3cb30b	-0.18427674
80	0x3e4f0ed9	0.20220508
81	0xbe587bac	-0.21140927
82	0x3dd24810	0.10267651
83	0xbda27379	-0.07932181
84	0x3e42fa84	0.19040877
85	0xbcb4c2f2	-0.022065613
86	0x3e51169e	0.20418784
87	0xbdaac539	-0.083383985
88	0xbe5795d8	-0.21053255
89	0x3d5c159b	0.053731542
90	0x3d9de9df	0.07710623
91	0x3de7f19f	0.113253824
92	0x3e4af005	0.19818123
93	0xbe2118da	-0.15732136
94	0xbe089ceb	-0.1334111
95	0xbdf67387	-0.12033754
96	0xbe1316dd	-0.1436419
97	0xbe530c68	-0.20610201
98	0x3c920cbc	0.017828338
99	0x3e0c37cd	0.13693161
100	0x3d786446	0.060642503
101	0x3e1583ee	0.14601108
102	0xbe6ad35d	-0.22932191
103	0x3e5d1d0f	0.21593116
104	0xbd5607af	-0.05225342
105	0x3d870b20	0.06593919
106	0x3e121eca	0.14269558
107	0xbdcf7161	-0.10129047
108	0x3dc99089	0.09842021
109	0x3e0cd453	0.1375287
110	0xbcaa1373	-0.020761227
111	0xbe64c0d7	-0.22339188
112	0xbb9a0764	-0.004700588
113	0x3c0c92f0	0.0085799545
114	0xbddc3016	-0.10751359
115	0xbe1225e1	-0.14272262
116	0xbc543346	-0.012951678
117	0x3daee819	0.08540363
118	0x3e1165de	0.14199015
119	0x3e752fe1	0.23944046
120	0xbe6a041b	-0.22853129
121	0xbe38d4e3	-0.1804996
122	0xbe340ec2	-0.17583755
123	0xbe11022e	-0.14160988
124	0xbe2ce924	-0.16885811
125	0xbdab19af	-0.08354508
126	0x3cac6bb6	0.021047454
127	0xbe55be93	-0.2087348
128	0xbd67c2a1	-0.056582097
129	0xbdfae206	-0.12250142
130	0xbd3fd99e	-0.046838395
131	0x3e26acc0	0.16276836
132	0x3e1f952e	0.15584251
133	0xbe39697f	-0.1810665
134	0x3bdee00a	0.00680161
135	0x3e3a7c7e	0.18211553
136	0x3e6db897	0.23214947
137	0x3ccf9c59	0.025343107
138	0xbdabc1c0	-0.08386564
139	0x3e15d8b5	0.14633448
140	0x3d4e8b63	0.0504259
141	0x3d8d725a	0.069065765
142	0x3e3bb2b8	0.18329895
143	0xbe1e840b	-0.15480058
144	0xbe525a71	-0.20542313
145	0xbe5bc703	-0.21462636
146	0xbe3aedf8	-0.1825484
147	0xbe6e2dff	-0.23259734
148	0xbdb5a99b	-0.0887024
149	0x3de454d0	0.11148989
150	0x3e1fbdbb	0.1559972
151	0x3ce2acd6	0.027670305
152	0x3cb57518	0.022150561
153	0xbdd62748	-0.10456711
154	0xbe48a358	-0.1959356
155	0xbe3ad7b1	-0.18246342
156	0x3d27ff74	0.041015103
157	0x3e5b33e8	0.2140652
158	0xbd7990bf	-0.060929056
159	0x3e820843	0.25396928
160	0xbe755e44	-0.2396174
161	0x3dd0e9d5	0.1020085
162	0xbc9ae2d0	-0.01890698
163	0x3dc9fef3	0.09863081
164	0xbe67bd5d	-0.2263083
165	0xbe706bf9	-0.23478688
166	0x3dc8db20	0.0980742
167	0x3cc0c663	0.023532098
168	0x3e4c4c1b	0.19950907
169	0x3e6d0318	0.23145711
170	0x3d8872d8	0.0666253
171	0x3c5d9562	0.013524385
172	0x3e68b166	0.22723922
173	0x3e3ee300	0.18641281
174	0xbe0d42ab	-0.13794963
175	0x3e6ff936	0.2343491
176	0xbe69e37f	-0.22840689
177	0x3dda5d8b	0.10662373
178	0x3e57302e	0.21014473
179	0x3e8b0525	0.27152362
180	0xbd96db5d	-0.07366059
181	0xbe4059c2	-0.1878424
182	0xbccef350	-0.025262505
183	0xbe5be727	-0.21474896
184	0x3d867ba3	0.065665506
185	0x3da99787	0.08280855
186	0x3e85e440	0.26150703
187	0x3c88fd67	0.016722394
188	0x3c3d2c65	0.011546229
189	0x3d79cdcd	0.060987283
190	0x3e68038e	0.22657606
191	0xbe0a4e93	-0.13506536
192	0x3daba3a0	0.08380818
193	0x3e595b8c	0.21226329
194	0x3d818568	0.06324273
195	0xbe3ed50b	-0.18635957
196	0x3dd07de3	0.10180261
197	0x3e5f5801	0.21810915
198	0x3e4ca3e5	0.19984396
199	0x3d529223	0.051408898
200	0x3e5fe2a4	0.218638
201	0x3de2bd46	0.11071257
202	0x3e75adf5	0.2399214
203	0x3c75b019	0.014995598
204	0x3da25c2d	0.079277374
205	0xbd5e10be	-0.054215185
206	0x3dc0008d	0.09375105
207	0xbddc649a	-0.10761376
208	0xbe417947	-0.1889392
209	0x3d7d07c8	0.061775
210	0x3cc2d6a9	0.023783999
211	0x3e2d1e49	0.16906084
212	0x3e646a1d	0.22306104
213	0x3b86ee60	0.004117772
214	0x3d61aaf2	0.055094667
215	0xbd9e338f	-0.07724678
216	0xbe0d5124	-0.13800484
217	0x3e821d29	0.25412872
218	0xbca21521	-0.019785466
219	0xbe046411	-0.12928797
220	0xbe246c23	-0.16056876
221	0xbd8db744	-0.06919721
222	0xbc7061ce	-0.014671756
223	0x3c677943	0.014128032
224	0xbb999840	-0.004687339
225	0xbe67aad4	-0.2262376
226	0xbd9c9164	-0.076449186
227	0xbe526e4c	-0.20549887
228	0xbe49a640	-0.19692326
229	0xbe5344c0	-0.20631695
230	0x3d381660	0.044943213
231	0xbe2e3cc8	-0.17015374
232	0x3e2b6956	0.16739401
233	0xbe6d9a1a	-0.23203316
234	0xbdafa5b8	-0.0857653
235	0xbe0745ae	-0.13210174
236	0x3dcef320	0.10104966
237	0xbdd21f30	-0.10259855
238	0x3e6c98ba	0.23105136
239	0xbc6e8100	-0.014557123
240	0xbe0b8956	-0.13626608
241	0x3e5e501f	0.21710251
242	0xbd5ed555	-0.054402668
243	0xbb4166e8	-0.00295108
244	0x3e412e54	0.18865329
245	0x3e2f834b	0.17139928
246	0x3d16be7d	0.036802758
247	0xbe4662d7	-0.19373642
248	0xbd2125c3	-0.039342653
249	0xbda7e3f1	-0.08197773
250	0xbe56380c	-0.20919818
251	0x3e4d2a01	0.20035554
252	0xbe7fb732	-0.24972227
253	0xbe7b1d7d	-0.24522968
254	0xbe155625	-0.14583643
255	0xbcc73da8	-0.024321392

bias f4 [16]
0	0x3e145844	0.14486796
1	0xbe27e846	-0.16397199
2	0x3e835994	0.2565428
3	0xbe82a882	-0.25519186
4	0xbd9464f4	-0.07245818
5	0x3c97fccf	0.018553166
6	0x3e6f8339	0.23389901
7	0x3d886552	0.0665995
8	0x3d0462ad	0.032320667
9	0xbe6382a2	-0.22217801
10	0xbe652bf1	-0.22380044
11	0x3de39550	0.111124635
12	0x3e47c944	0.1951037
13	0x3e5fa457	0.21840034
14	0xbe60ddb2	-0.2195957
15	0xbdd6ac50	-0.10482085

weight f4 [1, 16]
0	0xbdac3581	-0.084086426
1	0xbe53d79a	-0.20687714
2	0x3e0bbc0e	0.13645956
3	0x3e781ea6	0.24230441
4	0xbe1b5393	-0.151686
5	0x3dc2ee5b	0.09518119
6	0xbe4f945c	-0.20271438
7	0x3e795e55	0.24352391
8	0xbdb089b4	-0.08620015
9	0x3e034e5b	0.12822859
10	0xbe1868d4	-0.14883739
11	0xbe6777cd	-0.22604294
12	0xbd1b0d82	-0.03785468
13	0xbeaed14f	-0.34144065
14	0x3e43a8ce	0.19107363
15	0xbdaa0a8b	-0.08302792
