saved_models/pytorch_connect/saved_model_income4.pt (torch, 4544 bytes, 5 tensors)

layers.0.weight f4 [16, 8]
00000000: db90 43bd 7b8b 55bd 1494 ffbb 236a 54be
00000010: 7af6 a0bd 7d9e 603a 5a52 95be ccbf 803e
00000020: 9048 65be 8e3d 8dbd b50f 78be 3769 96be
00000030: c99b 6bbd d136 9b3d 750d 51be 42b8 69be
00000040: f14c 93be cfb5 aebe 6146 6ebe 41b6 81be
00000050: c4b2 b13e 101a c8bd 92c4 533e 4003 91bd
00000060: 4dcc afbe 99bb 853d ced5 613b ef1b 85be
00000070: 0f17 523e a431 5abe 27de 733e e030 f73c
00000080: db21 8dbd 443a 3dbe 7b79 8b3e e46c 1d3e
00000090: 26bf 50bd 3eb9 5e3e 50cc b2be 96cc aebd
000000a0: 5185 acbd 152a 643e c3e5 f73d dd7e 99be
000000b0: 10eb 69be 5f6a 96be 50d3 5c3e ca02 923e
000000c0: e99d a73e 796b 6cbd 42e2 12be 771c aa3e
000000d0: 562b 4fbe 202f 5d3e 79a6 893e 9456 cabd
000000e0: e5f9 873e ab09 0e3e 4761 80be 1eec c7bb
000000f0: aa46 773e 9fd4 5d3d abf5 54bd 1a48 98be
00000100: 08d3 6a3e fa99 2b3c b8cc 87be e1f1 83be
00000110: 7bc8 4c3e 9e5a 54bd 0916 85be 8b17 ca3d
00000120: 3100 ddbd 26ef 14bd 0c98 9bbc 76ea 65be
00000130: d30d ba3b a408 4c3e 5ecf 54be 0b14 a53e
00000140: 52fb 19be bacc a7be 1ead 2abe 96a2 dcbd
00000150: f872 a93e e06f 9f3d bff9 1e3e a485 65be
00000160: 1f13 a3be 86bc 1f3d ae61 0dbe 6221 48be
00000170: 2618 493e 4194 2ebc a855 973c 9f05 4abe
00000180: 874f a0be db82 a43e 946c abbd 218e 403e
00000190: 684b 0b3e d3f6 7fbe 320c 30be 5711 d8bc
000001a0: 74eb 673e bbfd e9bd c751 72be eb67 b13e
000001b0: 1936 8dbd bcf7 9a3e cf0b a5be 6c65 9b3e
000001c0: 666e e2bd 374c 9bbe 569a 87be 9fd0 7dbd
000001d0: 967e b93b 038e bfbd 6d22 89be 5ba3 033e
000001e0: ca4b 193d 9f54 1d3e 89fc 523e a76e b53d
000001f0: 522f 8fbe 6e98 173e b901 e73d 81b5 17b9
-0.047745567 -0.052134972 -0.0077996347 -0.20743613 -0.07859512 0.00085685385 -0.29164392 0.2514633
-0.22390962 -0.06896506 -0.24224742 -0.29377148 -0.057521615 0.07578815 -0.2041529 -0.22824195
-0.2876964 -0.34123084 -0.23269035 -0.2533436 0.347067 -0.09770596 0.20680454 -0.07080698
-0.34335557 0.06529922 0.0034459713 -0.25997874 0.20516609 -0.21307999 0.23815213 0.030174673
-0.06891223 -0.18479258 0.2724112 0.1537357 -0.050963543 0.21750352 -0.34921503 -0.085351154
-0.084238656 0.22281678 0.121043704 -0.29979602 -0.22843575 -0.2937803 0.21564984 0.28517753
0.32737663 -0.05771968 -0.14344123 0.33224842 -0.20231375 0.21600008 0.2688482 -0.09879795
0.26557842 0.13870876 -0.25074217 -0.0061011454 0.2414805 0.05415785 -0.0519921 -0.2974251
0.22932065 0.010473723 -0.26523376 -0.25770476 0.19998352 -0.05184423 -0.25993374 0.09867772
-0.10791052 -0.036360882 -0.0189934 -0.22452721 0.0056779175 0.19925171 -0.2078223 0.32241854
-0.15037277 -0.3277338 -0.16667601 -0.10773198 0.33095527 0.0778501 0.15524958 -0.22414261
-0.31850526 0.03899815 -0.13806793 -0.19543985 0.19638118 -0.010655464 0.018473461 -0.19728707
-0.31310675 0.32131085 -0.08370319 0.18804218 0.13602984 -0.249965 -0.17192152 -0.026375456
0.22648412 -0.11425348 -0.23664008 0.34649596 -0.06895084 0.3026713 -0.32235572 0.30350816
-0.11056213 -0.30331585 -0.26484936 -0.061966535 0.005660842 -0.093532585 -0.26784077 0.12855284
0.037425794 0.15364312 0.20604147 0.08858996 -0.2796579 0.14804241 0.112796254 -0.00014468098

layers.0.bias f4 [16]
00000000: 3bd5 903e d693 75be bf4c dbbb 0332 91be
00000010: aadf a93e 0de5 b3bd 7d23 46be dd5a 9c3e
00000020: 0778 84bc db23 3b3e ad20 acbe 030c 80be
00000030: cc38 54bd ce9f 993e 59e6 80bd aa1b 69be
0.28287682 -0.23982176 -0.0066924985 -0.28358468 0.33178455 -0.08783922 -0.19349475 0.30538073
-0.016170515 0.18275397 -0.3361868 -0.25009164 -0.05181198 0.30004734 -0.06293935 -0.22764459

layers.1.weight f4 [16, 16]
00000000: 52ca e83d a81d 78be 7e98 ac3d 18c2 6a3e
00000010: 6c4c 1e3d 5cfc 3c3e 4939 5e3d e1db 82bd
00000020: 5329 38be 6a0f 47bd 989e 0b3e 4395 63be
00000030: 616f 71bd 343c 853e c0ef 4e3d 49cd 863b
00000040: 4647 00be d1e9 513c febf a43d c5e2 be3d
00000050: 7136 03be aaed fbbc 3021 3abd 1904 bb3d
00000060: 6b77 583e f1f7 ff3d bd09 58be 7d4c 03bd
00000070: 1b24 113e 3585 963c d333 183e 3bc5 293e
00000080: 55d6 16be d094 a0bd f1d9 0f3e 0ccb cb3c
00000090: e78a cdbd 225d 283e 92e5 d93d 8861 2d3e
000000a0: eb74 a1bd 690a 10be 3e04 3ebe 15ad 0f3e
000000b0: 1a9f 5c3e 2785 ae3d 3193 b6bd c283 7fbc
000000c0: 67a0 063e 5805 eebd b466 3a3e 2dc2 0f3e
000000d0: 23ad ce3d 2e03 643e fd71 3bbe 6875 573e
000000e0: b4a5 673e 7294 65bd f633 0dbd 8c4f 96bd
000000f0: 6cc1 ad3d 90ec 3bbe 4f6e 4d3c 2842 d43d
00000100: 53ae f8bd 776d 043e 660f fc3d 9e22 593e
00000110: 9032 cebd 9835 653d 440a d1bc 0ceb 2bbe
00000120: 1659 c9bc e510 873d d928 5c3d befb 5dbe
00000130: 8661 553e 40e1 0ebe d433 0c3e d66a 243e
00000140: fc3a 80be a5fe 743e 5deb 933c 4b09 a4bd
00000150: 72c7 373e 6d23 643d 6b96 2f3d 722b 9c3d
00000160: 384f 733e 1349 713c 149c c33d 51fd 2dbe
00000170: c197 723e 6e07 5c3c 69ed 7b3c 67e1 52be
00000180: 4457 ce3d 8708 ecbc 1441 14be 426b 2bbd
00000190: b073 49be 2139 0bbe 99b6 1c3e 2d3d 76be
000001a0: 24ef 4f3e 1a7b dbbd 95ce 633e 02d4 4b3e
000001b0: c145 58be d0e5 31be 5eff 3d3e 352d 26be
000001c0: e19f 6b3e d9c8 483e 56a3 46bd b093 873c
000001d0: b85e 3abd 727f 71be 5347 363d efb9 24be
000001e0: 6383 5dbe 85af aabd c4c9 e03d 665c 87bd
000001f0: 3e62 01be a7e6 43be 52e6 a23d 50f6 a23d
00000200: 92cc 123d 7c2a 62be 8a6a dd3c c7c3 6d3e
00000210: 961a 7bbe 78d7 443e 1a3a 083e 7bc6 c63d
00000220: 69ed c03d f400 05be ce41 6a3d eb70 d6bd
00000230: 9d54 a7bd dd1d 6fbe b797 86bd 81e9 1c3e
00000240: 3a88 99bd 85df a73d 05b1 3bba 4a79 563e
00000250: a1c8 f0bc d40f 7e3e 4d47 3bbe fa65 70be
00000260: 75eb a5bd 8f68 d73d 17d7 48be 2998 0cbd
00000270: 0134 2e3e d4c2 14be db3c 683d ec1d 8ebd
00000280: 7635 3d3e 3ba3 2a3e 5bfb a33d c96d b43d
00000290: 0d07 983d 1118 54be e79c 5ebe 4ad2 1d3e
000002a0: 0783 76be e4e4 51be 8bc5 fbbb edaf bb3d
000002b0: bc1e 55be f232 6d3e 701e 0a3e f05b b33d
000002c0: ac3d 04be 5073 60be 1de7 1e3e f4e8 513e
000002d0: 40d8 0b3c d56e 263d d8f4 9b3d 893d 3ebd
000002e0: bf72 35be 9f08 323e ec8e 683e 4adb 923d
000002f0: d093 593e 6851 81bd 6bb6 90bc fb8e 7cbe
00000300: c0a1 08be 31dc 09bd 1e77 083d 097a 4f3d
00000310: 7c52 1c3e d200 f6bc 5c3e 233d 0022 403d
00000320: 51b4 333d 3e1d 813e 27fb 06be 56a1 7b3c
00000330: 2195 e8bd aded f03d 4d76 45be f658 41be
00000340: f124 acbd 858a 9fbd 9007 f93d 233e a3bd
00000350: be35 bfbd 92a2 5fbe 7ba4 f93d a3d0 2f3e
00000360: 59c0 30be e62b 16bc fb60 123d 1665 e33d
00000370: a259 1fbe b3b3 653e e0b2 1ebe 3c9a 253d
00000380: dd99 58bb d51b 583d a161 b7bc 6f03 58be
00000390: 318d 88bd fcfa dcbd e757 52be 79a2 863d
000003a0: b29f 2bbe 796c 333e 664a 443e 18a1 7ebe
000003b0: d5e3 c73d 81d1 3e3d 0ce5 cd3c 4fd7 00be
000003c0: d1d6 b1bd 3e24 99bd 6f64 3bbe d363 43bd
000003d0: 3845 173e 669e c3bd 142d 39bd 3535 2c3e
000003e0: bf4f e4bb 98a9 2dbe 8b6d 123e 5d9f 433e
000003f0: af59 4a3e 11d6 483e c407 183d 2178 313e
0.113667145 -0.24230063 0.08427523 0.22925603 0.0386471 0.18455642 0.05425385 -0.06389595
-0.17984514 -0.048598684 0.13634717 -0.22224908 -0.05894411 0.26022494 0.050521612 0.0041138274
-0.12527189 0.012812094 0.08044432 0.093205966 -0.12813736 -0.030752975 -0.045441806 0.09131641
0.21139304 0.12498463 -0.21097465 -0.032055367 0.1417393 0.018374065 0.1486352 0.16579144
-0.14730199 -0.07840884 0.14047982 0.024877094 -0.10036259 0.16441777 0.1063949 0.16931736
-0.078836285 -0.14066471 -0.18556306 0.1403087 0.21545067 0.085214905 -0.08914793 -0.015595378
0.13147126 -0.11622113 0.1820324 0.14038916 0.10091617 0.22266838 -0.18305202 0.2104088
0.22621804 -0.05604977 -0.034473382 -0.07339391 0.08484158 -0.1835196 0.012538507 0.10364181
-0.12142625 0.12932383 0.123076245 0.21204612 -0.10068238 0.055959314 -0.02551759 -0.16788882
-0.024578612 0.06595019 0.053749893 -0.21678063 0.20837983 -0.13953114 0.13691646 0.1605638
-0.25045002 0.23925264 0.018056566 -0.08009585 0.17947176 0.055697847 0.04286806 0.07625474
0.23760688 0.014726895 0.09551254 -0.16991164 0.23690702 0.013429506 0.015376427 -0.20593797
0.10075238 -0.02881266 -0.1447795 -0.041850336 -0.19673038 -0.13596012 0.1530403 -0.24046774
0.20306069 -0.10716839 0.22246774 0.19905093 -0.21120359 -0.17372823 0.18554446 -0.16228183
0.23010208 0.19607867 -0.048495613 0.016549915 -0.045500487 -0.23583773 0.044501614 -0.16086553
-0.21632151 -0.08334259 0.10975984 -0.066094205 -0.12635133 -0.19130956 0.07954086 0.07957137
0.035839625 -0.22086519 0.02702834 0.23219214 -0.2452186 0.1922282 0.13303414 0.09705826
0.094202824 -0.12988645 0.057191662 -0.10470756 -0.081704356 -0.23351236 -0.06571906 0.1532345
-0.07496686 0.0819693 -0.0007159862 0.20944706 -0.029392542 0.24810725 -0.18288918 -0.23476401
-0.081015505 0.1051799 -0.196133 -0.0343248 0.17012025 -0.14527446 0.05669866 -0.06939301
0.18477425 0.1666383 0.080069266 0.08810002 0.0742322 -0.20712306 -0.21739541 0.1541225
-0.2407342 -0.20497471 -0.007683461 0.091644146 -0.20812505 0.23163965 0.13488173 0.0875777
-0.12914151 -0.21918988 0.1551785 0.20499021 0.008535445 0.04063304 0.076150596 -0.046445403
-0.17719553 0.17386101 0.2271077 0.07170732 0.21247792 -0.06314355 -0.017665109 -0.24663918
-0.13342953 -0.033657257 0.033316724 0.05065349 0.1526584 -0.030029688 0.039854392 0.046907425
0.043873135 0.25217623 -0.13181745 0.01535829 -0.11356569 0.11764083 -0.1928341 -0.18881592
-0.084054835 -0.077900924 0.121596456 -0.07970836 -0.093364224 -0.2183936 0.12189575 0.17169432
-0.17260875 -0.00916574 0.03573702 0.11103265 -0.15561536 0.22431831 -0.15497923 0.040430292
-0.0033050694 0.052760918 -0.02238542 -0.2109506 -0.06667555 -0.10790059 -0.20541345 0.06573958
-0.16760138 0.17521848 0.19169006 -0.2486614 0.097602524 0.046586517 0.025133632 -0.12582134
-0.08683551 -0.07477616 -0.18300031 -0.04770262 0.14772499 -0.095516965 -0.045209005 0.16817172
-0.0069675143 -0.16959226 0.142996 0.19103761 0.19760774 0.1961291 0.03711678 0.17330982

layers.1.bias f4 [16]
00000000: 3c71 b53d 4d0f e93c ef81 353e 7d7d 37bd
00000010: 4286 25bd 1957 4a3e 3a32 3c3e f566 91bd
00000020: 9680 34be 161e 50be 374e ba3d fe0f bbbd
00000030: 5c20 913c ee55 5c3e 1c2a 083e 2749 e03d
0.08859488 0.028449679 0.17725347 -0.04479741 -0.04041124 0.19759788 0.18378535 -0.070997156
-0.17627177 -0.20323977 0.090969495 -0.0913391 0.017715625 0.21517155 0.13297313 0.10951453

layers.2.weight f4 [1, 16]
00000000: 8fa6 67be ab30 433d f458 bf3c ff29 8b3d
00000010: 24b3 3f3d 8ad4 063e dbb2 6cbe c970 30bb
00000020: 9f98 ce3d 73fb bebd 97f0 6c3e c2ea 653e
00000030: 48f2 3bbe 1f62 b8bb 9fbd f7bd 9458 013e
-0.22622131 0.047653835 0.023357846 0.067951195 0.0468017 0.13167015 -0.23115103 -0.0026922694
0.10087704 -0.09325304 0.23138653 0.22452834 -0.18354142 -0.0056269313 -0.12096714 0.12631446
