saved_models/pytorch_connect/saved_model_compas0.pt (torch, 4480 bytes, 5 tensors)

layers.0.weight f4 [16, 7]
00000000: 2596 9fbc eac2 b13e 5320 4dbe 8bc1 8abd
00000010: 92ec 373e 4f76 9b3e 9a2b aebe d1c7 29be
00000020: acee 773e 2e33 a23d 5fa7 cc3c ec3e 9b3e
00000030: 82db b03e 788c b93e af81 ac3e adc4 e63d
00000040: 693e 1cbd 6c4b 013e fc2b 3e3e d1a1 2fbe
00000050: 896d 9c3e 7346 92be c412 613d 33c0 d43d
00000060: 19e3 0bbe f96b b33e 2ebb 10bc 8a2d ad3d
00000070: 4344 86bc 9b00 19be f949 d33d 3683 263e
00000080: b04b 2c3d f48e 6abe 810c a83e 9317 563e
00000090: feb6 94be 603c 5fbe d49f 3bbd e057 bf3e
000000a0: d62b 23be c5a6 37be 7805 23be 7d0f b53e
000000b0: 2e0d 893e d7e1 b8be d982 ccbd f4ef aabd
000000c0: 8ef6 95be 668b 7b3e 3042 ddbd 8891 a9be
000000d0: 01ca 053d a8d0 61be b270 173d da66 82be
000000e0: 287e 8c3e c7f7 c03d d977 b4be f449 99be
000000f0: 1c69 8ebe 62e6 bdbe c64c 26be ad90 f8bd
00000100: 61c5 433e 0a0d 80be 8d29 43be 81ea 053e
00000110: 7427 f1bd 92d6 92be f530 563d 90f4 49be
00000120: c126 28be 294f 4e3e 7547 df3d 23e0 7e3e
00000130: c8f4 febd 05da 87be ce29 29be 9b2e 5dbe
00000140: ed81 bc3e 2949 6a3e 4c07 38bd 6392 2f3e
00000150: 06de 893e 2a65 ab3e d3dd 4c3d d232 4bbe
00000160: 8424 a93e f1fe 7e3a 1f68 733e 37d1 b6be
00000170: 9122 4b3e 16da 9dbe 10e3 b93e 9d76 093d
00000180: fa04 3fbe 14b4 2ebe f470 913e aa89 a03e
00000190: 4eab b33d ad5c 4ebe 7ef7 893e 4bb8 883d
000001a0: d9b2 6dbe 5f43 88be 8efb a1be ebe4 593e
000001b0: 7389 933d 1434 12be b15d fd3c b362 abbe
-0.019480774 0.3471902 -0.20031862 -0.06775197 0.17961338 0.303637 -0.3401764 -0.1658013
0.2421214 0.07919918 0.024982153 0.30321443 0.3454247 0.36239982 0.3369269 0.11267982
-0.038145456 0.12626427 0.18571466 -0.17151572 0.3055232 -0.28569373 0.054949537 0.103882216
-0.1366085 0.35043314 -0.00883369 0.084559515 -0.016389972 -0.14941637 0.103168435 0.1626099
0.04206437 -0.22906095 0.3282204 0.2090743 -0.29045862 -0.21800375 -0.04580672 0.3737173
-0.15934691 -0.17934711 -0.15920055 0.3536338 0.26767868 -0.36109802 -0.09985895 -0.08346549
-0.2928967 0.24564895 -0.1080364 -0.33118844 0.03266335 -0.22052252 0.03697271 -0.25469095
0.2744 0.0942226 -0.35247687 -0.29939234 -0.27814567 -0.3708983 -0.16240224 -0.1213697
0.19118263 -0.25009948 -0.19058819 0.13077737 -0.11775103 -0.2867933 0.052292783 -0.197222
-0.16421033 0.20147385 0.10902301 0.24890189 -0.12449032 -0.26533523 -0.16519853 -0.2159981
0.36817876 0.22879471 -0.044928834 0.17145686 0.26927203 0.3347562 0.050016236 -0.19843605
0.33035672 0.000972732 0.23770188 -0.35706493 0.19837405 -0.3083045 0.36306047 0.033560384
-0.18654242 -0.17060882 0.2840649 0.3135503 0.08772908 -0.2015254 0.26946634 0.06675776
-0.23212756 -0.266139 -0.31637233 0.21278732 0.07203951 -0.14277679 0.030928465 -0.3347374

layers.0.bias f4 [16]
00000000: 5b1f 72be 270c f9bd 8646 83be e410 b5bc
00000010: 8c8c b13e cc0f 2b3e 0f56 5abe d745 9dbe
00000020: 7534 d1bd 1163 81be d886 e93d eff8 2ebe
00000030: 5092 9d3d 6920 ab3e e133 66be 316b 92be
-0.23644774 -0.12160521 -0.25639743 -0.02210278 0.3467754 0.16705245 -0.21321891 -0.30717346
-0.102150835 -0.25270894 0.114026725 -0.17087148 0.076939225 0.33423164 -0.22480728 -0.28597406

layers.1.weight f4 [16, 16]
00000000: 1e54 89bd 0dba d63d 05c7 323d 9c50 d8bc
00000010: 8e35 783e 4287 8e3b 6094 2bbe 19f6 363d
00000020: ee57 623e ee7f 9f3d 79cd 483e 016e 09be
00000030: 04a6 96bd bcba 883d 2137 73be 4044 5e3d
00000040: c6f9 913d 7d3a 5bbe 15a9 6d3d 555e 8a3d
00000050: b392 2dbe 96a5 633d 4080 483e cc15 323d
00000060: aaf8 3d3e 55f5 36be 889c 6b3d 8b5d b7bd
00000070: 75ee 1c3d 7d0b 95bd c34e 47bc 8ffb 223e
00000080: 4d59 413d c816 e33c 6693 0b3e dcf9 073e
00000090: e130 cebd 4c36 013e 4afc 483e 5d29 32be
000000a0: f45c 253e a61c b7bd 42f6 b63d e8ca 97bd
000000b0: 7884 0abe 381f f03d 8f70 0abe f51d 503e
000000c0: 5d20 e53d 77a3 ad3d 3c31 63be 3586 f23d
000000d0: 5c0c 6cbd c852 b83d 4163 6cbe 64e3 3f3e
000000e0: 90c3 733e 17d8 72be f3e3 2c3e 0db7 9dbd
000000f0: 509d fc3d 5e32 4fbe 8179 10bc 106a a93d
00000100: 592c 5fbe 050e 5d3e 1963 53be 6913 4fbd
00000110: 2050 013d 5468 71be bc92 07be 3fd0 c63d
00000120: 6c28 053e 2535 2e3e 6961 6e3e 2dbd 3f3e
00000130: fc8a 613e 409f 123e 7dfa 4e3e 4c97 a4bd
00000140: c8c1 0b3d 16ca 55be 601e debc 5e85 0bbe
00000150: 5aa7 01be a4cd d1bd 5a13 03be 2823 c0bd
00000160: 147f 2f3e fad0 35be 8e48 703e c0ca 913c
00000170: 0628 6cbe 4291 76be 4e49 2fbe 9094 9fbd
00000180: 6d5e 4fbe 8c61 6f3e 201a fabd 4e37 733c
00000190: 31df 063d 4761 4fbe 5222 423e aaa2 e4bb
000001a0: 04f5 663e 16a1 0e3e 9c9e f63b 8d79 033e
000001b0: f328 193d bb51 c6bd c8af 7d3c 488f 653e
000001c0: a116 a93d 8a54 68be 83bb 543e 1017 f4bc
000001d0: 313e 393e 445c c0bd 0733 ef3d fbc0 483e
000001e0: c9ba 163d 1711 73bd 3f8e ba3d 1c87 aebd
000001f0: 017f 9a3c 8321 a8bd 322a 33be 25d8 3abc
00000200: ad24 093e e886 c13c 85dd 29be 5d0e 903d
00000210: 01f2 ed3d b24c a33d 52e5 b03c ae45 3b3e
00000220: 93f6 ccbd 770c 4b3e 4571 0cbe 5a39 a4bd
00000230: 6fb2 2cbd 002b 6e3c 4971 e63d dd2b 793d
00000240: 6c98 d2bd 3a0a cdbc 8b26 1a3e 4678 413e
00000250: f2cf afbd f9de 57be 95c1 64be 767b cb3b
00000260: dc36 e0bd b8ad 203e f773 583d c6cb 2f3e
00000270: dcaa 29be 5526 ffbd 57dd 3dbe 6514 97bb
00000280: 7269 8cbd be36 be3c d197 a1bd 0046 dd3d
00000290: 14c5 ba3d 6b3d e63d f374 4c3d 0f75 1f3e
000002a0: 7e17 813d c728 8ebc 6b1d d6bc ff9a c63d
000002b0: 4bbf 583d d2ca 16be 8728 07be 0781 65be
000002c0: 1ac9 03bd 9888 65be deb5 04bd b03e 1a3e
000002d0: 3f86 39be 6013 1d3e 3f06 7ebe 2fe6 9ebb
000002e0: f60f 5cbe dc3c f1bc 07f7 90bd 94d7 9ebd
000002f0: 63e1 76bd 51e1 6b3e 4915 36be 1039 3dbe
00000300: 8057 0b3d 984a e0bd 00ab a63c 78c0 99bd
00000310: b0bb fa3d 00c0 aeb8 8008 ff3c 1453 853d
00000320: 9c39 e6bd eccd 7e3e 6ce9 9cbd f4e9 b5bd
00000330: 4ae0 34be fe72 28be 3adb 31be e09d 3cbc
00000340: 9a2d c4bd ffa3 c53d 7de2 d43d 39c3 daba
00000350: 960e 92bc 42ce 7c3e 54d1 613e dc18 e83d
00000360: 2503 b5bd 2afa 6c3e f8dd 553e 9cf0 293e
00000370: 459e 0c3e fcf3 c13d 6fe4 95bd a834 533e
00000380: f4b5 503d ed88 6abc c2a4 2ebd 2834 353e
00000390: 807e 76be 5323 07be f83f 783c ed9e 59be
000003a0: 62a9 003d dbbb d439 3d78 373e 7c2c 8fbd
000003b0: fcad 8ebc bbee 5ebe 9dc1 66be 92f3 dd3d
000003c0: b05b a03d 870a 493d a56b d13d 8f8f c0bd
000003d0: 07d0 99bd fbc4 22bd 5aaf aebd a797 1bbe
000003e0: 3ed7 5d3e 3c14 7dbe 9d9f beb9 cb13 06be
000003f0: c125 643e 3bec 63bd 16a4 b93c 0e1a bf3d
-0.06705497 0.10484705 0.04364683 -0.026405625 0.2423918 0.00434962 -0.1675582 0.04466829
0.22103855 0.077880725 0.19609632 -0.1342087 -0.07355884 0.06676242 -0.23751499 0.054264307
0.071277186 -0.2140903 0.058022577 0.06756274 -0.16950493 0.055577837 0.19580173 0.04347782
0.18551889 -0.17867024 0.057522327 -0.08953389 0.038313348 -0.07277582 -0.012164774 0.15916274
0.047204304 0.027720824 0.13630447 0.13278908 -0.10067917 0.12618369 0.1962749 -0.17398591
0.1614874 -0.08941011 0.08933689 -0.07411748 -0.13527095 0.117247045 -0.135195 0.20323928
0.111878134 0.08478444 -0.2218675 0.11842004 -0.057628974 0.09000164 -0.23084737 0.18739086
0.2380507 -0.23715244 0.1688383 -0.0770093 0.123346925 -0.20234057 -0.008818031 0.08272183
-0.21794261 0.2158738 -0.20643272 -0.05055562 0.031570554 -0.23574954 -0.13239568 0.097076885
0.13003701 0.1701246 0.23279347 0.18724509 0.22025675 0.14318562 0.20212741 -0.0803667
0.03412035 -0.20877871 -0.027114093 -0.13625094 -0.12661496 -0.10244301 -0.12800351 -0.093817055
0.1713832 -0.177555 0.23465177 0.017796874 -0.23062143 -0.24078849 -0.17117807 -0.07792008
-0.20250864 0.23377055 -0.12212014 0.014844729 0.032927696 -0.20251952 0.18958405 -0.006977399
0.22554404 0.13928637 0.007526232 0.12839337 0.037392568 -0.096835576 0.015483804 0.22417939
0.08256269 -0.22688499 0.20774655 -0.029796153 0.1809013 -0.09392598 0.116796546 0.19604866
0.036799226 -0.05934247 0.091091625 -0.08521864 0.018859388 -0.08209517 -0.17496565 -0.011404072
0.13392897 0.023623899 -0.16588409 0.070339896 0.11618424 0.07973613 0.021593723 0.182883
-0.10007968 0.19828974 -0.13715084 -0.080187514 -0.042162355 0.014536619 0.11252076 0.060832847
-0.102829784 -0.02502929 0.15053765 0.18893537 -0.08584584 -0.21081151 -0.2233947 0.006209786
-0.109479636 0.15691268 0.052844968 0.17167577 -0.16569084 -0.12458483 -0.18541466 -0.0046105855
-0.068560496 0.023219462 -0.07890285 0.10804367 0.09119621 0.11242183 0.04991622 0.15571998
0.06303309 -0.017353429 -0.026137074 0.09697532 0.052916806 -0.14725807 -0.13199054 -0.22412501
-0.032174207 -0.22415388 -0.032400005 0.15062976 -0.18117617 0.15339422 -0.2480707 -0.0048492174
-0.21490464 -0.029447965 -0.07078367 -0.07755962 -0.06027354 0.2303517 -0.17781557 -0.18478799
0.034018993 -0.10951728 0.020345211 -0.075074136 0.1224283 -8.332729e-05 0.031131983 0.065099865
-0.11241457 0.2488324 -0.07661709 -0.08882514 -0.17663684 -0.16450116 -0.17368785 -0.01151225
-0.0957901 0.096504204 0.10394762 -0.0016690261 -0.01782922 0.24688056 0.22052509 0.113328665
-0.088384904 0.23142305 0.20885456 0.16595691 0.1373225 0.094703645 -0.07318961 0.20625556
0.050954774 -0.014314872 -0.042637594 0.17695677 -0.24071693 -0.13197069 0.01515197 -0.21252032
0.031411536 0.00040575754 0.17916961 -0.069909066 -0.017416947 -0.21770756 -0.22534795 0.10837473
0.07829988 0.049082305 0.1022561 -0.09402382 -0.07510381 -0.039738636 -0.085295394 -0.1519457
0.2166414 -0.2471475 -0.00036358545 -0.13093488 0.22280027 -0.05564521 0.02266125 0.093311414

layers.1.bias f4 [16]
00000000: 5721 71bc 49a6 3d3e 638d 3e3d 6db1 5ebd
00000010: c10a 1dbe f2ae 57be 77ab 553c 26fa 67be
00000020: c68b 883d ef21 483e 6e92 cf3d 5871 21be
00000030: c63b 2fbe 9a0b d13d 2951 663e 9bd1 1cbe
-0.0147174215 0.18520464 0.046521556 -0.054368425 -0.15336134 -0.2106283 0.013041369 -0.22654018
0.06667285 0.19544195 0.10135351 -0.15765893 -0.17112646 0.10207291 0.22491898 -0.15314333

layers.2.weight f4 [1, 16]
00000000: d384 70be e098 673e 0249 a13d e879 5c3e
00000010: ea32 7e3d 16bc 233e 09fd 2e3e 9e10 38bd
00000020: 7a2f fcbc 6371 283d dc15 c23c bca6 1b3e
00000030: 6896 793e 4257 87be 9d2f 16be feac 2fbe
-0.23488168 0.22616911 0.07875253 0.21530879 0.062060274 0.15989718 0.17088713 -0.044937722
-0.030784357 0.04112376 0.023692064 0.15200323 0.24373782 -0.2643376 -0.146666 -0.17155835
