saved_models/pytorch_connect/saved_model_income16.pt (torch, 4554 bytes, 5 tensors)

layers.0.weight f4 [16, 8]
0	0xbe950678	-0.29106498
1	0x3e4c19d3	0.19931726
2	0x3ea28b6a	0.3174699
3	0x3e010022	0.12597707
4	0x3e69f891	0.22848727
5	0x3e5d539e	0.21613929
6	0xbc32cf82	-0.0109137315
7	0x3e717c3f	0.23582552
8	0x3e688f91	0.22711016
9	0x3eb4980e	0.3527226
10	0x3e23e2c2	0.1600447
11	0x3cf49d62	0.029860202
12	0xbe860d77	-0.26182148
13	0xbddfd966	-0.10930137
14	0xbe55e215	-0.20887025
15	0xbe21f1dd	-0.1581492
16	0xbcc0dab5	-0.023541788
17	0xbe912d97	-0.28355095
18	0xbc9cb3bb	-0.01912867
19	0xbd8fc284	-0.07019523
20	0x3e94a0e7	0.2902901
21	0x3d3c9f11	0.046050135
22	0x3ddffb1c	0.10936567
23	0xbe577704	-0.21041495
24	0x3db6cbd8	0.08925599
25	0xbd3a6283	-0.045504104
26	0x3e4224b3	0.18959312
27	0xbe35e66a	-0.17763677
28	0xbeaed3f7	-0.3414609
29	0xbe823417	-0.25430366
30	0xbc6e15da	-0.014531577
31	0xbea8f7e2	-0.3300162
32	0xbe6a1783	-0.22860532
33	0xbe9a0332	-0.30080563
34	0xbea795d4	-0.32731497
35	0xbe91a3af	-0.28445193
36	0xbe248cce	-0.16069338
37	0x3d14e103	0.0363474
38	0xbe822e3f	-0.25425908
39	0xbe9b2491	-0.30301335
40	0x3e9f2063	0.31079397
41	0xbe257cb0	-0.16160846
42	0xbde47a41	-0.111561306
43	0x3eaff840	0.34369087
44	0x3eaf4513	0.34232387
45	0xbe48ff93	-0.19628744
46	0x3cdbc88d	0.026829029
47	0x3eab9f7d	0.33520117
48	0xbea581ce	-0.32325596
49	0xbe9f9c26	-0.3117382
50	0xbd51686b	-0.05112497
51	0x3d5902e3	0.05298127
52	0x3e4e4ffc	0.20147699
53	0xbe74d470	-0.23909163
54	0x3e0cfc12	0.13768032
55	0x3e96eebc	0.29479015
56	0x3e9f97dd	0.3117055
57	0xbdca6946	-0.098833606
58	0xbc43b57c	-0.011945125
59	0xbd189481	-0.037251
60	0x3dcbed5d	0.09957383
61	0xbe643e8e	-0.22289488
62	0xbda7cad6	-0.08192985
63	0xbe5fd169	-0.21857227
64	0x3dfd1a49	0.12358529
65	0xbe5c1d08	-0.2149545
66	0xbdff2abd	-0.124593236
67	0xbe9e1002	-0.30871588
68	0xbdb8e117	-0.090273075
69	0xbe363948	-0.17795289
70	0x3e49e755	0.19717152
71	0x3df2059e	0.11817478
72	0xbeb2ea7f	-0.3494453
73	0xbea8c0fb	-0.32959732
74	0xbd8e6e3f	-0.069546215
75	0x3e9d772f	0.30754992
76	0xbd339727	-0.043845322
77	0x3ea552d3	0.32289752
78	0x3e0c2ffc	0.1369018
79	0xbeb0ec15	-0.34555116
80	0x3e054cdf	0.13017605
81	0x3e79ce28	0.24395049
82	0x3d983e80	0.07433796
83	0xbe90d7d1	-0.28289655
84	0x3e615047	0.2200328
85	0xbe8e7296	-0.27821797
86	0x3db53352	0.08847679
87	0x3eaef2c3	0.34169587
88	0x3dc9f401	0.09860993
89	0x3e23e886	0.1600667
90	0x3e067ef0	0.1313436
91	0x3e8125c0	0.25224113
92	0x3e2dcb2c	0.16972035
93	0xbd26d4d8	-0.040730327
94	0x3dd45959	0.10368604
95	0x3d880c20	0.06642938
96	0x3d2db9ee	0.042413644
97	0xbe8d0cab	-0.27548727
98	0x3dce6468	0.10077745
99	0xbe14cb64	-0.14530712
100	0xbe6d2682	-0.23159221
101	0x3e0ebc89	0.13939108
102	0x3eaa39d2	0.33247238
103	0x3ae49770	0.0017440151
104	0xbdace01a	-0.084411815
105	0x3e0ba5ad	0.13637419
106	0x3e785852	0.24252442
107	0x3e4430af	0.19159196
108	0x3d98b98c	0.07457265
109	0xbeb805ed	-0.3594202
110	0xbe9ce713	-0.30645046
111	0x3c5d6c26	0.013514554
112	0x3e7df1c1	0.24799253
113	0xbcedc32f	-0.029023735
114	0xbe1cc7c1	-0.15310575
115	0x3eae4596	0.34037465
116	0xbe103626	-0.14083156
117	0xbc1b7883	-0.009489181
118	0x3e87a9f2	0.26496845
119	0x3e2fb8ed	0.17160387
120	0x3e9d8b61	0.307704
121	0x3eb26537	0.34842846
122	0xbe281e80	-0.16417885
123	0x3e2ebc8f	0.17064117
124	0x3eaa2a1d	0.33235255
125	0x3ead7866	0.3388092
126	0xbe25735b	-0.16157286
127	0xbe23a408	-0.15980542

layers.0.bias f4 [16]
0	0x3e82a38d	0.25515404
1	0x3e99d49f	0.3004503
2	0x3e0bf2f1	0.13666894
3	0x3cbe53c1	0.023233296
4	0xbe276b6a	-0.16349569
5	0x3e212520	0.15736818
6	0xbd8f6043	-0.07000782
7	0xbeb42e77	-0.351917
8	0xbdeb8fe3	-0.115020536
9	0xbd8e5ecb	-0.06951674
10	0x3de25b3a	0.11052556
11	0xbe7be966	-0.24600753
12	0x3e7f9d3d	0.24962325
13	0x3e8a21f6	0.26979035
14	0xbe32caa2	-0.17460111
15	0xbd747286	-0.05967953

layers.1.weight f4 [16, 16]
0	0x3e1cb712	0.15304211
1	0xbd5e9ff2	-0.054351754
2	0xbdf7b8fe	-0.12095831
3	0xbd0376bd	-0.03209566
4	0xbdff7f82	-0.12475492
5	0x3ca4cb22	0.020116393
6	0xbd40863c	-0.047003016
7	0xbe636320	-0.22205782
8	0x3dfad475	0.12247554
9	0x3c60f457	0.01373013
10	0x3d591683	0.052999984
11	0xbd87527f	-0.06607532
12	0x3e077da8	0.13231528
13	0xbe45e55b	-0.19325773
14	0xbcc59b04	-0.024121769
15	0x3e19ae6d	0.15007944
16	0x3e3ab4b8	0.18233001
17	0xbe2c3e13	-0.16820554
18	0x3e2ad804	0.16683966
19	0x3d4cebea	0.050029673
20	0x3d6b4be2	0.057445414
21	0xbe6507c7	-0.22366248
22	0xbe04a24b	-0.12952535
23	0xbdb70a07	-0.089374594
24	0xbc98cc56	-0.018652122
25	0xbe283b21	-0.16428806
26	0x3e1a832b	0.15089099
27	0x3c8e9e2d	0.017409408
28	0xbe37553d	-0.1790361
29	0x3d71ce1b	0.059034448
30	0xbe60ac4e	-0.21940729
31	0x3dc13141	0.094332226
32	0xbdf405f8	-0.11915201
33	0x3e041214	0.12897521
34	0xbd0a351b	-0.03374205
35	0x3cc1bc6c	0.023649417
36	0x3e7bc6f4	0.24587613
37	0xbe6cee1b	-0.23137705
38	0xbce3f7bb	-0.027828088
39	0xbe064728	-0.13113081
40	0xbe2f1d66	-0.17101058
41	0x3e1a1128	0.15045607
42	0xbd882a55	-0.06648699
43	0x3d248ade	0.040171497
44	0x3de9f789	0.11424167
45	0xbdfc3754	-0.123152405
46	0xbe3b2276	-0.18274865
47	0xbc897780	-0.016780615
48	0xbce01ef4	-0.02735851
49	0xbe645f4a	-0.22301975
50	0xbd07bcb3	-0.033138942
51	0x3e1c6dfe	0.15276334
52	0xbe487bb6	-0.19578442
53	0xbd7d92ab	-0.06190745
54	0x3d7a428d	0.061098624
55	0x3e1fe806	0.15615854
56	0xbe7da136	-0.24768528
57	0x3cb67a01	0.022274973
58	0xbe1771c3	-0.1478949
59	0xbe34d39f	-0.17658852
60	0xbe5bbf5d	-0.21459718
61	0xbd15dae9	-0.036585722
62	0xbe6e342a	-0.23262087
63	0x3dbe371f	0.09287857
64	0x3e59879a	0.21243134
65	0x3d8415bc	0.06449458
66	0xbe010b4b	-0.12601964
67	0xbd84c604	-0.06483081
68	0xbd1559cc	-0.03646259
69	0xbda6a074	-0.08136073
70	0xbd98732c	-0.07443842
71	0x3d519fb6	0.051177703
72	0x3cc054d1	0.023477944
73	0xbddfcbf0	-0.1092757
74	0xbe0c7451	-0.13716246
75	0x3d9e5c13	0.077324055
76	0x3e383d66	0.17992172
77	0x3dc9ce53	0.09853806
78	0x3e28bbd3	0.16477899
79	0x3e54c239	0.20777215
80	0xbdda925f	-0.10672449
81	0xbda7ff99	-0.08203048
82	0x3ddaa386	0.10675721
83	0x3e0ac6a0	0.13552332
84	0xbe28fd85	-0.1650296
85	0x3cfc9bfd	0.0308361
86	0x3dc2392f	0.09483563
87	0x3d44ae28	0.04801765
88	0xbd7f87b5	-0.06238528
89	0xbd33e165	-0.043916125
90	0xbdf0aa37	-0.11751216
91	0x3dd13c74	0.10216609
92	0xbcb9d89d	-0.022686297
93	0x3e091251	0.13385893
94	0x3e598402	0.21241763
95	0x3e12a981	0.14322473
96	0xbe3099d9	-0.17246188
97	0x3e1a1b49	0.15049471
98	0xba7e4cae	-0.0009700757
99	0x3db84e1d	0.08999274
100	0x3e49576c	0.19662255
101	0xbd65ce8d	-0.056105185
102	0x3e351224	0.17682701
103	0x3d9c4ef2	0.07632245
104	0xbcb1d3e4	-0.021707483
105	0x3e61c383	0.22047238
106	0xbe171e92	-0.14757755
107	0xbc7b3ceb	-0.015334348
108	0x3c45dc5d	0.0120764645
109	0xbe5bd57a	-0.21468154
110	0x3e243133	0.16034393
111	0xbe6e4f29	-0.23272385
112	0xbce8eee8	-0.028434232
113	0xbd70b500	-0.058766365
114	0xbd71e032	-0.0590517
115	0xbe011cad	-0.12608595
116	0x3d77acf1	0.060467664
117	0x3db57250	0.08859694
118	0xbe6cb7c1	-0.23116972
119	0x3da1cf05	0.07900814
120	0xbe1f381b	-0.15548746
121	0xbdb093ba	-0.086219266
122	0xbe5ac1bd	-0.21362968
123	0x3e07f893	0.13278417
124	0x3e231b2f	0.15928338
125	0x3e1e48dd	0.15457483
126	0x3a8b66a0	0.0010635443
127	0x3e09c46d	0.13453837
128	0x3c6813eb	0.014164905
129	0x3dc34604	0.09534839
130	0xbd982e3e	-0.07430695
131	0xbe33299f	-0.17496346
132	0x3cc80abf	0.024419187
133	0x3e35a592	0.17738941
134	0xbcbf2610	-0.02333358
135	0xbe0bd317	-0.13654743
136	0xbd1440b4	-0.03619452
137	0x3e2fe3fe	0.17176816
138	0x3dfbe297	0.12299078
139	0x3cbbc423	0.022920674
140	0xbd9d235e	-0.076727614
141	0x3df43568	0.11924249
142	0x3e14adc6	0.14519414
143	0xbe48b1d6	-0.19599089
144	0x3e83b8a1	0.25726798
145	0xbe4ff8a5	-0.20309694
146	0x3e45317d	0.1925716
147	0xbe11a811	-0.14224268
148	0xbe177513	-0.14790754
149	0xbe1dac46	-0.15397748
150	0x3e1c7948	0.1528064
151	0xbd943c15	-0.07238022
152	0xbcee2b28	-0.029073313
153	0xbe2b0dcc	-0.16704482
154	0xbda49c71	-0.08037651
155	0x3d965b38	0.07341617
156	0xbe1c439a	-0.15260163
157	0xbe12d87c	-0.14340395
158	0x3e00151f	0.12508057
159	0x3e278d40	0.16362476
160	0x3a2b6f12	0.0006539683
161	0x3d8a6f9b	0.06759568
162	0x3b0f2f42	0.0021848236
163	0x3d600226	0.05468955
164	0xbd885c11	-0.06658185
165	0x3e487d73	0.19579105
166	0x3a17a24b	0.00057843764
167	0xbe060891	-0.13089205
168	0xbe164c79	-0.1467761
169	0x3e56ab2a	0.20963731
170	0xbc619967	-0.013769484
171	0xbd382e97	-0.044966307
172	0x3e5644f4	0.20924741
173	0xbd077363	-0.033069026
174	0x3e6ca042	0.23108009
175	0xbe4bac98	-0.19890058
176	0xbdc31cc9	-0.09526975
177	0xbd98cc2e	-0.07460819
178	0x3d6c9583	0.057759773
179	0x3e31d0a0	0.1736474
180	0xbc01780d	-0.0079021575
181	0x3d976caa	0.07393773
182	0x3dd5d49b	0.10440942
183	0x3e03e182	0.12878993
184	0xbda76855	-0.08174197
185	0x3da75377	0.081702165
186	0xbe2d1b57	-0.1690496
187	0x3da9e504	0.082956344
188	0xbe476946	-0.19473752
189	0xbe413b23	-0.18870215
190	0x3d4d3539	0.050099585
191	0xbe32677d	-0.1742229
192	0xbe74546a	-0.23860326
193	0x3e78cc5c	0.24296707
194	0xbdbc8d02	-0.092065826
195	0xbc44b547	-0.0120061105
196	0x3e4f1296	0.20221934
197	0xbdef7612	-0.11692442
198	0x3e36a93b	0.17837994
199	0x3e68a769	0.22720112
200	0x3d125cf5	0.035733182
201	0x3e31b757	0.17355095
202	0x3d882c8b	0.06649121
203	0x3df632b6	0.12021391
204	0x3d336206	0.043794654
205	0xbd24fd07	-0.04028037
206	0x3e1335d1	0.14375998
207	0xbe172094	-0.14758521
208	0x3e523db6	0.20531353
209	0x3d6632e3	0.056200873
210	0x3e43157c	0.19051164
211	0x3e26dabc	0.16294378
212	0x3ca27d48	0.01983513
213	0x3e68b31f	0.2272458
214	0xbe0c1bcf	-0.13682483
215	0xbe62cf57	-0.22149406
216	0x3ba4ea54	0.005032817
217	0x3dfa3733	0.1221756
218	0x3e868c71	0.26279023
219	0xbd0e1d1d	-0.034695733
220	0x3e781486	0.24226579
221	0xbe2df499	-0.16987838
222	0x3e5363bf	0.20643519
223	0xbdbe9ddc	-0.09307453
224	0x3cce1ca6	0.025160145
225	0x3e18d806	0.14926156
226	0xbb5ea9f7	-0.0033975819
227	0xbe6ab3de	-0.22920176
228	0xbdc010b0	-0.09378183
229	0x3e31579f	0.17318581
230	0x3e5a629c	0.21326679
231	0xbddcbf32	-0.10778655
232	0x3e53aeb8	0.20672119
233	0xbe252b5f	-0.16129826
234	0xbe3fafaf	-0.18719362
235	0xbe073b3c	-0.1320619
236	0xbd3fae6a	-0.046797194
237	0xbe778517	-0.24171863
238	0x3d1aebf0	0.037822664
239	0xbe6162a8	-0.2201029
240	0xbe0927de	-0.13394114
241	0xbd691864	-0.056908026
242	0x3e734699	0.237574
243	0x3d4b5e8a	0.049650706
244	0x3d869873	0.06572046
245	0x3d91a165	0.07110862
246	0xbe3985e7	-0.18117486
247	0xbe40ef2b	-0.18841235
248	0xbde338a0	-0.11094785
249	0x3e3c074a	0.18362156
250	0xbe2d35ef	-0.16915105
251	0xbe7cc4a2	-0.24684384
252	0x3e1ddc8b	0.15416162
253	0xbe41071a	-0.18850365
254	0xbcca48a8	-0.024692848
255	0x3b19250d	0.0023368031

layers.1.bias f4 [16]
0	0xbd8a7a7f	-0.067616455
1	0xbd18b93a	-0.03728602
2	0xbd948b7a	-0.072531655
3	0xbc808ab4	-0.015691139
4	0x3df3c5cd	0.11902962
5	0xbe757ab3	-0.23972587
6	0xbcfc958d	-0.03083303
7	0x3d84c051	0.06481994
8	0x3bf26c55	0.007398168
9	0x3d5e09fc	0.05420874
10	0x3cf634b0	0.03005442
11	0xbd3c8cac	-0.046032593
12	0xbe6689dd	-0.22513528
13	0x3e39dd07	0.18150721
14	0x3e515cd8	0.20445573
15	0x3e2b38b1	0.16720845

layers.2.weight f4 [1, 16]
0	0x3b1cfbab	0.0023953717
1	0xbe1c3067	-0.15252839
2	0x3e1a5562	0.15071633
3	0xbdea16e9	-0.11430151
4	0xbe80c939	-0.2515352
5	0xbe61fabb	-0.22068302
6	0xbcfb9f57	-0.030715628
7	0x3daba011	0.083801396
8	0xbcf2f247	-0.029656542
9	0xbe6a9e48	-0.22911942
10	0x3b880c9e	0.0041518947
11	0xbe220fbd	-0.15826316
12	0xbdc2045c	-0.09473488
13	0xbe6f0021	-0.23339893
14	0xbd0b7795	-0.03404959
15	0xbe6aaf60	-0.22918463
