saved_models/pytorch_connect/saved_model_income14.pth (torch, 5898 bytes, 5 tensors)

weight f4 [16, 8]
0	0xbe84aba3	-0.25912198
1	0xbd27de16	-0.040983282
2	0xbdb331ac	-0.087497085
3	0x3dac490e	0.084123716
4	0x3e2d75e9	0.1693951
5	0x3e9e3441	0.30899242
6	0x3bee9072	0.007280403
7	0x3e390b8f	0.18070816
8	0xbe80fddf	-0.25193688
9	0xbeac6af8	-0.3367536
10	0x3e622195	0.22083123
11	0xbe4f3244	-0.20234019
12	0xbd66f202	-0.05638314
13	0xbd8d97e0	-0.069137335
14	0xbda1cf24	-0.07900837
15	0x3e0b404d	0.13598748
16	0x3e9413c5	0.28921333
17	0x3df6921f	0.12039589
18	0xbe9dddab	-0.30833182
19	0xbe668b2d	-0.22514029
20	0xbd2ebfe0	-0.042663455
21	0x3eaed1c7	0.34144422
22	0xbd468540	-0.04846692
23	0xbeac61ba	-0.3366831
24	0x3e9f3a2f	0.31099078
25	0x3da59e39	0.08086819
26	0x3d8607fc	0.06544492
27	0x3e49b73d	0.19698806
28	0x3e374d8a	0.17900673
29	0x3e7854fe	0.24251172
30	0xbe211cb8	-0.15733612
31	0xbc854f37	-0.016273124
32	0x3e9717c8	0.2951033
33	0x3d8b4ad5	0.068013825
34	0xbeadb886	-0.33929843
35	0xbe8bf635	-0.2733628
36	0x3e7476e6	0.23873481
37	0xbe14dc26	-0.14537105
38	0x3d89812b	0.0671409
39	0x3d3e84b4	0.046513274
40	0x3d93b6b0	0.07212579
41	0x3ebcea24	0.36897385
42	0xbe469923	-0.19394355
43	0x3de62fb9	0.11239571
44	0x3dca8206	0.09888081
45	0x3e808789	0.25103405
46	0x3e85c0b2	0.26123577
47	0xbd5e041e	-0.054203145
48	0xbe694b5c	-0.22782654
49	0xbe80d95a	-0.25165826
50	0xbe5a9de1	-0.21349289
51	0xbe7d8860	-0.24759054
52	0x3cf1ca9a	0.029515553
53	0x3e82b737	0.25530407
54	0xbe4b9c6b	-0.19883887
55	0x3e0d757e	0.13814351
56	0x3e5f7685	0.21822555
57	0xbc5141cf	-0.012772038
58	0xbe6ae077	-0.22937189
59	0xbeb372de	-0.35048574
60	0x3e84c6a5	0.25932804
61	0x3eaf470c	0.34233892
62	0xbea80e74	-0.32823527
63	0xbdd23c99	-0.10265464
64	0xbe91ec10	-0.28500414
65	0x3eb046f9	0.34429148
66	0x3eb1cd67	0.34727022
67	0xbe3db2d1	-0.18525244
68	0xbeaec606	-0.34135455
69	0xbe082b0a	-0.13297668
70	0xbe61f3be	-0.22065637
71	0x3dc8e878	0.09809965
72	0x3eb040d0	0.34424448
73	0x3d9725a4	0.07380226
74	0xbea0d2f4	-0.31410944
75	0x3e8822b4	0.26588976
76	0xbddb0343	-0.106939815
77	0x3dcbbfc0	0.09948683
78	0xbbfcab25	-0.0077108317
79	0x3e95efeb	0.29284605
80	0xbe919aba	-0.2843836
81	0x3eb46577	0.35233662
82	0xbe4287e5	-0.18997152
83	0x3ce1f67b	0.027583351
84	0xbeb27895	-0.34857622
85	0x3e62e1d7	0.22156464
86	0xbdb71b91	-0.08940805
87	0xbe05ccba	-0.13066378
88	0xbe90e470	-0.28299284
89	0x3ea4a721	0.3215876
90	0x3db43052	0.08798279
91	0x3e68edb8	0.22746933
92	0xbe083b48	-0.13303864
93	0xbdc7fa44	-0.09764531
94	0xbe8a606f	-0.27026698
95	0x3da8b945	0.08238462
96	0xbd959c34	-0.07305184
97	0xbe343aa6	-0.17600498
98	0x3c69f704	0.0142800845
99	0xbdb58eb5	-0.0886511
100	0x3e81a6c1	0.25322536
101	0x3ea064e4	0.31326973
102	0xbea5926d	-0.32338277
103	0x3bbbc548	0.005730305
104	0x3e47aa99	0.19498672
105	0x3d55b2c8	0.052172452
106	0x3eb20a1b	0.34773335
107	0x3da877d9	0.08225984
108	0x3d61cabf	0.055124994
109	0x3cfc2541	0.030779483
110	0xbe897515	-0.2684714
111	0x3db1230e	0.08649264
112	0xbe96c667	-0.29448244
113	0x3d7dfa79	0.062006447
114	0xbe1fd0a7	-0.15606938
115	0x3d49b40c	0.04924397
116	0x3e8211ec	0.25404298
117	0xbe997005	-0.29968277
118	0x3c5ab51b	0.013348843
119	0xbe838c2a	-0.25692874
120	0x3d2fb6f5	0.04289909
121	0x3e92aca6	0.28647345
122	0xbe3b7809	-0.18307509
123	0xbe6fb48a	-0.23408714
124	0x3e3d6cee	0.18498585
125	0x3e85e7c0	0.26153374
126	0xbdad4505	-0.0846043
127	0x3e88384a	0.26605445

bias f4 [16]
0	0xbeaa219f	-0.33228776
1	0x3e39ff1c	0.18163723
2	0xbe1d6596	-0.15370783
3	0xbec0d1d7	-0.37660095
4	0xbea17266	-0.31532592
5	0xbe9be512	-0.30448204
6	0x3e2f593b	0.17123882
7	0x3de3a19d	0.1111481
8	0xbe9228be	-0.2854671
9	0xbd9fe005	-0.078064
10	0xbcbb54e1	-0.022867622
11	0xb990f85e	-0.00027650868
12	0x3e5d259b	0.21596377
13	0x3baf4d1c	0.0053497683
14	0xbd15c508	-0.036564857
15	0xbe7447a0	-0.23855448

weight f4 [16, 16]
0	0xbd986cf0	-0.07442653
1	0x3d77eedc	0.06053053
2	0xbe7e6fe3	-0.24847369
3	0x3e239567	0.15974961
4	0x3d2b7b4b	0.04186563
5	0x3e1f1b56	0.15537772
6	0xbe2e247d	-0.17006107
7	0x3e3f6733	0.18691711
8	0x3e1ee937	0.15518652
9	0x3d565cd1	0.05233461
10	0xbe68795f	-0.2270255
11	0xbc1a3e8a	-0.009414325
12	0xbe063b2e	-0.13108513
13	0x3e086887	0.13321124
14	0x3e7c2d69	0.24626698
15	0xbe10b8df	-0.14133023
16	0xbdb72173	-0.08941927
17	0x3e3059b8	0.17221725
18	0x3e297267	0.16547547
19	0x3e6deaea	0.23234144
20	0xbd89901b	-0.06716939
21	0xbe6ee268	-0.23328555
22	0xbdf44c8d	-0.119286634
23	0xbde1138c	-0.109900564
24	0x3d9b2d55	0.07577006
25	0x3e4f306f	0.2023332
26	0x3e0f5589	0.13997473
27	0x3e5bbb7a	0.21458235
28	0xbe52f720	-0.20602083
29	0x3d93ff70	0.07226455
30	0x3e78ae7f	0.24285315
31	0x3c1bab15	0.009501238
32	0xbe41b98c	-0.18918437
33	0xbe7f2f86	-0.24920473
34	0x3d89cbf3	0.06728353
35	0xbe774194	-0.2414611
36	0xbc1c01f4	-0.00952195
37	0x3defbf9e	0.1170647
38	0x3e2b9527	0.16756116
39	0x3e67de36	0.2264336
40	0xbe5aeec3	-0.21380143
41	0x3c03b378	0.008038394
42	0x3cb0006b	0.021484574
43	0x3e44daee	0.1922414
44	0x3e4c8c90	0.19975495
45	0xbe21e84b	-0.15811269
46	0xbe61826e	-0.22022411
47	0xbe29e24e	-0.16590235
48	0xbe76b98d	-0.2409422
49	0xbc4d97fe	-0.012548445
50	0x3c6bd505	0.0143940495
51	0x3e0c4ff1	0.1370237
52	0x398758ea	0.00025815453
53	0xbc840f8c	-0.016120695
54	0x3e4989e5	0.19681509
55	0x3de23fd2	0.11047329
56	0xbe2041f2	-0.15650156
57	0x3e125aaa	0.14292398
58	0xbc4bdcd2	-0.012442784
59	0xbe754ee0	-0.2395587
60	0x3e2ea2a0	0.17054224
61	0x3d9bd1e3	0.07608392
62	0xbe601fbe	-0.21887109
63	0x3d84a291	0.064763196
64	0x3e0f1c44	0.13975626
65	0xbe5002d7	-0.20313583
66	0x3e720f56	0.23638663
67	0xbe669778	-0.22518718
68	0xbe15c921	-0.14627506
69	0xbe679326	-0.22614726
70	0x3dc14acf	0.09438097
71	0xbd018e82	-0.031630047
72	0xbd6617b3	-0.056174945
73	0xbdaf8ff8	-0.08572382
74	0xbe7d00c0	-0.24707317
75	0x3e21650b	0.15761201
76	0xbe4243e3	-0.18971209
77	0xbe5f8e47	-0.21831618
78	0x3dc206ad	0.094739296
79	0x3d7e7093	0.062119078
80	0x3e06ca09	0.13163008
81	0x3bc37a7b	0.0059655285
82	0x3dacb946	0.084337756
83	0xbe5d763c	-0.21627134
84	0x3e4f2e9b	0.20232622
85	0xbd1e89d0	-0.038705647
86	0xbe1565e6	-0.14589652
87	0x3dd9c2da	0.10632868
88	0x3e113406	0.14180002
89	0x3e6874bc	0.2270078
90	0xbd99fd10	-0.07518971
91	0xbdf8a75b	-0.121412955
92	0x3db2dbb4	0.08733311
93	0xbe0e3c39	-0.1389016
94	0x3e08d2cf	0.13361667
95	0xbe4053e2	-0.18781999
96	0x3cc951ae	0.02457508
97	0xbdfb7481	-0.12278081
98	0xbe03eb4f	-0.12882732
99	0x3df2c63a	0.11854215
100	0x3e2d81c2	0.1694403
101	0xbe6b91c1	-0.2300482
102	0x3df9b2f8	0.12192339
103	0x3c04d7b3	0.008108067
104	0x3d6edd49	0.058316503
105	0xbdf35177	-0.118807726
106	0x3deea499	0.11652488
107	0xbd813c79	-0.06310362
108	0x3e4a1408	0.19734204
109	0xbd7d97ca	-0.061912335
110	0xbd6fe45e	-0.058567397
111	0xbd8c660e	-0.06855403
112	0xbbc44588	-0.005989734
113	0xbe36e725	-0.17861612
114	0xbc16265b	-0.009164418
115	0xbe356258	-0.17713296
116	0x3e32c560	0.17458105
117	0x3e6c4703	0.23073964
118	0x3e7b7119	0.24554862
119	0x3e4d23cd	0.20033188
120	0xbd4a284d	-0.04935484
121	0x3db2e18c	0.08734426
122	0x3d206cec	0.039166376
123	0x3e3024a2	0.17201474
124	0x3e303a3a	0.17209712
125	0x3d8ce41b	0.06879445
126	0x3e275dc3	0.16344361
127	0x3e147bc3	0.14500336
128	0x3e189d68	0.14903796
129	0x3e4e695b	0.20157377
130	0x3da0285e	0.078201994
131	0xbe664c24	-0.22489983
132	0xbdf131e7	-0.11777096
133	0x3da1e874	0.07905665
134	0xbe46b13a	-0.19403544
135	0x3e2e3975	0.17014106
136	0x3e1fff77	0.15624796
137	0x3c4fa2b4	0.012673069
138	0x3dbbc194	0.091677815
139	0x3e81595e	0.25263494
140	0xbe6f6a46	-0.23380384
141	0xbe07ce03	-0.13262181
142	0x3e6101c0	0.21973324
143	0xbe21c8ef	-0.15799306
144	0x3e0bf0d5	0.13666089
145	0x3e55db4d	0.20884438
146	0xba8670dc	-0.0010257023
147	0x3e71cdb2	0.23613623
148	0xbd0b497f	-0.03400564
149	0x3e620cc6	0.22075185
150	0xbe5889ba	-0.21146289
151	0x3e3e6353	0.18592577
152	0x3da15fea	0.07879622
153	0xbe28de62	-0.16491082
154	0xbe50167a	-0.20321074
155	0xbde013c8	-0.10941273
156	0x3d8fb487	0.07016855
157	0xbd2a9458	-0.041645378
158	0xbe4e37f6	-0.20138535
159	0xbd06ebbc	-0.032939658
160	0xbdf0d549	-0.11759431
161	0xbc3e2b1c	-0.011606958
162	0xbdb65082	-0.089020744
163	0x3e3a8934	0.18216401
164	0x3e241f7d	0.16027637
165	0xbe6536ab	-0.22384135
166	0xbe80ae6b	-0.2513307
167	0x3e2c24cf	0.16810916
168	0xbe384e9f	-0.17998742
169	0x3dcf687f	0.10127353
170	0xbe4fab66	-0.20280227
171	0x3e659722	0.22420934
172	0x3d94c933	0.07264938
173	0xbd648f81	-0.05580092
174	0x3e32c54b	0.17458074
175	0x3abb612e	0.001429593
176	0xbe3effc8	-0.1865226
177	0x3d4419a6	0.047876023
178	0xbc3bc01a	-0.011459375
179	0xbe699182	-0.22809413
180	0x3e06b64c	0.13155478
181	0xbe6d9aa8	-0.23203528
182	0x3d878d0e	0.06618701
183	0x3e2951d3	0.1653512
184	0x3da765f6	0.081737444
185	0xbe1f116a	-0.15533987
186	0x3e2482cc	0.1606552
187	0x3e619244	0.22028452
188	0x3e120d48	0.14262879
189	0x3d5541ef	0.052064832
190	0x3c64b41f	0.01395896
191	0x3af59338	0.0018735891
192	0xbe76d8c1	-0.24106123
193	0xbe2aefc5	-0.16693027
194	0xbe660d97	-0.22466122
195	0x3dc10484	0.094246894
196	0xbdd85fa2	-0.105651155
197	0xbd03d2ac	-0.032183334
198	0x3d048c59	0.03236041
199	0x3b84ca27	0.0040524187
200	0x3e28f211	0.16498591
201	0xbd86fe72	-0.065915
202	0x3e510f47	0.20415984
203	0x3e335479	0.17512693
204	0x3b8a4935	0.0042201527
205	0xbe0facbe	-0.1403074
206	0xbdc7b3c6	-0.09751086
207	0xbdd0ffce	-0.10205041
208	0x3e4b6457	0.19862495
209	0xbe163f4c	-0.14672583
210	0x3d916697	0.070996456
211	0x3dacc291	0.08435548
212	0xbe525a93	-0.20542364
213	0x3e067ef8	0.13134372
214	0x3c3bc5c3	0.011460724
215	0x3dabfade	0.083974585
216	0x3e3826e8	0.17983592
217	0xbe6f08ec	-0.23343247
218	0xbdc64305	-0.09680752
219	0xbdd0c9bf	-0.1019473
220	0xbd193e5f	-0.037412997
221	0xbd852748	-0.06501633
222	0x3da6acce	0.08138429
223	0x3bf7346a	0.00754409
224	0x3dc57b79	0.09642691
225	0xbe20f9ae	-0.15720245
226	0x3db6f894	0.08934131
227	0xbe05191b	-0.12997858
228	0xbe7db3c4	-0.24775606
229	0x3e23b111	0.15985514
230	0xbbfb66fa	-0.007672188
231	0xbdc11de6	-0.09429531
232	0x3e3470a4	0.17621094
233	0xbd43fdc7	-0.047849443
234	0xbe221936	-0.1582993
235	0xbe2b2556	-0.16713461
236	0x3dca3e7d	0.098752
237	0x3de316d3	0.11088338
238	0xbe2939f9	-0.16526021
239	0xbe2dfc11	-0.16990687
240	0x3de977df	0.11399817
241	0x3a939abd	0.0011261326
242	0x3e172765	0.14761122
243	0x3e2a0e21	0.16606952
244	0xbd8386e1	-0.064222105
245	0xbe5c5264	-0.21515805
246	0xbe36cb92	-0.17851093
247	0x3e49541c	0.19660991
248	0x3e363975	0.17795356
249	0x3e0121e1	0.1261058
250	0xbca5a0db	-0.020218303
251	0x3ca62d84	0.020285375
252	0x3d9d4b1c	0.076803416
253	0xbe30c62b	-0.17263095
254	0x3e3eaebb	0.18621342
255	0xbcdea62b	-0.027178844

bias f4 [16]
0	0xbd9a7805	-0.07542423
1	0x3e29a85c	0.1656813
2	0xbe5a6004	-0.2132569
3	0xbcb01cca	-0.021498103
4	0xbdaf757f	-0.085673325
5	0x3b4548c2	0.0030103181
6	0xbe717bd8	-0.23582399
7	0xbd155771	-0.036460344
8	0xbdff5d15	-0.12468926
9	0xbdd91b65	-0.10600928
10	0xbce644ee	-0.02810904
11	0xbe164b09	-0.14677061
12	0xbd0eea90	-0.034891665
13	0xbd754d59	-0.059888218
14	0x3dc8175d	0.09770081
15	0xbb832195	-0.004001806

weight f4 [1, 16]
0	0xbdfc3169	-0.12314112
1	0xbd52bc5f	-0.051449176
2	0xbc9ac2dd	-0.018891746
3	0x3e1a63c8	0.15077126
4	0xbd305b7f	-0.043056007
5	0x3d5b98e7	0.053612616
6	0x3e6d249c	0.23158497
7	0xbe9b0ced	-0.302833
8	0xbe226523	-0.15858893
9	0x3d6dc6b0	0.05805081
10	0x3e069477	0.13142572
11	0xbe332139	-0.17493142
12	0x3d82170d	0.06352053
13	0x3e4f032a	0.2021605
14	0xbe613a08	-0.21994793
15	0x3e086473	0.13319568
