saved_models/pytorch_connect/saved_model_income3.pt (torch, 4544 bytes, 5 tensors)

layers.0.weight f4 [16, 8]
0.14412516 -0.309282 0.1567787 -0.057427023 0.24959202 0.005718663 -0.13631731 -0.31271407
0.04291676 0.022405554 0.032199975 0.22318445 -0.16173016 0.26942134 0.22169843 -0.22299075
-0.07611926 0.26301712 0.07461165 0.16669595 -0.119020194 0.35441762 -0.30854428 0.03140522
0.32735267 -0.32888934 0.032580942 0.09244386 0.3219273 0.05365071 -0.18736418 0.19309439
0.25544113 0.3200027 0.2469198 0.16102219 -0.10716522 -0.09226991 -0.09750632 0.21948905
-0.2819128 0.13052127 -0.30735606 0.3395257 0.18123497 -0.23762031 0.12427669 -0.14499965
-0.19305743 -0.010289854 -0.22342557 0.035642393 -0.24919702 0.18836686 0.0834335 0.22280379
-0.04446872 0.10525634 0.21665178 0.16462934 0.12982734 -0.20447709 -0.15938081 -0.2785802
0.28111035 -0.092852935 0.22953892 -0.33704886 -0.08148247 -0.28270936 -0.24841663 -0.26055223
0.102760844 -0.106822155 -0.012786689 -0.045430027 0.07665024 0.0842472 0.017063105 -0.26533538
0.18629816 0.27712843 0.34453607 -0.32887197 0.17420441 -0.2436756 -0.16977157 0.24081372
0.0555625 -0.027732728 0.25682342 -0.060474273 -0.19668582 0.17052275 0.28447908 0.01926
-0.04774148 0.13335979 0.20807086 -0.20125332 0.33509693 0.02976 0.036228646 -0.037148163
0.21191078 0.043778617 -0.006451511 0.26305676 -0.13268732 0.08290612 0.2305293 -0.010806393
-0.09667425 -0.05775634 0.16376312 -0.08660659 0.10158488 -0.13429657 0.059434794 0.14810446
0.26987982 0.14811382 -0.28485617 0.18022466 0.26237854 0.1927061 0.32715565 -0.27122656
00000000: 8c95 133e 365a 9ebe 988a 203e 9938 6bbd
00000010: 0d95 7f3e 9f63 bb3b c496 0bbe 0f1c a0be
00000020: 7cc9 2f3d da8b b73c 1fe4 033d 778a 643e
00000030: 979c 25be 98f1 893e ea04 633e b057 64be
00000040: 6ae4 9bbd 2eaa 863e fecd 983d 58b2 2a3e
00000050: dcc0 f3bd 3a76 b53e 84f9 9dbe c3a2 003d
00000060: c59a a73e 2f64 a8be 9873 053d 3553 bd3d
00000070: a8d3 a43e d9c0 5b3d 65dc 3fbe 89ba 453e
00000080: 2ec9 823e 65d7 a33e 8bd8 7c3e 00e3 243e
00000090: 7079 dbbd 02f8 bcbd 65b1 c7bd bdc1 603e
000000a0: e056 90be 5ea7 053e c65d 9dbe 50d6 ad3e
000000b0: a995 393e bd52 73be c784 fe3d ca7a 14be
000000c0: d9b0 45be c796 28bc acc9 64be c2fd 113d
000000d0: 812d 7fbe 3ee3 403e 2fdf aa3d ad26 643e
000000e0: d524 36bd a390 d73d f7d9 5d3e 9894 283e
000000f0: 75f1 043e 7162 51be b934 23be 10a2 8ebe
00000100: b2ed 8f3e ae29 bebd 400c 6b3e ab91 acbe
00000110: 48e0 a6bd 48bf 90be ee60 7ebe 1a67 85be
00000120: 4774 d23d 93c5 dabd 437f 51bc d614 3abd
00000130: cdfa 9c3d cc89 ac3d edc7 8b3c 0ada 87be
00000140: f2c4 3e3e c7e3 8d3e 0867 b03e e861 a8be
00000150: a462 323e 1986 79be 99d8 2dbe df97 763e
00000160: 8195 633d bf2f e3bc 5c7e 833e dfb3 77bd
00000170: 0268 49be 849d 2e3e 3ea7 913e 26c7 9d3c
00000180: 928c 43bd 788f 083e 8710 553e 5a15 4ebe
00000190: d391 ab3e 3ecb f33c 7d64 143d ac28 18bd
000001a0: 24ff 583e 3551 333d 3267 d3bb 60af 863e
000001b0: 2fdf 07be afca a93d df0f 6c3e 4c0d 31bc
000001c0: 26fd c5bd e991 6cbd 85b1 273e cc5e b1bd
000001d0: bc0b d03d 0a85 09be e671 733d b2a8 173e
000001e0: b02d 8a3e 26ab 173e abd8 91be d08c 383e
000001f0: 7b56 863e bf54 453e f280 a73e 35de 8abe

layers.0.bias f4 [16]
0.16782741 0.18076837 -0.15685934 0.11579533 -0.22783938 -0.024516648 0.08627577 -0.06754371
0.10832443 0.10282575 -0.043746848 -0.33587214 -0.12495461 0.33268982 0.24971105 0.19053738
00000000: f3da 2b3e 581b 393e bc9f 20be 1a26 ed3d
00000010: ba4e 69be 23d7 c8bc 5ab1 b03d 5b54 8abd
00000020: 33d9 dd3d 4f96 d23d e52f 33bd 6ff7 abbe
00000030: 34e8 ffbd 5256 aa3e 41b4 7f3e 3b1c 433e

layers.1.weight f4 [16, 16]
0.20717369 0.21091485 0.13891415 -0.0019991111 -0.24238873 0.072990276 -0.032401994 -0.2430432
-0.15407144 0.23208697 -0.06925767 0.20480455 0.21904948 0.021398082 0.121920444 0.22165912
0.25113308 -0.061139125 -0.049528 -0.17245626 -0.096458025 0.0030610086 -0.21045299 0.17053594
0.10742119 -0.22270662 -0.21177769 0.23136339 -0.102174126 0.25742853 0.15635875 -0.15401426
0.2049944 0.049443543 0.062296238 -0.0074159447 -0.046832796 0.072737396 -0.2552671 0.21622667
0.15196395 -0.08611986 0.21079361 0.18883254 0.061978113 0.15397662 -0.14631209 -0.14560519
-0.2074383 -0.23536918 0.098181 0.061542533 0.24407229 -0.2269948 0.021477703 -0.10447603
0.008926363 0.20018594 -0.1910651 -0.19958855 -0.08884898 0.11284572 -0.18121316 0.12067647
0.22917262 0.018752852 0.17061321 -0.10482526 -0.0036833943 -0.20431875 -0.2467268 -0.21190797
0.0190572 0.22973992 -0.22351778 -0.1417335 -0.16608074 0.21983823 -0.020349978 -0.13942678
0.12932648 0.0841518 0.038375337 -0.17401639 -0.10133612 0.09118998 -0.14559057 0.009709253
0.24531437 -0.14196004 0.10258649 0.07897324 0.044343546 0.08429693 -0.059145167 -0.015100839
-0.09682876 -0.1806561 -0.113523096 -0.016745865 -0.035654187 0.08376792 -0.1461614 -0.01803714
-0.019068807 0.09531036 0.04603812 0.14306873 0.02208209 -0.21821702 -0.20437849 -0.14402288
0.17303693 0.115298286 -0.21175133 0.1156669 0.021846851 -0.051789816 0.15918936 -0.21827507
0.11275111 0.15981804 -0.075241156 0.23511758 -0.12520279 -0.25708184 -0.22875842 -0.17593016
0.08136707 -0.057623293 -0.21585052 -0.054494407 -0.047771838 0.17820886 -0.045737848 -0.16897571
0.22899489 -0.11696746 -0.01879512 -0.23893133 -0.21786733 -0.030461682 0.084556736 -0.20723782
-0.0714962 -0.2220978 -0.07920646 -0.22153376 0.23549871 -0.20719776 0.17373335 -0.09649244
0.128548 0.19710313 0.119346544 0.11214952 0.090960845 -0.21334642 -0.13905847 -0.15589997
0.24220155 -0.21686253 -0.21935794 0.16641016 0.21232732 0.14316045 -0.23500441 -0.25584406
0.007208759 0.16751404 0.2273161 0.17682248 -0.056553084 -0.09905446 0.1430525 -0.11945918
-0.12814613 -0.2032356 0.20690489 -0.11557327 -0.08106219 -0.16381307 0.07464901 0.09788164
-0.17011951 -0.0658435 -0.191806 -0.24502003 0.016372584 0.19382066 0.19203672 0.20363358
0.034256727 0.120630264 -0.012974411 -0.16570348 0.12198141 -0.15870234 0.10719743 -0.04104173
-0.02670917 -0.17600352 -0.1645101 -0.013623089 0.24550092 -0.24449667 -0.0754998 0.16324317
0.24134181 -0.22354248 -0.012415313 0.21545087 0.096959606 -0.08308372 0.027103731 -0.05332875
-0.13972968 0.22806169 -0.10394031 0.07673509 -0.22495072 -0.19986285 0.09580763 0.034129895
0.11635806 0.10867298 -0.10239992 0.2106576 -0.055814978 0.14524771 -0.1344061 0.047708727
0.06954736 -0.012474406 0.03883077 -0.23067495 -0.07381698 -0.061127946 0.21053414 0.14441325
-0.21699573 0.05073979 -0.14649287 0.14622883 -0.026107416 0.10144564 0.07798478 0.039040003
-0.020552108 0.13583024 -0.1143737 0.1132042 -0.15810688 -0.096678406 0.0077430927 0.21410935
00000000: 5725 543e 10fa 573e 833f 0e3e 8503 03bb
00000010: c034 78be ed7b 953d f4b7 04bd 51e0 78be
00000020: e7c4 1dbe 35a8 6d3e f7d6 8dbd 49b8 513e
00000030: 824e 603e 084b af3c 6db1 f93d 9cfa 623e
00000040: 8494 803e 056d 7abd dfdd 4abd 6098 30be
00000050: c98b c5bd 349b 483b fd80 57be f9a0 2e3e
00000060: a4ff db3d 340d 64be 40dc 58be 86ea 6c3e
00000070: ab40 d1bd accd 833e 821c 203e eab5 1dbe
00000080: 0dea 513e 5085 4a3d 572a 7f3d 7401 f3bb
00000090: bfd3 3fbd 58f7 943d 5fb2 82be 866a 5d3e
000000a0: 709c 1b3e 9c5f b0bd 48da 573e 515d 413e
000000b0: c3dc 7d3d 0cac 1d3e d6d2 15be 8719 15be
000000c0: b56a 54be 9e04 71be 1f13 c93d 0614 7c3d
000000d0: 16ee 793e 5371 68be 02f2 af3c 87f7 d5bd
000000e0: e13f 123c 8bfd 4c3e 92a6 43be f160 4cbe
000000f0: 74f6 b5bd a81b e73d f18f 39be 3a25 f73d
00000100: 3aac 6a3e 959f 993c 3bb5 2e3e a0ae d6bd
00000110: 1a65 71bb ef38 51be f3a5 7cbe 67fe 58be
00000120: d81d 9c3c f140 6b3e d8e1 64be 9622 11be
00000130: 1211 2abe 461d 613e ffb4 a6bc e5c5 0ebe
00000140: 296e 043e c757 ac3d 752f 1d3d 5a31 32be
00000150: 5089 cfbd d0c1 ba3d b215 15be 8f13 1f3c
00000160: b133 7b3e f95d 11be de18 d23d b9bc a13d
00000170: 94a1 353d dea3 ac3d 3442 72bd 8269 77bc
00000180: 284e c6bd eafd 38be cc7e e8bd a02e 89bc
00000190: 200a 12bd 848e ab3d 56ab 15be a0c2 93bc
000001a0: 3036 9cbc 1432 c33d 7892 3c3d 9c80 123e
000001b0: 80e5 b43c 4874 5fbe 9848 51be bc7a 13be
000001c0: 9830 313e 8221 ec3d 57d5 58be c5e2 ec3d
000001d0: 2bf8 b23c 8f21 54bd 8902 233e 8083 5fbe
000001e0: 0eea e63d 57a7 233e 0918 9abd aac2 703e
000001f0: 2935 00be 3ba0 83be a63f 6abe 0927 34be
00000200: c7a3 a63d 6706 6cbd eb07 5dbe 8735 5fbd
00000210: 67ac 43bd 627c 363e 9c57 3bbd f807 2dbe
00000220: a37d 6a3e a38c efbd 39f8 99bc 6aaa 74be
00000230: 9d18 5fbe c78a f9bc 152c ad3d 2736 54be
00000240: 9a6c 92bd 9b6d 63be ff36 a2bd bfd9 62be
00000250: 9326 713e a62b 54be 28e7 313e d49d c5bd
00000260: 16a2 033e 67d5 493e f66b f43d a6ae e53d
00000270: ae49 ba3d 7c77 5abe 5865 0ebe 3ea4 1fbe
00000280: af03 783e 3611 5ebe 5e9f 60be 6d67 2a3e
00000290: 556c 593e a798 123e ffa4 70be fefd 82be
000002a0: 7437 ec3b cd88 2b3e 8dc5 683e f410 353e
000002b0: 35a4 67bd 11dd cabd 5b7c 123e 04a7 f4bd
000002c0: bd38 03be fe1c 50be e0de 533e aeb1 ecbd
000002d0: ef03 a6bd 9dbe 27be 95e1 983d 2b76 c83d
000002e0: cf33 2ebe f5d8 86bd cb68 44be 88e6 7abe
000002f0: cc1f 863c ec78 463e 46a5 443e 5285 503e
00000300: c850 0c3d 000d f73d a092 54bc 2cae 29be
00000310: 64d1 f93d de82 22be 548a db3d 601b 28bd
00000320: 30cd dabc 443a 34be 5675 28be 6033 5fbc
00000330: 9864 7b3e 565d 7abe a49f 9abd 3829 273e
00000340: 4f22 773e 52e8 64be 9969 4bbc 279f 5c3e
00000350: c292 c63d cc27 aabd a508 de3c 3f6f 5abd
00000360: 4c15 0fbe 0189 693e a8de d4bd 4927 9d3d
00000370: 7b59 66be d9a8 4cbe ca36 c43d cacb 0b3d
00000380: 224d ee3d f08f de3d 0db7 d1bd a0b6 573e
00000390: 3f9e 64bd d1bb 143e c1a1 09be 3a6a 433d
000003a0: d96e 8e3d 7361 4cbc 030d 1f3d 0e36 6cbe
000003b0: 5b2d 97bd 4c61 7abd 4396 573e 11e1 133e
000003c0: 2134 5ebe 87d4 4f3d 3a02 16be 03bd 153e
000003d0: 38df d5bc bbc2 cf3d 7cb6 9f3d 69e8 1f3d
000003e0: e55c a8bc 1517 0b3e c23c eabd 9bd7 e73d
000003f0: c5e6 21be 54ff c5bd c5b9 fd3b 7b3f 5b3e

layers.1.bias f4 [16]
-0.19406655 0.24735504 0.06347927 -0.19816205 0.0041206423 -0.025716038 -0.19651452 0.17699836
0.05007108 0.07626056 0.024456847 0.09070939 -0.22687528 0.13906997 0.07319986 -0.09730495
00000000: 62b9 46be a44a 7d3e 6b01 823d feea 4abe
00000010: 7406 873b 71aa d2bc 1a3b 49be 0f3f 353e
00000020: 5517 4d3d 7f2e 9c3d ba59 c83c d8c5 b93d
00000030: fe51 68be 5c68 0e3e cfe9 953d d147 c7bd

layers.2.weight f4 [1, 16]
-0.1705486 -0.13754831 0.13872324 -0.2362085 -0.0023578776 -0.026924675 0.20797181 0.09321338
-0.22205915 0.059042953 0.07489485 -0.1611344 0.14644063 -0.13290101 0.050475035 -0.017837971
00000000: 4ba4 2ebe 77d9 0cbe 770d 0e3e a4e0 71be
00000010: 9f86 1abb 2391 dcbc 90f6 543e a8e6 be3d
00000020: 7963 63be 06d7 713d 7962 993d 6b00 25be
00000030: 88f4 153e 3417 08be e9be 4e3d f020 92bc
