saved_models/pytorch_connect/saved_model_income9.pth (torch, 5888 bytes, 5 tensors)

weight f4 [16, 8]
-0.0698372 0.31103858 0.22138542 -0.009580789 -0.08740322 0.040611535 0.1273717 -0.2315296
-0.16489558 0.1000511 0.16215609 0.23283511 0.22490495 0.24721147 0.117858276 0.029401083
-0.2674789 0.14078878 -0.10619006 0.29918027 0.08577756 0.11976571 -0.30671364 -0.13242227
-0.27854776 0.11589226 -0.0128702205 0.29713783 -0.15977232 -0.024584332 0.15194781 0.3282596
-0.30301747 0.22041039 -0.22008443 0.16374882 -0.12450911 0.16043022 -0.28374526 0.25544456
-0.3789414 0.008622065 0.19634655 0.054043483 0.07300892 0.0757472 -0.27189183 0.25542
0.05794718 -0.17629626 -0.29366618 0.122709155 -0.094843425 -0.10482321 0.21133095 0.21768785
-0.09014493 -0.31380796 0.19584425 0.10699372 -0.0313173 -0.26272 -0.063590236 0.32208863
0.3023523 0.0011976836 0.11576984 -0.23299533 -0.09490943 -0.09966009 0.10508546 0.11871239
0.21374163 0.24185026 -0.23502149 -0.32001168 -0.2953098 -0.30630395 -0.255568 -0.11359694
0.07321161 -0.3326175 0.2881165 -0.039506935 -0.33909252 0.15414664 0.28702033 -0.27411124
-0.19458497 0.33290914 -0.06315504 0.3537138 -0.16994601 0.016773976 -0.25997907 0.23782891
0.06566375 -0.020643564 0.10802274 0.25998074 0.09329721 0.051027954 -0.30877823 0.24598706
-0.15086457 0.27585638 -0.27788702 -0.31410822 0.025691638 0.225268 -0.027070224 0.27748233
0.22379531 -0.20224647 0.25585732 0.32094532 -0.34126744 0.17502159 -0.34371066 0.078653276
-0.020816509 -0.21291865 -0.12858571 -0.07793404 0.054022323 0.30752513 -0.24828468 0.23825318
00000000: ce06 8fbd 7340 9f3e dcb2 623e bef8 1cbc
00000010: 7600 b3bd 4858 263d ba6d 023e 1816 6dbe
00000020: 63da 28be 97e7 cc3d 3f0c 263e 546c 6e3e
00000030: 7c4d 663e 0125 7d3e ae5f f13d 8ada f03c
00000040: fff2 88be ef2a 103e 2d7a d9bd 282e 993e
00000050: 25ac af3d b947 f53d 9209 9dbe b499 07be
00000060: d09d 8ebe ec58 ed3d 9edd 52bc 7322 983e
00000070: 5b9b 23be 1565 c9bc 3598 1b3e a411 a83e
00000080: 1b25 9bbe 43b3 613e d05d 61be c5ad 273e
00000090: a2fe febd d247 243e 0f47 91be a1c9 823e
000000a0: 9b04 c2be 9043 0d3c 120f 493e b35c 5d3d
000000b0: b385 953d 5921 9b3d 6835 8bbe 69c6 823e
000000c0: 065a 6d3d 0287 34be 6a5b 96be f04e fb3d
000000d0: 453d c2bd 8dad d6bd 2467 583e 90e9 5e3e
000000e0: e89d b8bd 70ab a0be 658b 483e 861f db3d
000000f0: 9246 00bd 3c83 86be 993b 82bd cde8 a43e
00000100: eccd 9a3e 98fb 9c3a bd18 ed3d 5496 6ebe
00000110: e05f c2bd 971a ccbd 0c37 d73d 7b1f f33d
00000120: 16df 5a3e 98a7 773e 79a9 70be 92d8 a3be
00000130: d932 97be dfd3 9cbe cfd9 82be 83a5 e8bd
00000140: f8ef 953d d74c aabe 0284 933e 06d2 21bd
00000150: 899d adbe 9ed8 1d3e 54f4 923e 4f58 8cbe
00000160: 4841 47be 1173 aa3e 6e57 81bd fa19 b53e
00000170: 5406 2ebe 9469 893c fa1b 85be 6c89 733e
00000180: b77a 863d b11c a9bc 073b dd3d 321c 853e
00000190: 9c12 bf3d b002 513d 2e18 9ebe 08e4 7b3e
000001a0: 3e7c 1abe 0c3d 8d3e 3547 8ebe cbd2 a0be
000001b0: 4577 d23c a8ac 663e 60c2 ddbc 2a12 8e3e
000001c0: 992a 653e b319 4fbe bbff 823e f252 a43e
000001d0: 9bba aebe dc38 333e d8fa afbe f814 a13d
000001e0: 6287 aabc 5907 5abe f9ab 03be e29b 9fbd
000001f0: 8346 5d3d ef73 9d3e 573e 7ebe a4f8 733e

bias f4 [16]
-0.25067356 -0.13923895 0.16824582 0.20202042 -0.24319468 0.30805978 0.29930007 0.007276928
-0.27974242 -0.07850662 -0.30990374 -0.17046018 -0.31707358 -0.3186241 0.14996132 0.21829243
00000000: 4958 80be a894 0ebe a248 2c3e 71de 4e3e
00000010: 0708 79be 03ba 9d3e dc3d 993e 4c73 ee3b
00000020: 663a 8fbe 14c8 a0bd b4ab 9ebe 1d8d 2ebe
00000030: 7857 a2be b322 a3be 768f 193e 0d88 5f3e

weight f4 [16, 16]
0.24070746 -0.011916134 -0.07974544 -0.20118858 -0.19391307 0.24319185 0.030208247 -0.23759887
-0.16398321 -0.12420836 0.0899848 -0.045193803 0.08707064 -0.14801894 0.16835691 0.20003633
-0.20238015 0.22393659 0.005866142 -0.13209465 0.04941361 0.17994708 0.2139564 -0.10479735
-0.14262326 0.0007055382 -0.18679005 -0.20497839 0.13601778 0.2453637 -0.20054163 -0.18407151
0.17691365 0.11172797 -0.020455202 0.017827675 -0.2091777 0.05201587 -0.13088088 0.17913882
0.009393576 -0.08866753 -0.17064708 0.13656524 0.011962344 -0.0072615496 0.004353674 -0.18178913
-0.013343197 -0.033063415 -0.2120271 -0.12598793 0.057552904 0.16906 -0.06600998 -0.114691384
-0.08031533 0.12087722 -0.026381785 0.061076116 0.18371993 -0.012144725 0.14236863 0.17852804
-0.12617488 0.031005936 -0.013738932 -0.1457021 -0.03536013 0.16206098 0.20753987 -0.08539332
-0.12825857 -0.08750487 -0.08540564 0.160076 0.0057534734 -0.19875737 -0.07811618 0.0069166394
-0.11105058 0.026206382 0.19464599 0.15523423 0.21639541 -0.2408794 -0.110816136 0.0024509316
-0.076650105 -0.2188706 -0.14779755 -0.14395131 0.031667132 -0.13314186 -0.09801158 0.041488476
-0.07647712 0.1660397 -0.053187117 -0.06763524 0.14880082 -0.21328843 0.018224107 -0.12633061
0.19667608 0.030428039 0.01892732 0.090763696 0.18289255 -0.18000427 0.15329391 0.18023516
-0.032251652 -0.07752957 -0.19743654 0.2509499 0.015305986 0.25390926 -0.017730502 -0.15733504
-0.11357867 -0.19632484 -0.18145745 -0.15710485 0.058789242 0.23763755 0.0524654 0.2744242
0.073757105 -0.17319058 0.09487601 0.22252597 0.13360693 0.019141885 -0.11698698 0.21221639
0.1168433 0.05203838 0.09077251 0.13647082 -0.06905783 0.1327056 -0.10579232 0.020758793
0.1292833 -0.23377328 -0.02283242 0.019856395 0.0031066972 -0.027475473 0.02227026 -0.034075778
-0.043181334 0.040103517 0.18580914 -0.06641036 -0.0041157496 0.015389193 0.18269303 -0.2320401
-0.22953421 -0.028527625 0.053184725 0.20580848 -0.21911897 0.12081602 0.053369906 0.20999852
-0.072693646 0.15727398 0.21993987 0.08927076 0.12240765 0.16972177 0.20707913 0.23927577
0.0004704449 -0.05729058 -0.09605301 -0.06923022 0.15593237 0.036424417 0.00047782686 0.12141651
-0.16195615 0.10829796 -0.09043977 -0.04567914 -0.16416591 -0.17659318 -0.20292227 0.1563225
-0.10155603 -0.14096783 0.14521816 -0.059267633 0.1416334 -0.23031992 -0.109624624 -0.15775765
-0.13584743 0.10259731 -0.005366109 0.004899119 0.01211649 0.23696654 -0.0038460884 0.18342738
0.045050174 0.013969458 -0.16524056 -0.15878077 -0.21773721 -0.078819446 -0.17234857 0.012770671
-0.2125964 -0.1824969 0.023244914 0.10998902 -0.17994943 -0.12171201 -0.17773391 0.24608454
-0.1284166 -0.14800316 0.04960231 -0.14819337 0.21608585 -0.023026263 0.1902567 0.111149624
-0.21851698 -0.2597736 -0.22611132 -0.0682785 -0.21428801 -0.020889604 -0.049369164 -0.11509903
0.15409443 -0.17802918 -0.20917931 0.042079434 0.10331727 0.117363736 0.05280306 0.2145491
-0.16401547 -0.06644992 0.20355065 -0.24628232 0.11105514 -0.14423855 0.10632476 0.14414583
00000000: 047c 763e e33b 43bc 9451 a3bd 6104 4ebe
00000010: 2691 46be 4907 793e 4977 f73c 1e4d 73be
00000020: 37eb 27be f460 febd f349 b83d 231d 39bd
00000030: 1752 b23d 4792 17be c165 2c3e 53d6 4c3e
00000040: be3c 4fbe a24f 653e c438 c03b d243 07be
00000050: ed65 4a3d 0c44 383e 6317 5b3e fe9f d6bd
00000060: d50b 12be def3 383a e445 3fbe dbe5 51be
00000070: 3f48 0b3e 9f40 7b3e c95a 4dbe 3e7d 3cbe
00000080: da28 353e a2d1 e43d ab91 a7bc 580b 923c
00000090: ae32 56be 980e 553d a305 06be 2b70 373e
000000a0: 83e7 193c 5297 b5bd 1cbe 2ebe c2d7 0b3e
000000b0: b5fd 433c 4bf2 edbb 44a9 8e3b ee26 3abe
000000c0: 6d9d 5abc 816d 07bd a21d 59be fb02 01be
000000d0: 98bc 6b3d 111e 2d3e 3e30 87bd 51e3 eabd
000000e0: 5d7c a4bd 7a8e f73d 9d1e d8bc f32a 7a3d
000000f0: 1421 3c3e abfa 46bc 15c9 113e 0ed0 363e
00000100: fd33 01be 2900 fe3c 4219 61bc ee32 15be
00000110: c9d5 10bd 50f3 253e 5585 543e b1e2 aebd
00000120: 3756 03be c135 b3bd 27e9 aebd f7ea 233e
00000130: a287 bc3b 0d87 4bbe 60fb 9fbd faa4 e23b
00000140: 7d6e e3bd c4ae d63c 4751 473e b9f5 1e3e
00000150: c296 5d3e 17a9 76be 92f3 e2bd cf9f 203b
00000160: bbfa 9cbd 9d1f 60be 3e58 17be f967 13be
00000170: 65b5 013d 5756 08be 4cba c8bd d2ef 293d
00000180: 09a0 9cbd 5006 2a3e bcda 59bd 5884 8abd
00000190: 3e5f 183e 4868 5abe b94a 953c d05c 01be
000001a0: 7465 493e 3944 f93c 780d 9b3c 51e2 b93d
000001b0: 2f48 3b3e 0a53 38be 14f9 1c3e 918f 383e
000001c0: 4f1a 04bd d3c7 9ebd ce2c 4abe 817c 803e
000001d0: f5c5 7a3c 6500 823e 8f3f 91bc 701c 21be
000001e0: ef9b e8bd 6109 49be fbcf 39be 18e0 20be
000001f0: fdcc 703d 4257 733e f6e5 563d 5481 8c3e
00000200: f70d 973d df58 31be 5b4e c23d d9dd 633e
00000210: 41d0 083e 71cf 9c3c df96 efbd 414f 593e
00000220: 8a4b ef3d 3226 553d f0e6 b93d 02bf 0b3e
00000230: 316e 8dbd fae3 073e a5a9 d8bd 580e aa3c
00000240: d762 043e 4362 6fbe 0e0b bbbc e1a9 a23c
00000250: bb99 4b3b 3e14 e1bc 1f70 b63c 0b93 0bbd
00000260: e9de 30bd 9643 243d c044 3e3e 2802 88bd
00000270: 69dd 86bb f422 7c3c e213 3b3e ec9b 6dbe
00000280: 040b 6bbe c4b2 e9bc 3ad8 593d 75bf 523e
00000290: b960 60be 646e f73d 679a 5a3d da09 573e
000002a0: 68e0 94bd 6e0c 213e eb37 613e 97d3 b63d
000002b0: ddb0 fa3d 8bcb 2d3e 8d0c 543e b504 753e
000002c0: 0ca6 f639 87a9 6abd 71b7 c4bd 93c8 8dbd
000002d0: bcac 1f3e c531 153d d684 fa39 38a9 f83d
000002e0: d5d7 25be 52cb dd3d 7c38 b9bd 0d1a 3bbd
000002f0: 1c1b 28be d8d4 34be dbca 4fbe 0113 203e
00000300: 9cfc cfbd df59 10be 12b4 143e 9ec2 72bd
00000310: 5908 113e fcd8 6bbe e082 e0bd 398b 21be
00000320: 971b 0bbe 8a1e d23d 2fd6 afbb ca88 a03b
00000330: 3e84 463c 5ba7 723e a80e 7cbb 63d4 3b3e
00000340: 8886 383d 27e0 643c d234 29be 6d97 22be
00000350: 81f6 5ebe 176c a1bd 257c 30be 143c 513c
00000360: dfb2 59be 78e0 3abe 1e6c be3c ec41 e13d
00000370: aa44 38be 2544 f9bd e1ff 35be 96fd 7b3e
00000380: a47f 03be 248e 17be cb2b 4b3d 01c0 17be
00000390: 9c45 5d3e 93a1 bcbc a7d2 423e 6aa2 e33d
000003a0: eac2 5fbe 0c01 85be ba89 67be 99d5 8bbd
000003b0: 516e 5bbe ad20 abbc 5237 4abd 0ab9 ebbd
000003c0: eeca 1d3e 484d 36be 1a33 56be 7c5b 2c3d
000003d0: 0198 d33d 665c f03d 0548 583d c2b2 5b3e
000003e0: acf3 27be e516 88bd 956f 503e 6f31 7cbe
000003f0: e170 e33d 45b3 13be ccc0 d93d f79a 133e

bias f4 [16]
0.0036069893 -0.13928804 -0.033387367 0.22371157 -0.17678174 0.14377914 -0.2055367 0.14220954
0.04561528 -0.007121888 -0.025874274 0.2082065 0.21111938 0.21325342 0.092684984 -0.10344169
00000000: 3d63 6c3b 86a1 0ebe 31c1 08bd a514 653e
00000010: 4606 35be d73a 133e 3678 52be 619f 113e
00000020: 16d7 3a3d ba5e e9bb 49f6 d3bc 1634 553e
00000030: ae2f 583e 1b5f 5a3e a0d1 bd3d 3dd9 d3bd

weight f4 [1, 16]
-0.08437108 0.026585292 0.09240321 -0.09214132 0.029888103 0.13056669 -0.10610838 -0.16758221
0.030431455 0.19012953 -0.20051886 -0.12841822 0.04742096 0.049536835 0.15999064 0.12714311
00000000: bfca acbd 66c9 d93c e53d bd3d 97b4 bcbd
00000010: e5d7 f43c 46b3 053e 5a4f d9bd ac9a 2bbe
00000020: 634b f93c 51b1 423e d154 4dbe 1180 03be
00000030: 7b3c 423d 23e7 4a3d 96d4 233e ce31 023e
