saved_models/pytorch_connect/saved_model_coverage9.pth (torch, 6228 bytes, 5 tensors)

weight f4 [16, 13]
000000 d5 b8 51 be 3a 1a b3 3d f4 f5 1e 3e 52 46 22 be
       -0.20480664 0.08745237 0.15523511 -0.15847138
000010 6b 11 fe 3b 42 10 4e 3d 42 0a 8b be c7 a9 27 3e
       0.007753541 0.050308473 -0.27156264 0.16373359
000020 81 63 45 3d 60 14 cd bd 7e b1 1e 3e a4 33 cf bc
       0.048190597 -0.10013652 0.15497395 -0.025293179
000030 be 19 75 be 73 1a 5b 3e cd 84 2f 3d 01 cf 06 be
       -0.23935601 0.21396808 0.042851258 -0.13164903
000040 ee 2f 2b 3e 7e 34 8f bd b8 8a 62 3e 92 65 11 be
       0.16717502 -0.06992434 0.2212323 -0.14198902
000050 b5 d0 9d bd f1 ce eb 3c e7 77 5f be da 03 0b 3e
       -0.07705823 0.0287852 -0.21823083 0.13575688
000060 fc c0 84 3e cd eb 75 bd a5 b3 1a bd b1 41 82 bd
       0.25928485 -0.06003933 -0.03776898 -0.06360186
000070 e4 23 55 be d7 43 81 3e 61 de 2d 3d ea 08 89 3e
       -0.20814472 0.2524707 0.042448405 0.26764613
000080 ce 17 64 3c 1c 59 37 3e 06 8f c3 3c ae e5 85 3e
       0.013921691 0.17905086 0.02387191 0.26151794
000090 88 35 89 be fa 88 27 3d 86 bb 2e 3e 51 53 af 3d
       -0.26798654 0.040902115 0.17063722 0.08560813
0000a0 77 6c 84 be d2 0d 45 3d 1e 46 b0 3d e8 80 12 3e
       -0.25864002 0.048108883 0.08607124 0.14306986
0000b0 e1 4c cc bd 82 3b 3b 3e f2 23 34 3e c3 32 55 3e
       -0.09975601 0.18284419 0.17591837 0.20820145
0000c0 b4 89 75 be ed 4c 83 be 02 ce a1 3d ff 0a fa bc
       -0.23978311 -0.25644627 0.07900621 -0.030522821
0000d0 9a b0 32 be 47 30 09 3e 98 7e 27 3d b7 5f 87 be
       -0.1745018 0.13397323 0.040892214 -0.26440212
0000e0 aa 12 7f bd c5 f5 11 3e 0f c0 50 3c ce d8 28 be
       -0.06227366 0.1425391 0.012741103 -0.16488954
0000f0 82 31 23 be ee ea ae 3d 69 74 8c be 81 dc b5 bd
       -0.15936854 0.08540903 -0.27432564 -0.088799484
000100 aa f8 6d be 67 28 eb bd 7b 59 78 be 94 6a 27 be
       -0.23239389 -0.114823155 -0.24252884 -0.1634925
000110 20 cb 43 3c b0 2c 63 3e 10 74 47 3d 57 a3 84 be
       0.011950284 0.22185016 0.04869467 -0.25905868
000120 f1 27 54 be 47 6c 4e be 12 9e 42 be 20 a7 3d 3e
       -0.20718361 -0.20158492 -0.19005612 0.18520784
000130 a3 8b e1 3d df 39 72 3d 68 13 1d 3e 61 54 db 3d
       0.11012962 0.05913722 0.15339434 0.107094534
000140 7a 0b 0f 3e 33 3d f6 3d ed da 0d be bf 1b 7e bc
       0.13969222 0.120233916 -0.13853045 -0.015509545
000150 41 c6 2c be 1d 8f 8b 3e bc b8 51 3e 45 12 d7 3d
       -0.16872503 0.27257624 0.20480627 0.105015315
000160 ea b9 b6 bd 39 b8 7b 3d 11 c3 13 3e de 28 4b be
       -0.08922179 0.061454985 0.1442988 -0.19839808
000170 6c 71 1b be 7d f6 c2 3d 6d 1d 97 3c 4f f3 f4 3d
       -0.15179986 0.0951967 0.018446648 0.1196047
000180 87 b3 44 3e bd a5 e6 3c 2d f4 1d be 8c d0 88 bd
       0.19209109 0.028155202 -0.15425177 -0.06680402
000190 24 b1 56 3e 6d 21 46 be 8b 3b 7c be 1d b1 3f 3e
       0.20966011 -0.19348688 -0.24632089 0.18719907
0001a0 c6 f2 5a 3e cb 86 47 bd e7 5b 8d bc 16 8a 57 be
       0.21381673 -0.048712533 -0.017255737 -0.2104877
0001b0 cf e6 0c 3e 1f 0a 53 be dc b8 95 bc 23 be 7e 3e
       0.13759921 -0.2060933 -0.018276624 0.24877219
0001c0 8e f7 04 be ca 37 87 be ee 5a 1d be 46 54 8d be
       -0.1298506 -0.2640975 -0.15366718 -0.27603358
0001d0 f7 5a 0f be 7d 2c 78 be b1 bc 25 be 39 05 13 be
       -0.13999544 -0.24235721 -0.16185261 -0.14357461
0001e0 08 e0 68 3d 23 2f 9c 3c 37 26 a3 3d 19 91 c2 bd
       0.056854278 0.019065445 0.07966273 -0.095003314
0001f0 03 4e 1b 3d 89 49 85 3e 3f 4a 1b 3e 36 84 0b be
       0.037916195 0.26032665 0.15165041 -0.13624653
000200 0e 81 4e be 04 d5 23 be 01 73 d9 3d 89 a0 89 3e
       -0.20166418 -0.15999228 0.106176384 0.2688029
000210 37 a1 5a bd 63 c2 06 be e9 fc 9a bd d1 c1 8f be
       -0.053376403 -0.1316009 -0.0756777 -0.28077558
000220 8d d6 f1 3d aa 9f 73 3e 2f af 19 3e 10 b2 02 be
       0.118085004 0.23791376 0.15008233 -0.12763238
000230 a8 a4 8c 3e bc b0 0d be 55 c6 74 be f4 cd 0e 3e
       0.27469373 -0.1383695 -0.23903783 0.13945752
000240 c5 ab 4e be 49 21 11 be 76 25 7b bc 63 1c 5b 3c
       -0.20182712 -0.14172854 -0.015328756 0.013373467
000250 25 76 18 3e 80 11 72 be bd 06 10 be 6c f3 12 3e
       0.14888819 -0.23639488 -0.1406507 0.1435067
000260 b1 0c 4a 3d aa d4 0a be 05 5b 8a bd 8c ac 61 3e
       0.04932851 -0.13557687 -0.06755642 0.22038478
000270 88 ba 81 3e 06 5f 87 be 45 2c 68 3e 43 fc 39 3d
       0.25337625 -0.26439685 0.22673137 0.04540659
000280 c2 b0 06 be c6 e7 71 3e aa fe 4f 3e 34 af a6 3d
       -0.13153365 0.23623571 0.2031199 0.08138886
000290 64 8e 20 3e ab c2 4d 3e a6 71 83 3e 25 91 8e be
       0.15679318 0.20093791 0.25672644 -0.2784511
0002a0 5c f0 a1 3c cc bb 6a be 85 47 a7 3d 76 1f ef 3d
       0.019767933 -0.22923201 0.08167938 0.116759226
0002b0 88 82 60 be 74 77 8c be 20 78 f0 3d a4 90 80 bd
       -0.21924794 -0.27434886 0.11741662 -0.06277588
0002c0 c1 c0 53 3e 70 3c f3 bd 30 9b db 3d e9 75 76 3d
       0.20678999 -0.11876762 0.10722959 0.06017104
0002d0 30 c7 47 be aa 60 7d 3d 53 17 8b 3e 4f 75 89 be
       -0.19509578 0.061859764 0.27166232 -0.26847312
0002e0 26 38 93 3d df 28 78 be 7f c6 88 3d cd 42 1b be
       0.07188444 -0.24234341 0.06678485 -0.15162201
0002f0 10 c4 29 3e d6 b5 ff 3d 91 2b 52 be 4d f5 53 3e
       0.16578698 0.12485854 -0.20524432 0.20699044
000300 9e 9f 5d be 1a e1 dd 3c 97 1a ef bb a7 23 28 be
       -0.2164292 0.027084876 -0.007296871 -0.1641985
000310 69 44 e8 3d fd ed fe bc 66 c0 5e bd 6f d4 0a 3e
       0.11341173 -0.031119341 -0.054382704 0.135576
000320 17 02 6d be 28 98 11 be 5d b1 20 be 7d 6f e6 bd
       -0.23145328 -0.14218199 -0.15692659 -0.112517335
000330 2c 90 c1 bc cf 41 cc bd 2c 06 c5 bd 19 df 39 3d
       -0.023628317 -0.099734895 -0.09620318 0.045378778

bias f4 [16]
000000 2d 28 74 be e8 c8 2c 3e 45 2c 71 3e fc e9 67 3e
       -0.23843451 0.16873515 0.23552044 0.22647852
000010 fb 4e 4a 3e 0d 7f b7 bd 7d 2f 2a be 0c 13 f8 3d
       0.19756691 -0.0895978 -0.16619678 0.12113008
000020 22 e9 cf 3d d0 75 12 be 8d 49 b8 bd 2d f7 dc 3d
       0.101518884 -0.14302754 -0.08998404 0.107893325
000030 44 99 0b 3e 69 0c 51 3e c0 18 44 be e0 cb 29 3b
       0.13632685 0.2041489 -0.19150066 0.0025908872

weight f4 [16, 16]
000000 f1 3b 33 3e ef f5 29 bc fe 57 b4 bd 17 06 97 3d
       0.17503335 -0.010373577 -0.08805846 0.073742084
000010 ad b8 ff 3d 1f b2 c8 3c 70 08 52 3b bf f8 15 be
       0.12486396 0.024498997 0.0032048486 -0.1464567
000020 95 51 0b be 9f 2c 60 be a2 30 6d be fa be 04 3d
       -0.1360534 -0.21892022 -0.23163083 0.032408692
000030 31 64 d1 bd 57 78 70 3e 32 a4 04 3e e3 ca 88 bd
       -0.10224188 0.23483406 0.1295326 -0.066793226
000040 5c 14 27 be 7c a2 56 be 1e f0 74 be 9b 5c 28 3d
       -0.1631636 -0.2096042 -0.23919722 0.04110394
000050 43 53 3e 3e 87 34 ad 3c bb ca 02 3e b1 97 63 be
       0.1858645 0.021143211 0.12772648 -0.22225834
000060 14 e7 18 bd 7f 71 29 be 1e 75 a5 3d cb 8d 20 3e
       -0.03732975 -0.16547202 0.08078979 0.1567909
000070 ff 17 22 3c 13 99 bf 3d 95 6f c2 bd 5d de 09 3e
       0.009893416 0.093553685 -0.09493939 0.13463731
000080 a0 fb 86 bb 75 af 21 3e d2 4c 47 3e 93 02 60 bd
       -0.0041193515 0.15789588 0.19462898 -0.054689955
000090 aa db 9d 3c 5e cc 5d bc 07 f2 f1 bd 0b c0 9d bd
       0.019269783 -0.0135374945 -0.11813741 -0.07702645
0000a0 88 a5 3e 3d 7f e6 8e bc 7b 1a 7e be a6 43 79 be
       0.04654458 -0.017443893 -0.24814789 -0.24342212
0000b0 5d 24 69 3d 32 cb 27 3e c3 47 0b 3e 51 bf 50 3e
       0.056919444 0.16386107 0.13601594 0.20385481
0000c0 e4 ca 1a be b3 18 e7 bd bc 5b 79 be d8 a1 1b bd
       -0.15116459 -0.11284008 -0.243514 -0.037996143
0000d0 8a e8 73 3c cf 7c 1b be 30 8e ae 3d fe d0 bb 3d
       0.014886985 -0.1518433 0.08523214 0.091707215
0000e0 ea 0c e9 bd 87 ff d1 bc be c8 22 3e 16 51 33 bd
       -0.11379416 -0.02563454 0.1589689 -0.0437785
0000f0 3e 25 ad bc 89 90 08 3e dd 97 79 3e 2f 9d 51 be
       -0.021135923 0.13336386 0.24374337 -0.20470117
000100 fb ee 42 3e 8a 29 39 be 8c cb a8 bd 9a f6 24 be
       0.19036476 -0.18082252 -0.082419485 -0.16109696
000110 63 96 12 3d d8 df 0b 3e 64 93 4c be 14 68 e3 bd
       0.03578795 0.13659608 -0.199781 -0.11103836
000120 47 e2 46 be 3b 12 c3 3d a9 79 cb 3d 0c 41 fa bd
       -0.19422255 0.095249616 0.09935314 -0.12219438
000130 1b cb 46 bd ad d6 3a be 20 93 2d 3c bb 32 b2 bd
       -0.04853354 -0.18245955 0.010594159 -0.08701082
000140 75 69 79 3e f3 f6 d3 bd bd 1f 0c be 61 e9 30 3d
       0.24356635 -0.10349836 -0.13683982 0.043191317
000150 5d 45 11 3e c6 c8 cf bd 39 9d 41 be 85 b7 71 3c
       0.14186616 -0.10145716 -0.18907632 0.014753227
000160 e2 15 c7 3d 06 66 be bd e9 f3 c9 3d d3 20 dd bd
       0.09720971 -0.09296803 0.09860975 -0.10797276
000170 04 af 3b be 8d 6d 53 3d 5f df 7c be b8 41 ab bd
       -0.18328482 0.051618148 -0.24694584 -0.08362144
000180 c8 0a f3 bd b7 a6 38 3e 9d 57 73 be af 93 21 be
       -0.11867291 0.18032347 -0.2376389 -0.15778993
000190 fa 21 01 be 4d f1 d6 3b 4c da 56 be a8 cb 32 3d
       -0.12610617 0.006559527 -0.20981711 0.043651253
0001a0 41 17 50 3d 03 a2 73 3e 4e 7b 57 be 22 e1 13 be
       0.050803427 0.23792271 -0.21043131 -0.1444135
0001b0 74 a6 3e be a4 19 59 be c2 71 bf bd 8f 40 c3 bd
       -0.18618184 -0.21201187 -0.093478695 -0.09533798
0001c0 34 97 8d bd 24 0d e1 3d 2e 2a e9 3d a4 f7 61 3e
       -0.06913605 0.109888345 0.11384998 0.22067124
0001d0 37 70 80 be 4c 5f 90 bd 45 b4 e4 3d 6c 3a 82 bd
       -0.25085613 -0.070494264 0.11167196 -0.06358799
0001e0 f5 3f 76 3e a2 55 37 be fa 03 91 bc 46 9c 3f be
       0.24047835 -0.1790376 -0.017702091 -0.18711957
0001f0 88 76 96 bd 86 44 66 3e f1 87 44 be 72 d8 3b 3d
       -0.07346827 0.22487077 -0.19192483 0.045860715
000200 5c a2 ab 3c 6b e0 12 3e cb f2 63 3e d9 70 0d be
       0.020951442 0.14343421 0.22260587 -0.13812579
000210 24 83 56 3e d5 ca 64 3e 90 fa bf bd f3 be 12 3e
       0.20948464 0.22343 -0.09373963 0.14330654
000220 e6 6e 15 bd 9e e8 34 bd 81 2a 74 be 9c c1 74 3e
       -0.036482714 -0.044167154 -0.23844339 0.23901981
000230 08 86 fb 3c bd 54 81 3c 2f 58 35 3e d3 03 43 be
       0.03070356 0.015787477 0.1770942 -0.19044428
000240 09 86 54 3c e0 4f 95 bd 3f 16 d7 3c 54 52 75 3e
       0.01297141 -0.072906256 0.026255725 0.23957187
000250 e1 ac 24 be b9 25 a9 bd d6 95 30 3e b4 a1 a3 bd
       -0.16081573 -0.08259148 0.17244658 -0.07989827
000260 51 fc 17 3e ac 16 72 3e 26 82 de 3b 26 72 7f bd
       0.14842345 0.23641461 0.0067904172 -0.06236472
000270 8f b7 f5 bd 59 df 24 3e 16 32 1b 3d b8 e1 7d bd
       -0.11997902 0.16100825 0.037889563 -0.06198284
000280 62 8f b1 bd 08 2f b6 bd 09 b6 6d 3c a9 3c 5c bc
       -0.08669926 -0.08895689 0.014508733 -0.013442197
000290 6e d5 db 3d 83 76 71 3e 91 a4 5a bb ec 9f 05 3e
       0.10734068 0.23580365 -0.003336225 0.13049287
0002a0 d6 9b 2a be 6d ea a6 bd f9 9a 7a 3e 6f 0c 5f be
       -0.16661009 -0.08150182 0.2447318 -0.21782087
0002b0 91 2d 7d bc 73 68 30 3e 46 91 ab bd a7 e5 85 3d
       -0.015452758 0.17227344 -0.08377318 0.06537943
0002c0 d2 de b9 bd 13 18 22 3e 68 35 ac bd 5f b1 fa bc
       -0.09075703 0.15829496 -0.08408624 -0.030602155
0002d0 93 fd f8 bd 80 6a 40 3e c8 7e 3a 3e 31 bb 7a 3e
       -0.121577404 0.18790627 0.18212426 0.2448547
0002e0 78 bb d9 bd d7 d8 2f bc df c5 fa 3d c0 a5 df bd
       -0.1063146 -0.010732851 0.12244772 -0.10920286
0002f0 50 f1 76 3e ea c2 7c be 0b 61 05 be c2 b8 8f bd
       0.24115491 -0.24683729 -0.130253 -0.07017662
000300 2f 5c 4b 3e 13 01 61 be 98 82 26 be 5e 0e c8 bd
       0.19859384 -0.21973066 -0.16260755 -0.09768365
000310 e8 f3 25 bd da 02 66 3e 04 af 0c be bb 2b 31 be
       -0.04051581 0.22462025 -0.13738638 -0.17301838
000320 5a b1 2b be 48 3f 23 3e 5f 24 68 3e bf 56 48 be
       -0.16766873 0.15942109 0.22670124 -0.19564341
000330 ae 0b 11 be 9a 6a 68 3d c3 df 26 be c5 2b 5c 3e
       -0.14164612 0.05674229 -0.16296296 0.21501072
000340 82 36 48 3d 33 3f 86 3c 60 a9 0e 3c 0a 83 12 3e
       0.048880108 0.016387558 0.008707374 0.143078
000350 69 19 44 3e 32 31 92 ba 4e da 19 3d aa b8 2a be
       0.19150318 -0.0011153577 0.037561707 -0.16672006
000360 c5 fb b0 bd 2b 50 16 be 1e 63 49 bc c7 e6 23 3e
       -0.08641771 -0.14679019 -0.012291698 0.16006003
000370 5d 8f 7c bb 10 c4 64 3e 10 ee 02 3e 2a 62 d4 3d
       -0.00385376 0.22340417 0.12786126 0.10370286
000380 ed 87 f4 3d e2 30 57 3e 0f e0 6d 3e b5 4a b8 3c
       0.11939988 0.21014741 0.23230003 0.02249656
000390 70 83 24 3d 4e 0b 63 3e 0c d6 ae bd 89 9d d5 3c
       0.04016441 0.22172281 -0.0853692 0.026076095
0003a0 f5 8e 62 3e e7 07 2f be b2 90 45 bd ea c7 2b 3d
       0.22124846 -0.17092858 -0.048233695 0.0419387
0003b0 ef 08 04 be cf d5 f8 bd a0 c9 36 3d bd 20 95 bd
       -0.12894033 -0.12150156 0.04462588 -0.07281635
0003c0 bc 43 1f 3e 2f dd 56 bc 67 bd f1 bd aa af cc bd
       0.15553182 -0.013114258 -0.11803704 -0.09994443
0003d0 e5 78 19 bd 74 00 9a 3d 64 3e 15 be c9 27 b6 bd
       -0.03746881 0.07519618 -0.14574581 -0.08894307
0003e0 67 2c 60 3e 8c a9 56 be 50 c6 55 be e7 58 3d bd
       0.21891938 -0.20963115 -0.20876431 -0.046227362
0003f0 2a 97 68 3e 29 0d ec bd 45 5c 2f 3e 40 48 29 3e
       0.22713915 -0.115259476 0.17125042 0.16531467

bias f4 [16]
000000 06 ee 4d 3e 35 fa 3e be 08 4e 84 bd 0d de 66 bd
       0.2011033 -0.18650134 -0.06460196 -0.056364108
000010 70 db 26 3e 3f 1c 71 bd ac 6b 00 3e cb 06 62 bd
       0.16294646 -0.05886483 0.12541074 -0.05518226
000020 15 8b fa 3d 66 de cb 3d 8f fd 08 3d 7a cb 45 3e
       0.12233559 0.099545285 0.033444937 0.19315901
000030 5a 5e 47 be e2 2b f6 bd d4 8f 38 3e c8 3d 9d 3d
       -0.19469586 -0.12020089 0.18023616 0.076777995

weight f4 [1, 16]
000000 ea a1 25 be d7 c0 af 3d e9 94 00 bd dd 32 71 be
       -0.16175047 0.08581703 -0.03139201 -0.23554559
000010 a6 b2 03 be b8 e7 f4 bc c5 e4 4a 3d 25 5a cc bd
       -0.12861118 -0.029895648 0.049534578 -0.09978131
000020 ab b4 f2 bc 2b 6c 2f bd bf 1d 2f be ce 61 52 3e
       -0.029627165 -0.042827766 -0.17101191 0.20545122
000030 9b 4b 2c 3e 90 cd 6a 3e 27 4f 94 3d 08 75 81 3d
       0.16825716 0.22929978 0.072416596 0.0632115
