saved_models/pytorch_connect/saved_model_coverage8.pth (torch, 6228 bytes, 5 tensors)

weight f4 [16, 13]
0	0x3d485f30	0.048918903
1	0x3e009380	0.12556267
2	0xbe412a42	-0.18863776
3	0xbe521860	-0.20517111
4	0xbe1db1ad	-0.15399809
5	0x3dd9d90d	0.10637102
6	0x3d5c34dc	0.053761348
7	0x3db8044b	0.08985194
8	0x3e16af7c	0.1471538
9	0x3e7671ab	0.24066798
10	0x3e8dc5a4	0.2768985
11	0xbd984afe	-0.074361786
12	0x3c98704e	0.018608239
13	0xbcad3947	-0.021145476
14	0xbe0819fb	-0.13291161
15	0x3e252fcb	0.16131513
16	0x3da384d3	0.079843186
17	0xbe6a0eb7	-0.22857176
18	0x3d4ae90f	0.04953867
19	0x3e16198b	0.14658181
20	0x3e6ebdf1	0.23314644
21	0xbc350ea3	-0.011050853
22	0x3e3581f6	0.17725357
23	0x3e51d580	0.204916
24	0xbcec419b	-0.028839877
25	0xbc83317f	-0.016014813
26	0x3e677a10	0.22605157
27	0x3d74d986	0.05977776
28	0xbe70973b	-0.2349519
29	0xbe09385b	-0.13400404
30	0xbe6da8f3	-0.2320898
31	0xbe1b51cb	-0.1516792
32	0x3e5f1caf	0.21788286
33	0x3e136338	0.14393318
34	0xbdc864b4	-0.097848326
35	0x3e0946e8	0.13405955
36	0x3d7694bd	0.06020044
37	0x3e45b4db	0.19307272
38	0xbd58ed98	-0.052960962
39	0x3e7920a7	0.24328862
40	0x3dabdc18	0.08391589
41	0xbd03b8eb	-0.032158773
42	0x3c84eb8b	0.016225597
43	0xbe7c8d95	-0.24663384
44	0x3e103669	0.14083256
45	0xbe215efd	-0.15758891
46	0xbe854978	-0.26032615
47	0xbe0a2488	-0.13490498
48	0xbd793732	-0.060843654
49	0x3e104715	0.14089616
50	0xbe82cf8c	-0.2554897
51	0x3dbd3239	0.09238095
52	0x3e109cfe	0.14122388
53	0x3de88d00	0.113550186
54	0x3e361632	0.17781904
55	0xbdf70ef4	-0.12063399
56	0x3df63b87	0.12023073
57	0xbdf9c68d	-0.12196074
58	0x3c5f4f54	0.013629753
59	0xbe6f8019	-0.23388709
60	0x3e33457e	0.17506978
61	0xbdfd9e05	-0.123836555
62	0xbe5b31c1	-0.21405698
63	0xbd745a86	-0.059656642
64	0x3e5ddd59	0.21666469
65	0x3e1dceed	0.15410967
66	0x3e86d232	0.2633224
67	0x3e8bfae3	0.2733985
68	0x3c82b128	0.015953615
69	0x3e1b7613	0.1518176
70	0x3e3b6b94	0.18302757
71	0xbcc71e18	-0.024306342
72	0xbe621a9f	-0.22080468
73	0x3e196f68	0.14983904
74	0x3cd17bb2	0.025571678
75	0xbe5fd3c6	-0.21858129
76	0x3d18d025	0.037307877
77	0x3d5dd7f1	0.054161016
78	0x3de90bee	0.113792285
79	0xbdcf9a07	-0.101368
80	0x3cbec2c3	0.023286229
81	0xbda4726e	-0.08029638
82	0xbd68eac4	-0.056864515
83	0x3e13891f	0.14407776
84	0x3e4f9ce3	0.20274691
85	0x3da99abe	0.08281468
86	0xbe17a146	-0.14807615
87	0xbd3f4258	-0.04669413
88	0xbdae8799	-0.08521957
89	0x3df21dbd	0.118220784
90	0xbe3fa189	-0.18713965
91	0x3e05b7e2	0.13058427
92	0x3e4b9d7b	0.19884293
93	0x3dbaf30e	0.0912839
94	0xbe4abca1	-0.19798519
95	0xbe261aa0	-0.16221094
96	0xbae92226	-0.0017786666
97	0xbe34f7c3	-0.17672639
98	0xbdbcd6f0	-0.092206836
99	0x3d062794	0.03275259
100	0xbe29aec0	-0.16570568
101	0x3e4066be	0.18789193
102	0x3e23039c	0.15919346
103	0xbd2fde50	-0.042936623
104	0x3e7090a7	0.2349268
105	0xbe6c8bb4	-0.23100168
106	0xbc9642e3	-0.018342441
107	0x3e7bbced	0.24583788
108	0x3ddcd89f	0.10783505
109	0x3c30ec59	0.010798537
110	0x3de74dde	0.11294149
111	0xbd3a1e0b	-0.045438807
112	0xbcc4e33c	-0.024034135
113	0x3e5252bf	0.20539378
114	0x3e38b266	0.18036804
115	0x3dc993b7	0.098426275
116	0xbe5151af	-0.20441316
117	0xbe5f5d77	-0.21812998
118	0x3e806984	0.25080502
119	0xbe8d25b8	-0.2756784
120	0xbd4758b2	-0.04866857
121	0xbe3028f6	-0.17203125
122	0xbe604ae5	-0.2190357
123	0x3e04b17c	0.1295833
124	0x3dd395a1	0.10331274
125	0x3c3acb59	0.011401021
126	0x3c137062	0.008998962
127	0x3e1cc034	0.15307695
128	0xbe0aac33	-0.13542251
129	0x3d1eda7f	0.038782593
130	0xbcb78d84	-0.022406347
131	0xbde99da7	-0.11407023
132	0xbd31a749	-0.043372426
133	0x3e2c7bdb	0.16844122
134	0x3e45a4a0	0.1930108
135	0x3e87c327	0.26516077
136	0x3d27d361	0.04097307
137	0x3e46ef10	0.19427133
138	0x3e85bb26	0.26119345
139	0xbdd09d38	-0.10186237
140	0x3d7cd101	0.06172276
141	0x3c69cd5e	0.014270155
142	0x3e0836f5	0.13302214
143	0xba2ee326	-0.0006671421
144	0x3b489e3d	0.0030611895
145	0x3e416dd8	0.18889558
146	0x3dceae84	0.1009188
147	0xbc34fd93	-0.011046785
148	0x3de3c8ca	0.11122282
149	0xbdeb8f86	-0.11501984
150	0x3dc405b6	0.09571402
151	0xbe81609d	-0.25269023
152	0xbd039717	-0.032126512
153	0xbe9054f9	-0.2818983
154	0x3d0b719a	0.034043886
155	0x3dc5fc52	0.09667267
156	0xbde23bcb	-0.11046561
157	0x3e5f6092	0.21814182
158	0xbe0448be	-0.12918374
159	0xbe877748	-0.26458192
160	0xbe0c08e2	-0.13675264
161	0xbe0cd536	-0.13753209
162	0xbe1a2565	-0.15053327
163	0x3e506b0e	0.20353338
164	0xbe23261d	-0.15932508
165	0x3d97875d	0.07398865
166	0x3d6322b7	0.05545303
167	0x3e1c6bf8	0.15275562
168	0xbe56eb4c	-0.20988196
169	0xbd54ec2c	-0.051983044
170	0x3e79c9c7	0.24393378
171	0x3e8d2ebe	0.27574724
172	0xbe4d17ab	-0.2002856
173	0x3d1c618a	0.038178958
174	0x3e164ebc	0.14678472
175	0x3d8ee357	0.069769554
176	0xbe03edd4	-0.12883693
177	0xbdbcad4e	-0.09212743
178	0x3e833fbd	0.25634566
179	0x3de9febd	0.114255406
180	0x3d4c9e84	0.04995586
181	0x3db01dd2	0.08599438
182	0x3dcb3caf	0.09923684
183	0x3e181b50	0.14854169
184	0x3e68d571	0.22737671
185	0xbdaa40ef	-0.08313166
186	0xbe4a6364	-0.19764477
187	0x3debe67c	0.11518571
188	0xbe5d4b66	-0.21610793
189	0x3d90b27c	0.07065293
190	0x3e0a0ae0	0.13480711
191	0x3cd23bef	0.025663344
192	0xbe880ef9	-0.26573923
193	0x3e513f70	0.20434356
194	0xbdb91a08	-0.09038168
195	0xbd2a89fd	-0.041635502
196	0x3e7315a0	0.23738718
197	0x3c1e58f3	0.009664762
198	0x3e7d7296	0.24750742
199	0xbd37c29e	-0.044863336
200	0xbe8520c1	-0.26001552
201	0x3d466036	0.048431598
202	0xbe205c68	-0.1566025
203	0xbe3b7b8f	-0.18308853
204	0x3e853b40	0.26021767
205	0xbd2e0c7a	-0.042492367
206	0xbe8b779e	-0.27239698
207	0x3e88c9ff	0.2671661

bias f4 [16]
0	0x3d4b2965	0.049600024
1	0xbd966c4f	-0.07344877
2	0x3dbbacb1	0.09163798
3	0x3d8b3e77	0.067990236
4	0xbe7278c0	-0.23678875
5	0xbe71d918	-0.23617971
6	0xbe1a463e	-0.15065858
7	0x3e61cde9	0.22051205
8	0x3de8740c	0.11350259
9	0x3dd40cd5	0.1035401
10	0xbdc8b988	-0.09801012
11	0x3e2d2878	0.16909969
12	0xbe0d1c6a	-0.1378037
13	0x3e0aca53	0.13553743
14	0x3ba632a3	0.0050719543
15	0x3e2870d7	0.16449295

weight f4 [16, 16]
0	0xbdccbbba	-0.099967435
1	0xbd944867	-0.07240372
2	0xbe364edf	-0.17803524
3	0xbe6ffb42	-0.23435691
4	0xbe09e67c	-0.13466829
5	0xbe2635dc	-0.16231483
6	0xbdd1fbe9	-0.10253126
7	0xbd1ad459	-0.037800167
8	0xbd22377e	-0.039603703
9	0xbdd408b5	-0.10353223
10	0x3c48e825	0.012262379
11	0xbde7cb9c	-0.11318132
12	0x3da0917e	0.078402504
13	0x3e4546b2	0.1926525
14	0xbdf29e0a	-0.1184655
15	0x3d3eb2fe	0.04655742
16	0x3e05f5e0	0.13082075
17	0xbe4312e6	-0.19050178
18	0x3e466af7	0.19376741
19	0xbdf01ba7	-0.11724024
20	0xbe72e051	-0.23718382
21	0xbdddde94	-0.10833469
22	0x38489fec	4.7832655e-05
23	0xbe75444c	-0.23951834
24	0xbd1d06bd	-0.038336504
25	0xbe128ada	-0.1431078
26	0x3e52fe99	0.20604934
27	0x3e2f3b73	0.17112522
28	0x3e75f9c8	0.24021065
29	0xbe46504e	-0.19366571
30	0xbd533ff2	-0.051574655
31	0x3d858551	0.06519569
32	0x3e374928	0.17899
33	0x3e08601d	0.13317914
34	0x3e327636	0.17427906
35	0x3df3d17b	0.119051896
36	0x3e3f4393	0.18678121
37	0xbe304a7f	-0.17215918
38	0x3d16d9e0	0.036828876
39	0xbdb5bf21	-0.088743456
40	0xbe363232	-0.17792585
41	0xbe3b27c1	-0.18276884
42	0x3d9ec676	0.07752697
43	0xbdca5928	-0.098802865
44	0xbda86c69	-0.082238026
45	0xbded894a	-0.115984514
46	0x3e5672aa	0.20942178
47	0xbd0ebc4e	-0.03484755
48	0x3e7af3f2	0.2450712
49	0x3dbc36bd	0.09190128
50	0x3e5cee79	0.21575345
51	0xbe4fc2d6	-0.20289168
52	0xbdd6fd6b	-0.104975544
53	0x3e13a3a8	0.14417899
54	0x3e6e45b9	0.23268785
55	0x3d8a4bf6	0.0675277
56	0xbe3211f7	-0.17389666
57	0x3b8e6d38	0.004346516
58	0x3e19140a	0.1494905
59	0x3e1e8b4c	0.15482825
60	0x3d5eaed9	0.054365966
61	0xbdcee2b9	-0.10101838
62	0xbe32ff68	-0.17480242
63	0x3d9e2b76	0.07723133
64	0x3e35fca5	0.17772157
65	0x3d64287b	0.055702668
66	0xbe4656d3	-0.19369058
67	0x3e73d4d0	0.2381165
68	0xbe0bbb50	-0.13645673
69	0xbda27789	-0.07932956
70	0xbdd3d846	-0.10343985
71	0x3d9cd364	0.07657507
72	0xbe1d2c0d	-0.15348835
73	0xbe49bf39	-0.19701852
74	0xbcbf054d	-0.023317957
75	0xbd87d141	-0.06631709
76	0xbdd4b1ea	-0.10385497
77	0xbdec4480	-0.11536503
78	0xbe53f61b	-0.2069935
79	0xbda7796c	-0.08177456
80	0xbe7aa45d	-0.24476762
81	0xbe2b77e1	-0.16744949
82	0x3d8c2e1d	0.06844733
83	0xbd3f0eb4	-0.04664488
84	0xbce63c01	-0.028104784
85	0xbe7273bf	-0.23676966
86	0xbe457dd7	-0.19286285
87	0xbe78dedb	-0.24303763
88	0xbd82fd21	-0.06395937
89	0x3e3c7e8e	0.18407652
90	0xbd4e3ad5	-0.050349075
91	0xbe6c47b5	-0.23074229
92	0x3d54a821	0.051918153
93	0xbe60a35e	-0.2193732
94	0xbd054d21	-0.03254426
95	0xbd858f3a	-0.06521459
96	0xbe4fa54d	-0.20277901
97	0x3e5b1bd1	0.2139733
98	0xbe00c702	-0.12575915
99	0x3d55a9ce	0.05216389
100	0xbe755848	-0.23959458
101	0xbdf22c00	-0.118247986
102	0xbd8ee161	-0.06976581
103	0xbdc1598c	-0.09440908
104	0xbda4d7af	-0.08048951
105	0xbc4e48d8	-0.0125906095
106	0x3e2ab91f	0.1667218
107	0xbdd38bf9	-0.10329432
108	0x3e578153	0.21045427
109	0xbde40a1f	-0.11134743
110	0xbdddbbda	-0.108268455
111	0xbde63386	-0.11240296
112	0x3c06e7c3	0.008233967
113	0xbe13cbcb	-0.1443321
114	0x3e53a4a2	0.20668271
115	0xbe09085a	-0.13382092
116	0xbe52937e	-0.20564076
117	0xbdc4a710	-0.09602177
118	0xbe201562	-0.15633157
119	0x3cad0c3c	0.021123998
120	0x3e3b54ff	0.18294142
121	0xbcc0c79d	-0.023532683
122	0xbddee2ae	-0.108830795
123	0x3e13c61c	0.14431041
124	0x3df4616b	0.119326435
125	0x3e5e3fa3	0.21703963
126	0xbe17acd5	-0.14812024
127	0xbc20a5ca	-0.009805152
128	0x3e5d37be	0.21603295
129	0x3e43b9d8	0.19113863
130	0xbdb76a9d	-0.08955882
131	0xbe7fbd4c	-0.24974555
132	0xbd93d755	-0.07218806
133	0x3e3be1ad	0.18347807
134	0xbde12369	-0.10993082
135	0xbe0b2ebd	-0.13592048
136	0x3d3c63e2	0.045993693
137	0xbda2be70	-0.07946479
138	0xbe063466	-0.13105926
139	0x3dd5f4a5	0.10447053
140	0xbe100c5c	-0.14067215
141	0xbda23125	-0.0791953
142	0x3e6102e8	0.21973765
143	0xbd7fb025	-0.062423844
144	0xbd59d6c6	-0.05318334
145	0xbce05f8f	-0.027389316
146	0xbe1fcbb1	-0.15605046
147	0xbe0a4516	-0.13502917
148	0x3e14aeca	0.14519802
149	0x3d82ae11	0.06380857
150	0xbe57e8fb	-0.21084969
151	0x3de2a8be	0.11067341
152	0xbc27a4f1	-0.010232196
153	0xbe1b5155	-0.15167744
154	0x3e245a43	0.16050057
155	0xbc687116	-0.014187118
156	0x3e740a8e	0.23832151
157	0xbe662fcc	-0.2247917
158	0xbe699194	-0.2280944
159	0xbc65b916	-0.014021179
160	0xbded2e0e	-0.1158105
161	0xbd06309c	-0.0327612
162	0xbe379b70	-0.17930388
163	0xbe7205f9	-0.23635091
164	0x3e5c2158	0.21497095
165	0x3e0c1a88	0.13681996
166	0x3bac58ef	0.005259625
167	0x3de53b8c	0.11192998
168	0xbe1bac31	-0.15202405
169	0x3de5547a	0.11197753
170	0x3e167263	0.14692073
171	0xbe4436c5	-0.19161518
172	0x3e0bd6ad	0.13656111
173	0x3e37d047	0.17950545
174	0xbddb574d	-0.10710011
175	0xbcb7fa18	-0.022458121
176	0x3e06d02b	0.13165347
177	0xbe2dfbea	-0.16990629
178	0xbe32439a	-0.174086
179	0xbdae20d4	-0.08502355
180	0x3e08ce4d	0.13359948
181	0xbe3f3722	-0.18673375
182	0x3cfb8bcb	0.030706307
183	0xbc26d543	-0.0101826815
184	0x3e09b7e3	0.13449053
185	0xbdd51bdb	-0.10405704
186	0x3e3db1ef	0.18524908
187	0xbe3e546b	-0.1858689
188	0x3e1b5a4d	0.15171166
189	0xbe188e8c	-0.14898127
190	0xbe33117b	-0.17487137
191	0xbe383a5a	-0.1799101
192	0xbe5a4566	-0.21315536
193	0xbde73b6f	-0.11290633
194	0x3d6f39d3	0.058404755
195	0xbe783a80	-0.24241066
196	0xbe3592a9	-0.17731728
197	0x3db65d3a	0.089045
198	0x3e72eddc	0.23723549
199	0xbddc3164	-0.10751608
200	0x3de8c3d1	0.11365474
201	0x3df2a7f0	0.11848438
202	0x3e16bff1	0.14721657
203	0x3d9c67cf	0.076369874
204	0xbc245e9f	-0.010032325
205	0xbdae5a24	-0.08513287
206	0xbe020aca	-0.12699428
207	0x3c82c57f	0.015963314
208	0xbe305399	-0.1721939
209	0xbdad4927	-0.08461218
210	0xbded08a7	-0.11573916
211	0xbe75914a	-0.23981205
212	0xbc15546a	-0.009114364
213	0x3e48bb27	0.19602643
214	0x3e49c237	0.19702993
215	0x3cc36268	0.023850635
216	0xbc1c3130	-0.009533212
217	0xbd09b62f	-0.03362101
218	0x3d1b968e	0.037985377
219	0x3e393686	0.18087205
220	0x3d9a9fb0	0.07549989
221	0x3dccdb25	0.10002736
222	0x3cc75b55	0.024335543
223	0xbd3e8f28	-0.046523243
224	0x3d1b408a	0.037903346
225	0x3e37d74e	0.17953226
226	0xbdc58b50	-0.096457124
227	0xbe693ce4	-0.22777134
228	0xbd221b9a	-0.039577104
229	0xbe4b136d	-0.19831629
230	0xbde2a3dc	-0.1106641
231	0x3ddafb78	0.10692495
232	0xbc3f1d18	-0.011664651
233	0xbe3a00b7	-0.18164335
234	0x3d8d2806	0.068923995
235	0x3e402876	0.18765435
236	0x3e644985	0.2229367
237	0xbe2c5e3a	-0.1683282
238	0x3d6d20ec	0.057892725
239	0x3e313923	0.17306952
240	0xbe002d5e	-0.12517306
241	0x3e01612f	0.12634729
242	0xbe2a870a	-0.16653076
243	0x3dc5ceff	0.09658622
244	0xbe1d904b	-0.15387075
245	0x3d8eb763	0.06968572
246	0x3d175a41	0.036951307
247	0xbe7e8f77	-0.24859415
248	0xbe47ca9d	-0.19510885
249	0xbc7f8329	-0.015595236
250	0xbe69b8bf	-0.22824381
251	0x3e0c1d58	0.13683069
252	0xbd7f738a	-0.062366046
253	0x3e22d287	0.15900622
254	0x3e29dd17	0.16588245
255	0xbe143634	-0.14473802

bias f4 [16]
0	0x3d469edf	0.048491355
1	0x3e3092e9	0.17243542
2	0x3de8312b	0.11337503
3	0xbde1f6b2	-0.110333815
4	0xbdbacca4	-0.09121063
5	0x3d280a9f	0.041025754
6	0x3e4c4ad8	0.19950426
7	0xbe5ca495	-0.21547158
8	0x3b3b516b	0.0028582464
9	0xbe03137a	-0.12800398
10	0xbd02288e	-0.031776957
11	0xbe2050d1	-0.15655829
12	0xbe0b3c29	-0.13597168
13	0x3d96ba1f	0.073597185
14	0x3e4c45ae	0.19948456
15	0xbdddb7cc	-0.10826072

weight f4 [1, 16]
0	0x3e76312c	0.24042195
1	0x3c8e4ae8	0.017369702
2	0x3e30f7e4	0.17282063
3	0xbdf01f42	-0.11724712
4	0x3de9f737	0.114241056
5	0xbd0efedf	-0.034911033
6	0x3e816bcb	0.25277552
7	0xbdd66049	-0.10467584
8	0x3dbdaddc	0.09261677
9	0xbe66cf63	-0.22540049
10	0x3e7bf9a2	0.24606946
11	0x3e348a5f	0.1763091
12	0xbdbd9fea	-0.09259017
13	0xbe2ae279	-0.16687955
14	0xbbfde78d	-0.0077485503
15	0xbd575747	-0.05257347
