saved_models/pytorch_connect/saved_model_coverage15.pth (torch, 6302 bytes, 5 tensors)

weight f4 [16, 13]
000000 50 d8 1c be fb 31 13 3c f1 8f b5 bd 70 7a 37 be
       -0.15316892 0.008984084 -0.08865345 -0.179178
000010 71 34 6e 3e 96 8a 51 be 81 e7 23 be 95 1f 94 3c
       0.23262192 -0.20463023 -0.1600628 0.018081466
000020 8c 30 01 3e d6 ac 7c 3c 07 9f 54 3d 50 e9 39 bc
       0.12616175 0.015422067 0.051909473 -0.01134713
000030 25 d0 35 be c8 7e a0 3d f9 5b 60 be 45 34 89 be
       -0.17755182 0.078366816 -0.21910085 -0.2679769
000040 20 24 0b be 29 ff 02 3d f8 be 38 be b6 55 c0 bc
       -0.13588 0.03198162 -0.18041599 -0.02347837
000050 89 77 cf bd 94 30 be bd 13 08 8c be f4 0f 89 3e
       -0.101302214 -0.09286609 -0.2734991 0.26769984
000060 2a 25 7a be 5c f2 7a be f4 8f 73 3e ca d0 60 bd
       -0.2442824 -0.24506515 0.23785383 -0.054886617
000070 26 c4 35 be 93 21 49 3e 62 67 3a bd b3 17 96 3d
       -0.17750606 0.19641714 -0.04550875 0.07328739
000080 71 2e 80 3e 41 41 0d be 38 af 85 3e b9 2d ef 3d
       0.25035432 -0.13794424 0.26110244 0.11678643
000090 b5 f1 fa 3d a3 da 6e 3e b6 59 18 be 31 0a ae bd
       0.12253133 0.23325591 -0.14877972 -0.084980376
0000a0 c7 ce 3f bd b0 66 06 be bf 56 25 3e 2d ae 25 3e
       -0.046828058 -0.1312511 0.16146372 0.16179724
0000b0 b1 e4 07 bd 65 fa 02 be 08 51 08 be 43 4c 7e 3e
       -0.03317708 -0.1279083 -0.13312161 0.24833779
0000c0 f1 4f 1d 3e 9c 5d fd 3d cd 78 3b 3e d2 f3 2c be
       0.15362526 0.1237137 0.183078 -0.16889885
0000d0 15 0c e2 3d 01 89 4a 3e 8a 01 e1 bd 2b 7d 87 be
       0.11037461 0.19778825 -0.10986622 -0.26462683
0000e0 87 87 85 bd 0a 8b 73 3e 36 d3 7d 3e c1 79 cc bc
       -0.065199904 0.23783508 0.24787602 -0.0249604
0000f0 9b 54 9e bd 45 2a db 3d 0f eb 53 3d 4a 89 ab 3d
       -0.07730981 0.10701422 0.05173784 0.08375795
000100 3c d5 73 3e a2 96 84 3e 3a 1c 0c 3e 5c 63 3a 3e
       0.23811811 0.25896174 0.13682643 0.18201965
000110 bc 0b 42 be f9 10 1e 3e e7 87 86 bd 1b 49 a1 bd
       -0.18949789 0.15436162 -0.0656889 -0.07875272
000120 1d 7c eb bc 09 75 21 be 1a a7 86 3e 65 c6 3f 3e
       -0.028745705 -0.15767302 0.26299363 0.18728025
000130 f9 ed db bd 87 50 16 3e 04 8b 46 bc a4 96 3a be
       -0.10738749 0.14679156 -0.012118105 -0.18221527
000140 94 5d 80 3e 62 4a 5a bd 85 43 87 bc 02 ce f7 3d
       0.25071394 -0.053293593 -0.016511688 0.1209984
000150 50 c7 8c be dc 43 0c bd bc 00 ed 3d 30 2c 6f be
       -0.27495813 -0.034244403 0.11572406 -0.233567
000160 7c ce 82 be 48 a2 80 be a6 a8 62 be d6 f4 1b be
       -0.2554816 -0.2512381 -0.22134647 -0.15230116
000170 fd 5b 53 bd 72 a5 79 bc ce 9f 73 be ec b8 4e bc
       -0.0516014 -0.015237199 -0.2379143 -0.012617331
000180 4c 18 22 3e 03 32 d4 bc f2 41 85 be 14 f0 dc bd
       0.15829581 -0.025902754 -0.26026875 -0.10787979
000190 52 9a ba bd 9e 4c 9f bd 3a 3e 22 be b0 3a 29 be
       -0.091114655 -0.077782854 -0.1584405 -0.16526294
0001a0 ec e2 63 3c 86 c3 d9 3d d7 fb 2d bd 17 96 29 be
       0.013909083 0.10632996 -0.0424765 -0.16561161
0001b0 71 80 f0 3d ef 31 84 be c4 63 08 3e c2 95 d5 bc
       0.11743248 -0.25819346 0.13319308 -0.026072387
0001c0 aa a0 6b 3e a9 c0 8c 3e a0 30 c1 bd 40 60 39 be
       0.23010507 0.27490738 -0.094331026 -0.18103123
0001d0 f7 15 56 be de 85 55 be 26 70 fa bd 13 e7 98 3d
       -0.20906816 -0.20851848 -0.12228422 0.07465949
0001e0 41 72 e1 3d 1b 38 58 3e f0 ba eb 3d 85 da 83 bc
       0.1100812 0.21115153 0.11510265 -0.01609541
0001f0 47 01 88 be c4 da 81 3e 50 50 48 3d d3 bb cf 3c
       -0.26563475 0.25362217 0.048904717 0.025358116
000200 0e dd 82 3e b1 41 9e bd 51 85 0d bc 20 c4 23 be
       0.25559276 -0.077273734 -0.008637742 -0.15992785
000210 6b a9 54 3e ce e0 82 3e 4f c1 31 be 05 21 d8 bc
       0.20767753 0.25562137 -0.17358898 -0.026382932
000220 15 3e 64 be dd b5 38 be 04 e4 99 bd 59 f4 8a 3e
       -0.22289307 -0.18038125 -0.07514194 0.27139547
000230 44 db 6e bd 77 8c a6 bd 5c 3c d9 ba 13 e4 a7 bc
       -0.058314577 -0.0813226 -0.0016573775 -0.020494496
000240 34 a0 8c 3e 9e 18 6d be 04 12 41 3d 3d 5b 52 be
       0.27465975 -0.23153922 0.04713632 -0.20542617
000250 81 7a 84 3e 89 0c f1 bd 08 16 67 3e b2 5e 65 3e
       0.25874713 -0.11769969 0.22566998 0.22399405
000260 6c 52 91 3d 04 aa 1e be ba b5 58 3e 65 01 7c be
       0.07095799 -0.15494543 0.21163073 -0.24609907
000270 8e 20 db bb b6 53 6b 3d a3 4e 1d 3e 7d 8d 4b be
       -0.0066872304 0.05745288 0.15362029 -0.19878192
000280 89 b9 3a 3c 5c 6c 95 3b 85 88 b5 bb f8 a0 50 be
       0.011396774 0.0045600366 -0.005539956 -0.20373905
000290 2e a3 11 be 7b bb bb 3d 0d 62 f7 bd ab 17 1f 3e
       -0.14222404 0.091666184 -0.120792486 0.15536372
0002a0 14 72 f8 3c c6 7f 87 be 66 b9 57 be 64 79 bc 3d
       0.030327834 -0.2646467 -0.21066818 0.09202841
0002b0 3b 59 3a be 9e c6 c6 3d ef cb 54 be 51 f7 7d 3e
       -0.18198101 0.09705852 -0.2078092 0.24801375
0002c0 8f f7 7a be a0 97 02 3e bf 33 72 be 7a 3e 3a 3e
       -0.24508499 0.12753153 -0.23652552 0.18187895
0002d0 63 ce 27 3e 60 a6 a2 3d f0 12 11 3e a1 68 80 3e
       0.16387324 0.0794189 0.1416738 0.25079826
0002e0 1b 0c 0b bc 27 ec 70 be 74 c0 3c bc 05 8a 8a be
       -0.008486773 -0.23527585 -0.011520494 -0.27058426
0002f0 93 7d 70 be b7 53 f5 3d 75 80 5a bd db 1f 3e 3e
       -0.23485403 0.11978858 -0.053345162 0.1856684
000300 93 e7 3d be 72 21 94 bc 4e 3a 36 3e 09 3f 2f 3d
       -0.1854537 -0.018082354 0.17795679 0.042784724
000310 49 fb 0b be d0 6f 6c be 0e c2 08 3d d6 b9 5c 3d
       -0.13670076 -0.23089528 0.03338819 0.053888164
000320 0c 17 29 3e ca e7 55 bd 88 da bf 3b 08 ea 45 3d
       0.16512698 -0.052223004 0.0058549084 0.048318893
000330 4a 54 85 3b d8 1a 0a be 12 31 aa bd 2c 72 a3 3d
       0.004068886 -0.13486803 -0.08310141 0.07980761

bias f4 [16]
000000 d3 d9 82 3b b9 38 2b be fe 88 55 be 13 64 b6 bd
       0.003993252 -0.16720857 -0.2085304 -0.089058064
000010 1e cb 35 3e ae a4 11 be 7c c9 ca bc f6 15 00 be
       0.17753264 -0.14222977 -0.024754278 -0.12508377
000020 b7 a9 80 3e a5 59 3b be a5 8c 3b be 59 f2 7c 3e
       0.25129482 -0.18295915 -0.1831537 0.24701823
000030 b1 69 32 3e 3d 35 61 bc 62 88 8d 3b 7e 19 48 3e
       0.1742313 -0.013745603 0.0043192366 0.19540974

weight f4 [16, 16]
000000 a7 b8 45 3e 85 d2 15 3d c9 f8 12 3e d0 db 79 be
       0.1930872 0.03657772 0.14352717 -0.24400258
000010 a3 c2 3c be 4e dc 7f be f9 8d 0a be b9 fc 4f be
       -0.18433623 -0.24986383 -0.13530721 -0.2031125
000020 42 f3 68 3e e5 e9 a6 3c 1f 09 fe 3d 2f 82 28 3e
       0.22749045 0.020375201 0.124040835 0.16455911
000030 50 3d 29 3e f4 f5 b0 3d 8b e3 ed bd 4a bb 5e be
       0.16527295 0.08640662 -0.11615666 -0.21751133
000040 3f f1 58 be d2 1a 39 be e5 1b 2e bb 54 e3 fa bd
       -0.21185778 -0.18076637 -0.002656692 -0.12250391
000050 27 02 94 3c b3 a1 d7 3d a2 89 93 bd 7b c3 56 be
       0.018067433 0.105288886 -0.07203986 -0.20973007
000060 3f b3 29 be 56 37 57 be 8f 86 5a 3d 80 d3 ef bd
       -0.16572283 -0.21017203 0.05335098 -0.11710262
000070 93 a2 57 3d ad ab 26 be b8 e3 56 be 73 1b 06 be
       0.052645277 -0.16276427 -0.20985305 -0.13096409
000080 4b d6 5d 3d 23 b9 03 3e 7f 66 83 3e 3a d9 e1 bd
       0.054159444 0.12863593 0.25664136 -0.11027761
000090 bb 9c fc bd 22 0f de 3d 4b 5c 79 3e 5e 37 01 be
       -0.123345815 0.1084273 0.24351613 -0.12618777
0000a0 fa 31 7d 3d 8c d2 79 be 56 2f a4 3d ac 12 11 3c
       0.06181524 -0.24396724 0.08016841 0.008854549
0000b0 f4 61 d8 3d c7 90 80 3e 49 83 ea bb bd fc d8 3d
       0.10565558 0.25110456 -0.0071567637 0.10595081
0000c0 e5 83 35 be 7c 2e 86 3d 4d 66 f8 bd 0b 1a 12 3e
       -0.17726095 0.06551835 -0.12128887 0.14267747
0000d0 77 81 f0 3d bb cb 71 be d8 47 82 bd b7 d4 23 3d
       0.117434435 -0.23612873 -0.06361359 0.039997783
0000e0 24 80 47 be 67 75 01 3e 4c 00 7b be 8f 40 57 3e
       -0.19482476 0.12642442 -0.24511832 0.21020721
0000f0 d9 dc 61 3e 30 4e 62 be a3 b0 12 be 6a a5 56 3e
       0.22056903 -0.22100139 -0.14325194 0.20961538
000100 da c2 6c 3d f6 16 18 3e ab 15 65 be 3f 87 d8 bb
       0.057803012 0.14852509 -0.22371547 -0.0066079195
000110 bd bc 4e 3e d2 a3 72 bd 01 52 b0 3d 51 28 25 bd
       0.20189185 -0.059238262 0.08609391 -0.04032165
000120 5b ad 6b bd 4d b8 96 3d 38 0f 40 3d 39 ff db 3d
       -0.05753837 0.07359371 0.046889514 0.10742039
000130 c7 88 34 be 86 6c 84 bc ad d3 59 3a b7 e4 0d 3e
       -0.17630301 -0.01616503 0.0008309435 0.13856779
000140 0d 5a dc bd 26 71 24 3d e8 85 24 3e f6 a9 73 3e
       -0.10759363 0.04014697 0.16066706 0.23795304
000150 40 da 33 be e4 3f 09 3d af ad a5 bc b4 bf 7b 3e
       -0.17563725 0.033508196 -0.02022442 0.24584848
000160 2b 32 9f bc 60 2f 8b bd 8b c8 47 be 49 ee 78 be
       -0.019433102 -0.067961454 -0.19510095 -0.24309649
000170 6a 12 0d be 99 b1 06 bd 6a 56 7b bd 28 b4 99 3d
       -0.13776556 -0.032884214 -0.061361708 0.07505065
000180 75 12 06 be 6f b8 60 bd c6 32 39 3e e9 cf 10 be
       -0.13092978 -0.05486339 0.18085775 -0.14141811
000190 41 a8 61 be 33 87 92 bc 2e 0c cb 3d fa ae 07 be
       -0.2203684 -0.017886734 0.099144325 -0.13250342
0001a0 d1 63 8b bd 95 bd 7c 3e 75 40 6f be 45 24 ee 3d
       -0.06806148 0.24681695 -0.23364432 0.116280116
0001b0 3e de 4d 3e fb 72 2d be 87 07 5c 3e cd fb 44 3e
       0.2010431 -0.16938393 0.21487246 0.1923668
0001c0 e6 41 6d be 4c 9d 4f 3e cf 3d 5e be d8 32 24 be
       -0.2316967 0.20274848 -0.21703266 -0.1603502
0001d0 3f eb 43 be 53 1f f8 bd e6 6a 2b bd 2e 54 19 3e
       -0.19132708 -0.121153496 -0.041849993 0.14973518
0001e0 cf f8 e1 bd 6a aa 5a be 49 f3 8d 3d 02 76 64 bd
       -0.110337846 -0.2135407 0.069311686 -0.055776604
0001f0 75 c1 4e 3d ec a5 76 3e 12 a7 20 3d c6 09 44 bc
       0.050477464 0.24086732 0.03922183 -0.011965221
000200 19 c3 85 bd 3a 7b 36 3e 8f 2a b2 bd 18 b6 55 be
       -0.065313525 0.17820445 -0.08699524 -0.20870245
000210 8d 8c 2c 3e a3 c1 5b be 29 81 57 3e 2c 9e 74 bd
       0.16850491 -0.21460585 0.21045364 -0.059721157
000220 7f 7d 3f 3e 0a 0c d7 bd a1 6b cf 3d 53 f5 ce 3d
       0.18700217 -0.10500343 0.101279505 0.10105386
000230 c6 7c 68 3e 08 d0 bc 3d 7b 62 49 bc 44 9d e0 bd
       0.22703847 0.09219366 -0.012291546 -0.10967496
000240 6a f7 cc 3d 35 c1 40 3e 77 c7 05 bd 77 ff 80 be
       0.10008128 0.18823703 -0.032660928 -0.25194904
000250 c8 70 29 be ae 0b 4d 3e 90 07 51 3e ac 3c 24 3e
       -0.16546929 0.20023987 0.20413041 0.1603877
000260 1d 84 8c bd ce 09 82 3d b5 4a a8 3d ac 7c 3a bd
       -0.06861136 0.06349526 0.08217374 -0.045529053
000270 68 8a cb bd bd 2e 7e be 27 f9 5d 3e 6b 69 8d 3d
       -0.09938508 -0.24822517 0.21677075 0.069048725
000280 53 e1 52 3e 62 87 90 3d 17 c8 6b bb 2b 77 3d 3d
       0.20593767 0.07057072 -0.0035977417 0.046256226
000290 e0 c7 60 bd ea a9 af 3c 54 39 dc bd 16 0e 0e be
       -0.054878116 0.021443326 -0.10753122 -0.13872561
0002a0 8a b3 88 bb b3 b9 10 be 79 b4 d7 bd 00 15 5e be
       -0.0041717933 -0.14133339 -0.10532469 -0.21687698
0002b0 d9 7b 72 be ba bc 13 3e e4 e6 67 be ec 42 39 3e
       -0.23680057 0.14427462 -0.22646672 0.18091935
0002c0 22 43 63 be 16 29 71 be 4d c1 0c 3e 64 e5 f0 bd
       -0.22193578 -0.2355083 0.13745613 -0.11762503
0002d0 85 62 75 3e 1e 8b 83 bd 79 5b 3e be a6 69 82 3c
       0.23963363 -0.06423019 -0.18589582 0.015919518
0002e0 24 d0 34 3e ae 62 7f be 8b 3c 62 be a2 50 b6 3d
       0.17657524 -0.24939987 -0.22093408 0.08902098
0002f0 22 bb 19 3d 2c 5c 40 3d f9 d9 bf bd e6 f9 9a 3d
       0.03753198 0.046962902 -0.09367747 0.075671956
000300 0d c4 48 be 6c c1 0e 3e 15 96 58 bd 68 c2 51 3e
       -0.19606037 0.13940972 -0.052877504 0.20484316
000310 2e 4a 1f 3e e3 2c 64 bd 77 df 2a 3e 27 0b 4b 3c
       0.15555641 -0.05570687 0.16686808 0.012392796
000320 93 56 42 be ea ba 0c 3e c5 f1 62 3e 16 c2 8d bd
       -0.18978338 0.13743177 0.2216254 -0.069217846
000330 47 bb ff bd d4 0e 7b be 91 cb 1c 3e 13 f8 db 3c
       -0.12486892 -0.24517375 0.1531203 0.02685169
000340 72 fe d5 3c a4 8c ba 3d 50 73 75 3e 32 85 72 3e
       0.026122306 0.09108856 0.2396977 0.23683622
000350 71 72 17 be ab 29 48 3e 36 ed 1d bc 70 5d 65 bd
       -0.1478975 0.19547145 -0.009639075 -0.055997312
000360 94 24 fb 3d 4d 80 a0 bc f4 64 a9 bd 84 99 50 be
       0.12262836 -0.019592429 -0.082712084 -0.20371062
000370 5e 98 51 be 76 c2 5d 3d 57 9a 4a bd 00 a0 fe bd
       -0.2046828 0.05414053 -0.049463596 -0.12432861
000380 c0 06 89 bd 78 1c 39 be bb 53 cc bd 5f ae 2b 3e
       -0.066907406 -0.18077266 -0.09976908 0.16765736
000390 77 89 81 3e d9 6a ba 3d 16 eb 69 3d 8c 1c ee bd
       0.2530019 0.09102411 0.05710896 -0.11626539
0003a0 50 ec 83 3d 89 c3 ce 3d 60 d1 0b be e8 f1 4a 3e
       0.064415574 0.10095889 -0.13654089 0.19818842
0003b0 3a 2d 4f 3e e4 3e 71 3b 8a 75 31 3e fe 7a 31 3e
       0.20232096 0.0036811167 0.17329994 0.17332074
0003c0 ed 9b 96 3d 05 2f 6c 3e 0e ca 5d be a9 fb e1 bd
       0.07353959 0.23064812 -0.21659109 -0.110343285
0003d0 57 66 b9 3d f6 9d cc 3b 47 16 a5 3c 63 46 24 be
       0.09052723 0.0062444163 0.020152224 -0.16042475
0003e0 83 d0 02 3e 3a 1f b4 bd 36 7f 11 be a1 1c db 3d
       0.12774853 -0.087950185 -0.14208683 0.1069882
0003f0 72 bf a7 3d 13 6c 72 bc 61 8f 58 be 26 8e 75 bd
       0.08190812 -0.014796275 -0.21148445 -0.059950016

bias f4 [16]
000000 0a 34 07 3e 11 56 2e 3e f4 36 00 be f8 da e3 bd
       0.13203445 0.17025019 -0.12520963 -0.11125749
000010 36 c8 5e 3d 33 9f 49 3e 94 9f 68 3e 98 5e 75 be
       0.054390155 0.19689636 0.22717124 -0.23961866
000020 88 4b 3b 3e d7 ad 70 3c 1a 73 d4 3d 18 e2 a9 bc
       0.18290532 0.014689884 0.103735164 -0.020737693
000030 d0 cb 05 be b0 ed 29 3e 3d b5 22 be 17 7c 74 3e
       -0.1306603 0.16594577 -0.1588945 0.23875462

weight f4 [1, 16]
000000 6e 31 3c 3d a9 71 8b bd c6 79 35 3e 3a 0a 3a be
       0.045945577 -0.06808788 0.17722234 -0.18167964
000010 e0 df ea bd 7e ba 3d bd 1a b4 69 3c a9 a2 3a be
       -0.11468482 -0.04632043 0.014264131 -0.18226112
000020 3d da ae ba 62 3a 23 be dc b5 00 3d 11 c4 20 be
       -0.0013340187 -0.1594024 0.031423435 -0.15699793
000030 5f ae 72 3e 26 cc 97 bd 38 7f e6 3d 77 a7 0a bc
       0.2369933 -0.07411985 0.11254734 -0.008462778
