saved_models/pytorch_connect/saved_model_coverage5.pth (torch, 6228 bytes, 5 tensors)

weight f4 [16, 13]
000000 40 7f 31 3e c7 f4 60 3e f0 80 8a 3d 14 20 03 3d
       0.17333698 0.21968375 0.06762874 0.032013014
000010 27 13 4c 3e a1 6c 8c 3e ed c0 c4 bc 82 07 9d bd
       0.19929181 0.27426627 -0.024017775 -0.076674476
000020 1f 90 55 be a2 e7 71 be 23 16 9b bd ee 51 50 3e
       -0.20855759 -0.23623517 -0.075725816 0.20343754
000030 b7 94 2a 3e a0 59 26 be c3 03 e9 3d ba 77 87 3e
       0.16658293 -0.16245127 0.113776706 0.26458532
000040 ae 29 7b be 4b ad 09 3e 5f de 27 3d bd 8a 66 ba
       -0.24527618 0.13445012 0.040983554 -0.00087944773
000050 2b 2a bc bd 4f c2 3a be 8c 9c 0a 3e ed 44 8b 3d
       -0.091877304 -0.18238185 0.1353628 0.06800256
000060 e0 8c 66 3e 74 41 5d be fb 37 38 3e 79 cf f4 3d
       0.22514677 -0.21607 0.17990105 0.11953635
000070 03 01 d7 bd 18 ef a0 bd 08 99 94 3d df ad 26 3e
       -0.1049824 -0.078581035 0.07255751 0.16277264
000080 8a ea 7e be 04 04 0d be 36 38 51 bd 7c 67 9d bd
       -0.24894157 -0.13771063 -0.051078998 -0.07685754
000090 4a 28 07 3e cb c3 02 be 14 d1 d8 3d df 6f 7b bc
       0.13198963 -0.12770002 0.105867535 -0.015346496
0000a0 a7 1d 89 3e 9a 1c dd bd 1e 44 1c bd 68 55 04 be
       0.26780435 -0.10796471 -0.0381509 -0.12923205
0000b0 91 42 75 bc 82 dd 5b 3e a3 50 1b be 5a ea 22 3d
       -0.014969484 0.21471217 -0.15167479 0.039774276
0000c0 02 f2 18 3d 51 57 3d bb 78 d6 1f 3e 83 63 2a bd
       0.03734017 -0.0028891156 0.15609157 -0.041598808
0000d0 56 77 10 be a7 2b 42 3e 8d 82 2b be 62 9b f1 bc
       -0.14108023 0.18961965 -0.1674902 -0.029493038
0000e0 f3 9c fb bd e8 37 ea bd 76 d7 27 3d 9d 97 2f bd
       -0.12285795 -0.114364445 0.040976964 -0.0428692
0000f0 2f c2 e0 bd f4 09 27 3e 82 8e bb 3d 4e be cf 3d
       -0.109745376 0.1631239 0.091580406 0.101437196
000100 68 43 23 3e 1c 60 0a bd a8 9a 42 3e d5 26 98 bd
       0.15943682 -0.033783063 0.19004309 -0.074292816
000110 9c e7 8c be 9f c5 81 3e 9f b0 2c 3e 2e dc 61 3e
       -0.27520454 0.25346085 0.1686425 0.22056648
000120 b2 32 5c 3e e6 7e d8 3d 2f 18 75 3e be 90 fe bd
       0.21503714 0.10571079 0.23935007 -0.12429951
000130 2f 8c 89 3b 3b 71 15 be 13 ff 61 3e b5 b5 0f be
       0.0041976194 -0.14593975 0.2206996 -0.1403416
000140 f9 da 78 3e a4 a3 ee bd 37 ed bb 3d 3c c5 ae 3d
       0.24302281 -0.11652306 0.091761045 0.08533713
000150 ee 18 4d be 8d 53 81 3e 69 42 f8 3d 29 2f e7 3d
       -0.20029041 0.25259057 0.12122042 0.11288292
000160 c3 ff 84 3e 1f f2 e9 3c 0e 56 88 be 0a 2f 1a 3e
       0.2597638 0.028557835 -0.26628155 0.15057006
000170 2c 33 38 3e 73 eb 6e bd 1e f7 60 be 3e d9 3f be
       0.1798827 -0.05833001 -0.21969268 -0.18735215
000180 16 d2 69 3e 3e e8 7d be 6c 37 45 3c 02 d5 5e bd
       0.22834048 -0.24795625 0.012037139 -0.05440236
000190 95 d6 3a 3c 4b 03 2a 3e 65 fe 5f be 09 36 77 3e
       0.011403699 0.16602819 -0.21874388 0.24141707
0001a0 c1 6f 31 3e 99 44 91 3e cf ff d3 3d 21 d4 1f bd
       0.17327787 0.28372648 0.10351526 -0.03902066
0001b0 fd 84 e2 bb 2e ce ed 3b 25 c3 21 3d 46 e9 f8 3d
       -0.006912826 0.0072572445 0.039492745 0.121538684
0001c0 4f 72 90 bd f5 50 69 3e d8 ce 03 3e a7 6e 4d 3d
       -0.07053053 0.22784789 0.12871873 0.050154354
0001d0 e0 d8 88 3e a6 6e c5 3c 6f 1c 5b be 0f 6e 85 be
       0.26727962 0.024100613 -0.21397565 -0.2606053
0001e0 d0 6a 0d 3e cf 21 08 be 61 82 af 3d 1f 2e 25 3e
       0.13810277 -0.13294147 0.0856979 0.16130875
0001f0 bd c7 b1 3d d9 11 f5 bd a2 82 c8 bc 4c 5d 62 be
       0.08680675 -0.11966295 -0.024476353 -0.22105902
000200 69 51 35 be 88 70 a6 3d 10 d7 32 be 5a 80 76 be
       -0.17706837 0.081269324 -0.17464852 -0.240724
000210 2f 94 7f 3e 31 16 5c bd db 02 1a be e9 48 73 be
       0.24958871 -0.0537321 -0.15040152 -0.23758282
000220 3e cd 8e bd 06 df d4 3d 1f 3d 40 3e 80 79 1e 3d
       -0.069727406 0.10394101 0.18773316 0.03869009
000230 e2 c8 8e be 84 20 34 3e b4 45 eb bd 37 53 53 3e
       -0.27887636 0.17590529 -0.11487904 0.20637213
000240 10 24 45 3e cd 9e 85 be 1d a9 6b 3b ac a8 d3 bd
       0.19252038 -0.26097718 0.0035958954 -0.10334906
000250 0f 36 13 bd 78 80 97 3d a3 db 09 3d c3 ef 7f 3d
       -0.035940226 0.0739755 0.033656728 0.062484514
000260 03 c6 48 be e0 08 58 be 83 ba d0 bd 04 3e 6c 3d
       -0.19606785 -0.21097136 -0.10191824 0.05767633
000270 2e b7 4a bd ef 5f ba bd 42 27 62 bc cb 73 8a be
       -0.0494911 -0.09100329 -0.013803305 -0.27041468
000280 14 e8 4a be 11 44 7e 3e 62 f6 84 be 84 18 8d bd
       -0.19815093 0.24830653 -0.25969225 -0.068894416
000290 b3 1b 82 3e ec a4 45 3e 97 45 d8 3d 74 65 03 3e
       0.25411758 0.19301194 0.10560148 0.1283167
0002a0 8c 49 7d 3e 2b b8 76 3e 7e 47 72 3d 82 99 07 3e
       0.24735087 0.24093692 0.05915021 0.13242152
0002b0 7d a3 7e bc a2 7c 06 3d 10 15 51 bd 94 92 e6 bc
       -0.015541908 0.032833703 -0.051045477 -0.028146066
0002c0 93 08 81 bd 68 a6 4b be 45 88 27 3e 4c f7 71 be
       -0.063004635 -0.19887698 0.16360576 -0.23629493
0002d0 6d 62 30 bd cd 3b 24 be b5 a6 0b 3e 52 24 48 3d
       -0.043062616 -0.16038437 0.13637812 0.048862763
0002e0 db 53 5d 3e be 73 47 be 50 8d 3e 3b a4 c1 6e 3e
       0.2161402 -0.19477746 0.0029075928 0.23316056
0002f0 11 be 29 3d aa 3c 85 3b 22 c9 8d 3e 7b 04 68 3e
       0.041441027 0.0040660696 0.27692515 0.22657959
000300 95 f6 ff bd b8 c4 1f be 90 6e 0e 3e 52 57 48 3e
       -0.12498204 -0.15602386 0.13909364 0.1956456
000310 4b 1c b3 bc af 24 7c 3e 7f e1 4b be 69 a3 40 be
       -0.021864077 0.24623369 -0.19910239 -0.18812336
000320 35 be 14 be d9 ca 3c 3c 1a e9 3e be c9 bd 76 be
       -0.14525683 0.011522972 -0.18643609 -0.24095835
000330 b3 ff 07 3d ce 1c 04 be e3 6c 69 3e 87 e0 5d 3d
       0.03320284 -0.12901613 0.22795443 0.054169204

bias f4 [16]
000000 f3 7e 68 be 7e dd 46 be 11 3f 88 3e dc 6f 68 be
       -0.22704677 -0.1942043 0.26610616 -0.22698921
000010 fe ea 4b be 51 2c 61 3e 44 11 2c 3e 15 c0 2d be
       -0.19913861 0.21989562 0.16803461 -0.16967805
000020 6b 47 c9 3d 8b 4d 70 3e 4e a1 34 3e 00 45 ad bc
       0.09828075 0.2346708 0.17639658 -0.021151066
000030 0b 2c 30 be 72 2a 4f 3e 5e 85 f4 3d a0 33 c4 3d
       -0.17204301 0.20231035 0.119395 0.09580159

weight f4 [16, 16]
000000 92 99 b2 bd db 1f 87 3d 58 43 6c be d5 c9 9d 3d
       -0.087206975 0.06597873 -0.23072565 0.07704512
000010 df b1 e8 3c ae b8 d9 3d 7d 75 67 be 22 01 32 3e
       0.028405128 0.10630928 -0.22603412 0.17383245
000020 9b 79 ee 3d 6c c1 c3 bd 09 ca 92 3c 1c 9e 32 3e
       0.11644288 -0.09558377 0.017918603 0.17443126
000030 56 b4 89 3d b9 2c 05 be 56 53 77 bd 93 86 66 bc
       0.067238495 -0.13005342 -0.06038221 -0.014070171
000040 09 df 4a 3e 0d 1a 1d 3e 86 76 14 3d 0c 7a c8 bd
       0.19811644 0.15341969 0.036245845 -0.097889036
000050 6f b1 37 3e fb d9 aa bd 5e c6 1d 3e c3 6e 39 be
       0.1793878 -0.08342358 0.15407702 -0.18108658
000060 06 76 2a 3d ca 42 a8 bd 05 9b 02 3e 96 87 29 3d
       0.041616462 -0.08215864 0.12754448 0.04138907
000070 56 68 57 3e da 2d af bd cf f1 1a be f0 00 2f be
       0.21035895 -0.08553667 -0.15131305 -0.17090201
000080 d2 a1 69 be 84 c1 12 be 64 1d 38 be e8 95 73 be
       -0.22815636 -0.14331633 -0.17979962 -0.23787653
000090 48 00 9f bd b0 c2 46 3d 20 e3 ba bd a0 7f 53 3c
       -0.077637255 0.048525512 -0.09125352 0.012908846
0000a0 ae 0b 70 be 56 8f 02 be 00 52 a2 3a a6 2b 0e be
       -0.23441955 -0.12749991 0.0012384057 -0.13883838
0000b0 50 d5 32 be 58 ca cc bd 80 a4 d7 bd c4 ae 52 3e
       -0.17464185 -0.099995315 -0.10529423 0.2057448
0000c0 a1 65 14 be e8 38 4d 3e dd 7d 6f 3e 5e 41 09 be
       -0.14491893 0.2004124 0.23387857 -0.13403842
0000d0 2b 7b ab bd 2e d3 45 3c 06 83 43 3e df 4c 23 3e
       -0.08373102 0.012074275 0.1909295 0.15947293
0000e0 83 e5 0f be 88 66 9a bc 72 60 5f be d5 86 0c 3e
       -0.14052396 -0.018847719 -0.21814135 0.1372331
0000f0 54 11 55 3e 98 e0 e2 3d ab 39 2a be 7f 32 a4 3d
       0.20807391 0.11077994 -0.16623561 0.08017444
000100 b3 7e 95 3d 3c ba 4e 3c 97 7d e9 bb b6 0c aa bd
       0.072995566 0.012617644 -0.007125567 -0.08303206
000110 6f 1d ed bd a4 f9 07 3d 25 16 5d 3e 2b e5 59 3e
       -0.1157788 0.03319706 0.21590479 0.21278827
000120 14 6e 10 3e d5 22 16 bd 39 e1 0d 3e c6 91 d1 3d
       0.14104491 -0.036654312 0.13855447 0.10232882
000130 3a 0a fc 3d 91 6d bc bd 76 64 ba 3d 5e a5 85 bd
       0.12306638 -0.09200586 0.09101193 -0.06525682
000140 74 55 04 be ed e9 35 3c 27 e1 ab 3d e7 f0 4b be
       -0.12923223 0.0111031355 0.08392554 -0.19916116
000150 c1 1a 4c 3e 50 68 3e be 9d 50 4e 3e 27 fd 6e be
       0.19932081 -0.1859448 0.20147939 -0.23338757
000160 1e 99 34 3e 1b 27 34 3e bd cd 92 bd 48 8c 67 bc
       0.17636535 0.17593043 -0.07168148 -0.014132567
000170 2e 9b 46 be d4 34 3d be ba 50 a8 bd 53 cd e9 3d
       -0.19395134 -0.18477184 -0.08218522 0.114161156
000180 e3 5e f2 3c c0 eb 0e 3c f1 95 23 be 33 20 84 3d
       0.029586261 0.008723199 -0.15975167 0.06451454
000190 f5 d2 3b 3e 8c 4c f6 bd 3a 59 2d 3e 70 5b de bd
       0.18342192 -0.12026319 0.16928568 -0.10857284
0001a0 08 1f 8c bd c6 03 19 3e 34 73 3c be 23 70 26 bd
       -0.06841856 0.14942846 -0.18403322 -0.040634286
0001b0 88 90 a2 bd e7 9f 7a be 4c 91 a7 3d 51 b3 12 3e
       -0.079377234 -0.2447506 0.0818201 0.14326216
0001c0 97 4a 1b be 8f 5a 11 3e 9a 6a 3c be 5b 91 55 be
       -0.15165173 0.14194702 -0.1840004 -0.2085623
0001d0 28 a6 03 be db 36 64 3e 33 88 ba bc 71 db 07 be
       -0.12856352 0.2228655 -0.022770023 -0.13267304
0001e0 ed de 2e be cb a9 c3 3c dd 2f 49 3e 51 22 08 be
       -0.17077227 0.023884675 0.19647165 -0.1329434
0001f0 34 1e 8d bd 28 35 a7 bd 06 a5 07 3e cd 76 70 be
       -0.068905264 -0.081644356 0.13246545 -0.23482819
000200 a7 63 4c 3e 95 ce 34 be b1 d0 35 3e 14 93 fc bd
       0.1995989 -0.1765693 0.1775539 -0.123327404
000210 bb 9b 22 3d 2f 4e b8 3c 92 d5 7d 3e 94 95 62 be
       0.039699297 0.022498218 0.24788502 -0.22127372
000220 b3 5f ae 3d ce 60 22 be 5e 9c 14 3e 1a eb 4c 3e
       0.08514347 -0.1585724 0.14512774 0.20011559
000230 7c c5 25 3e f1 b6 8f 3d 5f bd d9 3d e0 cd 1c be
       0.16188616 0.07017315 0.10631823 -0.1531291
000240 d7 36 e9 bd a2 c8 46 be fb 37 39 be a3 60 69 3d
       -0.11387413 -0.19412473 -0.18087761 0.056976926
000250 37 a5 c5 bd e9 15 6f be 11 db 51 be 48 a7 7d 3b
       -0.09650653 -0.23348202 -0.20493723 0.0038704444
000260 54 b4 68 3e 8a ee 22 bd 5b c2 29 3e 7b f8 de 3d
       0.2272504 -0.03977827 0.16578047 0.10887238
000270 70 7f b6 3d e9 40 ae bd 66 48 97 bd 25 76 6c 3d
       0.089110255 -0.085084744 -0.07386856 0.05772986
000280 13 f7 16 3d 9d 9e c8 bd fd d9 f0 bd 98 40 b2 bd
       0.036856722 -0.09795878 -0.11760328 -0.087037265
000290 48 76 20 3d 03 f4 f9 3d 60 52 0c bc a8 88 2c be
       0.0391753 0.12204745 -0.008564562 -0.16849005
0002a0 de a7 55 be bc b7 8f bd d6 18 77 3e 96 f5 8a 3a
       -0.20864818 -0.070174664 0.24130568 0.0010601755
0002b0 ea aa 0f bd e9 41 34 3a 67 6d b3 bd e0 a7 6a 3e
       -0.035075106 0.00068762765 -0.08761101 0.22915602
0002c0 84 8f dc bd e4 43 3d 3e c1 a5 40 39 2b 6b 78 bd
       -0.10769561 0.1848293 0.00018372295 -0.06064908
0002d0 80 8b 40 be f7 b0 89 3e c0 50 4e be b2 25 ec bd
       -0.18803215 0.26892826 -0.20147991 -0.11530627
0002e0 0f 19 02 3e 1b 67 0d 3e 4a a9 75 be 73 cd ea 3d
       0.12704872 0.13808863 -0.2399036 0.114649676
0002f0 30 55 2c 3e b9 9f ac 3d 21 a4 db 3c 5f 82 9d bd
       0.16829371 0.08428902 0.026811661 -0.07690882
000300 8b 75 14 be fe 5c 4c be 65 1f d1 bc 99 8d 44 be
       -0.14497964 -0.19957349 -0.025527665 -0.1919464
000310 96 0e 3e 3e a0 e7 3a 3e 3b f8 08 3d e1 7d 7e 3c
       0.18560252 0.1825242 0.033439856 0.015532942
000320 ec b0 77 3e c3 e2 e0 3d 3f 95 65 3e 9b 85 3a bd
       0.24188584 0.10980751 0.22420214 -0.045537572
000330 81 95 f0 bc 1e 12 8b 3c 16 0f d9 3d 11 e4 5a be
       -0.029368164 0.016976412 0.105985805 -0.21376063
000340 38 64 d0 3c 36 06 3c bd bc 12 64 3e ad 72 7c bd
       0.025438413 -0.04590436 0.22272772 -0.0616328
000350 f9 1b 8f bd 50 c1 4b 3e a5 40 d6 3c 26 80 b1 3d
       -0.06987757 0.19897962 0.026153872 0.086670205
000360 90 03 e1 3c d3 a9 4f 3d 49 3c a6 3d 54 3f 5a bb
       0.027467519 0.050699066 0.08116967 -0.0033301907
000370 2a a2 3b 3e 5e af dd 3d f7 4a 5c be 5e 9b 69 3e
       0.1832358 0.10824464 -0.21512972 0.22813174
000380 83 aa 95 bd cf 78 4d 3e 7b c9 40 3e ac 90 41 be
       -0.07307913 0.20065616 0.18826859 -0.18902844
000390 2b 41 42 be 35 0d 54 3e c4 9e 20 3e 9f ef ff bc
       -0.18970172 0.20708163 0.15685564 -0.03124219
0003a0 bd 86 fe bd 8e 2a 2b 3e 24 6a f3 bd c1 82 49 bd
       -0.12428043 0.16715452 -0.11885479 -0.049196962
0003b0 1e 82 20 3e d3 d6 38 3e e2 ae f6 bc e9 18 83 bd
       0.15674636 0.18050699 -0.030112687 -0.064012356
0003c0 01 a4 68 bc 06 af 32 be 9f 37 be bd 66 30 72 3e
       -0.014199258 -0.17449579 -0.09287953 0.23651275
0003d0 46 da 50 3e 2e 0b 65 be dd 22 0a bc 2c 9c 20 be
       0.20395765 -0.22367546 -0.008431164 -0.15684575
0003e0 43 60 58 be 92 07 6f be cd 0f 0c be c4 a4 1a 3e
       -0.21130471 -0.23342732 -0.13677903 0.15101916
0003f0 2f 45 59 3e b9 89 0c 3d b9 6d 5e bb c4 03 32 3e
       0.21217798 0.03431103 -0.0033939912 0.17384249

bias f4 [16]
000000 fa 40 a6 3c 42 76 66 be a0 48 46 be ca 13 50 be
       0.020294655 -0.2250605 -0.19363642 -0.20320049
000010 64 2c 63 3e cb 6c 81 38 1b 8f 3e 3e 07 84 bf 3d
       0.22184902 6.1714636e-05 0.18609278 0.09351354
000020 f7 95 dc bc 09 f9 18 be c5 3a 8c bc 1f 36 37 be
       -0.026926978 -0.1493875 -0.017117867 -0.1789174
000030 09 df fb 3d 81 0b 2f 3d 64 08 a5 bd 7d 02 98 3c
       0.122984 0.04273558 -0.08058241 0.018555874

weight f4 [1, 16]
000000 d5 6c 57 3e 1d d5 40 be 20 22 4b bc 11 e7 ff bd
       0.2103761 -0.18831296 -0.012398273 -0.12495244
000010 db ce bb bd c8 17 df 3d a7 ec a0 3c ce ae dd bd
       -0.09170314 0.10893208 0.019644095 -0.10824357
000020 9a ca a1 3c f8 95 3b 3c f4 35 1d be 1d b5 05 3e
       0.019749928 0.01144933 -0.15352613 0.1305737
000030 21 89 1d 3e 87 0e 10 be 8f c4 4d be 53 95 4b be
       0.15384342 -0.14068042 -0.20094512 -0.19881181
