saved_models/pytorch_connect/saved_model_income18.pt (torch, 4554 bytes, 5 tensors)

layers.0.weight f4 [16, 8]
0	0x3e7dbc33	0.24778824
1	0xbdf7ea38	-0.121052206
2	0x3e3e3ca9	0.18577828
3	0xbe85a713	-0.2610403
4	0x3e8de0e7	0.2771065
5	0x3d4f38ff	0.050591465
6	0x3de8c686	0.1136599
7	0x3eb1708a	0.34656173
8	0xbda82918	-0.08210963
9	0x3c1224b2	0.008919882
10	0xbd8123fb	-0.06305691
11	0x3e9c2d4d	0.30503312
12	0xbe720736	-0.23635563
13	0xbe92709f	-0.28601548
14	0xbe44f38d	-0.19233532
15	0xbe8f71de	-0.2801656
16	0xbdaeb928	-0.085314095
17	0xbd2c9cb6	-0.04214164
18	0xbe5e007e	-0.21679875
19	0x3e7ecf9d	0.24883886
20	0x3dc570de	0.09640668
21	0xbda671b1	-0.08127154
22	0xbeaacbdc	-0.33358657
23	0x3b0b5415	0.0021259834
24	0x3e2d33f1	0.16914345
25	0xbeafbc8a	-0.3432353
26	0x3e2c4b0b	0.16825502
27	0x3ca9c37a	0.020723093
28	0xbe979fe4	-0.29614174
29	0x3ce5dda9	0.028059797
30	0xbe9f8400	-0.31155396
31	0x3e9f0aa1	0.31062797
32	0x3dae16a2	0.085004106
33	0xbe74d504	-0.23909384
34	0x3d4dba9a	0.050226785
35	0xbe96eba8	-0.29476666
36	0xbea1d601	-0.31608585
37	0x3d857635	0.06516687
38	0xbe897fc0	-0.26855278
39	0x3dbb2189	0.09137256
40	0x3d85a2c2	0.06525184
41	0xbe892988	-0.26789498
42	0xbb78c1a9	-0.0037957227
43	0x3e579b26	0.21055278
44	0x3ddd906a	0.108185604
45	0xbe5d944c	-0.21638602
46	0x3eaeb313	0.34120998
47	0x3e8f4c9c	0.27988136
48	0xbe31f5eb	-0.17378967
49	0xbe348d00	-0.17631912
50	0xbe60a392	-0.21937397
51	0x3d528568	0.051396757
52	0xbe97f55f	-0.2967939
53	0x3e2281f7	0.1586989
54	0xbe61ccfa	-0.22050849
55	0xbe8fadce	-0.2806229
56	0x3c631835	0.013860752
57	0xbc31315b	-0.01081499
58	0xbe5a5363	-0.21320872
59	0xbe149a34	-0.14511949
60	0xbe4217da	-0.18954411
61	0x3e908eee	0.28234047
62	0xbe205799	-0.15658416
63	0xbd00609a	-0.031342126
64	0xbe6f42e0	-0.23365355
65	0xbd1f56f8	-0.0389013
66	0x3e9b11c1	0.30286983
67	0xbe94f85d	-0.29095736
68	0xbeaee084	-0.34155667
69	0xbe64b646	-0.22335157
70	0xbe178f4c	-0.14800757
71	0x3db63f08	0.08898741
72	0xbe953835	-0.29144445
73	0x3ea7efdd	0.3280019
74	0x3e93fcd8	0.28903842
75	0xbe0a08ed	-0.13479967
76	0xbb84adf3	-0.0040490567
77	0x3e92b76a	0.2865556
78	0x3eaa0de3	0.3321372
79	0xbe9a1dc9	-0.3010085
80	0xbd535767	-0.051597025
81	0xbe97376d	-0.29534474
82	0x3e79f311	0.24409129
83	0xbdf560df	-0.11981367
84	0x3e99b723	0.30022535
85	0x3e1d402c	0.15356511
86	0xbe2a1339	-0.16608895
87	0xbeb2b3e2	-0.34902865
88	0xbe3bc072	-0.18335131
89	0x3dedae95	0.116055645
90	0xbe0f906f	-0.14019941
91	0xbde01716	-0.10941903
92	0xbe681787	-0.22665225
93	0x3da8acf6	0.08236115
94	0xbccc030d	-0.024903798
95	0x3e6c0544	0.23048884
96	0xbe8bd929	-0.27314118
97	0x3cffe456	0.031236809
98	0x3cd3368b	0.025782844
99	0xbe9fb27a	-0.31190854
100	0xbcb1ab41	-0.021688106
101	0x3e04b17a	0.12958327
102	0x3e9dd060	0.3082304
103	0x3e65db2b	0.22446887
104	0xbe8eaf2b	-0.27868018
105	0x3e1cf679	0.15328397
106	0x3e9537b5	0.29144064
107	0x3e1fee49	0.15618242
108	0xbd544e3a	-0.051832415
109	0xbc67c01e	-0.014144925
110	0xbe4497fb	-0.19198601
111	0x3e99f2dd	0.30068102
112	0xbe19e411	-0.15028407
113	0xbdff7281	-0.12473012
114	0xbdc68f5c	-0.096953124
115	0x3d2ad0aa	0.041702904
116	0x3e97a60b	0.29618868
117	0xbe388be8	-0.1802212
118	0x3ea94c1a	0.33065873
119	0x3d64af4e	0.055831246
120	0xbde9285b	-0.1138465
121	0x3e7cf954	0.24704486
122	0xbe5ca8ed	-0.21548815
123	0x3e00b52e	0.12569115
124	0x3e057cf2	0.13035944
125	0x3de50bd5	0.111838974
126	0xbe1af2d0	-0.15131688
127	0x3e9379f6	0.28803986

layers.0.bias f4 [16]
0	0x3eae346b	0.34024367
1	0xbcbccad6	-0.023045938
2	0xbe1176ae	-0.14205429
3	0x3dcbb4d2	0.09946598
4	0x3cff1963	0.031140035
5	0xbdac998d	-0.08427725
6	0xbe53a256	-0.20667395
7	0xbe8f4d76	-0.27988786
8	0xbe56fff8	-0.20996082
9	0xbd2d8b9c	-0.04236947
10	0x3c32fcde	0.010924546
11	0x3e6dcc24	0.23222405
12	0x3d0bfe7e	0.03417825
13	0x3e6ce32f	0.23133539
14	0xbbeb0a39	-0.0071728495
15	0x3e6a8576	0.22902474

layers.1.weight f4 [16, 16]
0	0xbe4b96ab	-0.19881694
1	0xbc837052	-0.01604477
2	0xbe2ec105	-0.17065819
3	0x3dee06a0	0.11622357
4	0x3d957c1d	0.07299063
5	0xbd996bfe	-0.07491301
6	0x3e3796b5	0.17928584
7	0x3e3af267	0.18256532
8	0xbe46f808	-0.19430554
9	0xbe1e94fb	-0.15486519
10	0xbbbc4d03	-0.005746485
11	0xbd04fd9c	-0.032468423
12	0xbe583e86	-0.21117601
13	0x3e81fa84	0.2538644
14	0x3ce96d2c	0.02849444
15	0xbdd81aee	-0.105520114
16	0xbe699a60	-0.22812796
17	0x3c6e1241	0.014530719
18	0xbdff8141	-0.12475825
19	0xbe374c3f	-0.1790018
20	0xbe07539e	-0.13215491
21	0x3e1ad592	0.15120533
22	0x3d82a8b7	0.06379836
23	0x3e722728	0.2364775
24	0xbdd44687	-0.103650145
25	0x3c9522ef	0.018205134
26	0x3e52f879	0.20602597
27	0x3e26740c	0.16255206
28	0xbd0ab6cb	-0.03386573
29	0x3e379155	0.17926534
30	0xbce9a5ca	-0.028521437
31	0x3dda8fec	0.10671982
32	0xbdea4747	-0.11439376
33	0x3def5fda	0.11688204
34	0x3dd612df	0.10452818
35	0x3e415ff6	0.18884262
36	0xbb892230	-0.0041849837
37	0x3b2817d2	0.0025648964
38	0x3e6f99d7	0.23398529
39	0xbe1be070	-0.15222335
40	0xbc80b634	-0.015711881
41	0x3db380c6	0.08764796
42	0x3e4f5bd0	0.20249867
43	0x3d71eb03	0.059062015
44	0xbe542929	-0.20718826
45	0x3e0a6d65	0.13518293
46	0x3e214531	0.1574905
47	0x3d3ec70d	0.04657655
48	0xbe431139	-0.19049539
49	0xbe55cd00	-0.20878983
50	0x3e81045e	0.25198644
51	0x3c6b7c4c	0.014372896
52	0x3df19107	0.1179524
53	0xbe3d4e0a	-0.18486801
54	0x3e612edf	0.21990536
55	0xbd260682	-0.04053355
56	0x3d7cd3ee	0.06172555
57	0xbdb103f4	-0.08643332
58	0xbdcf18c5	-0.10112146
59	0xbe278c59	-0.16362132
60	0xbc8201f0	-0.015870064
61	0xbe68cb2f	-0.22733758
62	0xbe351e6c	-0.17687386
63	0xbdc62155	-0.09674326
64	0xbe67bf3a	-0.22631541
65	0x3e63ec84	0.22258192
66	0x3e409042	0.1880503
67	0xbe669a2c	-0.2251975
68	0x3c114c6d	0.008868319
69	0xbd550c95	-0.052013952
70	0x3b3fedff	0.0029286144
71	0x3d8f4200	0.069950104
72	0xbcd89d07	-0.026442064
73	0xbe3f9d80	-0.18712425
74	0xbdf79941	-0.12089778
75	0xbd526ddf	-0.051374312
76	0x3d917184	0.071017295
77	0xbe4e9181	-0.20172693
78	0xbc83f8af	-0.016109793
79	0xbdee5048	-0.11636406
80	0xbe12f651	-0.14351775
81	0x3dfe7b1e	0.124258265
82	0xbb23c97d	-0.0024991923
83	0x3de61bff	0.112358086
84	0x3e2a810d	0.16650791
85	0xbe379c76	-0.17930779
86	0xbdc175dc	-0.09446308
87	0xbc197f38	-0.00936871
88	0xbdcd429c	-0.1002247
89	0x3c4fc03a	0.012680108
90	0xbd39b96d	-0.04534285
91	0x3e62f749	0.22164644
92	0xbdd298ed	-0.102830745
93	0x3e2b73e9	0.16743435
94	0xbe6a56cc	-0.22884673
95	0x3d311ef3	0.043242406
96	0x3e809163	0.2511092
97	0xbe1276a9	-0.14303078
98	0xbd5de331	-0.054171745
99	0x3e823fb9	0.25439242
100	0xbde4c019	-0.11169452
101	0x3e0b2047	0.13586532
102	0xbddc97cf	-0.10771143
103	0xbe71d418	-0.23616064
104	0xbe6641fe	-0.22486112
105	0xbe00e5b9	-0.12587632
106	0xbdbf4143	-0.093386196
107	0x3de28312	0.11060156
108	0x3e118e43	0.14214425
109	0x3e58074a	0.2109653
110	0x3db9f679	0.09080214
111	0xbc4213f6	-0.011845579
112	0xbe64a1cb	-0.22327344
113	0xbded23ed	-0.11579118
114	0x3e19e979	0.15030469
115	0x3dab97af	0.08378541
116	0xbe4f38d2	-0.20236519
117	0x3dbf1f43	0.093321346
118	0x3d54722e	0.051866703
119	0xbd6a8437	-0.057254996
120	0xbdc1f25e	-0.09470056
121	0xbe4cbbcf	-0.19993518
122	0xbd48a311	-0.048983637
123	0xbde01e7e	-0.10943316
124	0x3e7ab372	0.24482515
125	0x3dff36dc	0.124616355
126	0xbdaef7fa	-0.085433915
127	0x3e36dea1	0.17858364
128	0xbd5065ef	-0.05087846
129	0xbe54c405	-0.207779
130	0xbd32bf26	-0.043639325
131	0xbdc544f5	-0.09632293
132	0xbba27b3c	-0.0049585383
133	0x3e33f6dd	0.1757464
134	0x3d82f040	0.0639348
135	0xbceb185d	-0.02869814
136	0x3e53e2ac	0.20691937
137	0x3e4a03b2	0.19727972
138	0xbc94c820	-0.018161833
139	0xbd9092f5	-0.0705928
140	0x3d1c09bd	0.038095225
141	0xbe210900	-0.1572609
142	0xbe36b3d6	-0.1784204
143	0xbe7074c5	-0.23482044
144	0x3e1db721	0.1540189
145	0xbe242ec5	-0.16033466
146	0xbe3f2a99	-0.18668593
147	0xbe3dc8c0	-0.18533611
148	0xbdd54be1	-0.104148634
149	0xbdba1949	-0.09086854
150	0xbdcd0c60	-0.10012126
151	0x3e295a65	0.16538389
152	0x3e633f42	0.221921
153	0x3dd182a5	0.102299966
154	0xbe6c5c7a	-0.23082152
155	0xbc13b36c	-0.0090149455
156	0xbdc6c4fc	-0.097055405
157	0x3e6219e9	0.22080196
158	0xbe6c2ed3	-0.23064737
159	0xbd1327d6	-0.035926662
160	0xbe303505	-0.17207725
161	0x3e2786b8	0.16359985
162	0x3e167c3d	0.1469583
163	0x3cc337c6	0.023830306
164	0x3dcf7163	0.10129049
165	0xbe60d862	-0.21957543
166	0xbdc6814c	-0.0969263
167	0xbe1b8a17	-0.15189396
168	0x3ca18aa9	0.019719439
169	0x3cc32ca0	0.02382499
170	0xbe44e609	-0.19228376
171	0xbe205539	-0.1565751
172	0xbe2a61e8	-0.16638911
173	0xbe01b491	-0.12666537
174	0xbe70a73b	-0.23501293
175	0xbc299a39	-0.010351711
176	0x3d10e45c	0.03537403
177	0xbd01d350	-0.031695664
178	0xbc175890	-0.009237424
179	0xbe52a0f5	-0.20569213
180	0xbe77c9af	-0.2419803
181	0x3e7d39f3	0.24729137
182	0xbdd100cf	-0.10205232
183	0xbe3ccf96	-0.18438563
184	0x3c00892c	0.007845204
185	0xbe27ec80	-0.16398811
186	0x3d9e64d7	0.077340774
187	0x3dadd899	0.08488578
188	0x3ded0ada	0.115743354
189	0xbc8ca0fd	-0.017166609
190	0xbccd16d9	-0.025035309
191	0x3e440027	0.19140683
192	0x3dc33459	0.09531469
193	0x3e209c47	0.15684615
194	0x3cae398b	0.021267673
195	0xbdc81eff	-0.09771537
196	0x3c829485	0.01593996
197	0x3d17bd5b	0.037045818
198	0xbe19e7b1	-0.1502979
199	0xbd70e8ed	-0.058815885
200	0x3e719573	0.23592167
201	0xbd890d1d	-0.06691954
202	0x3d2535ce	0.040334515
203	0xbcf4cf83	-0.029884106
204	0xbde948d1	-0.11390842
205	0x3cc2e570	0.023791045
206	0x3d921c8e	0.071343526
207	0x3e345b42	0.17612937
208	0xbdb34eaf	-0.08755242
209	0x3e5880e9	0.21142925
210	0x3e558052	0.20849732
211	0xbd9895ff	-0.074504845
212	0x3cd3e1dd	0.025864536
213	0x3e186ccc	0.14885253
214	0x3b834dd0	0.0040070787
215	0xbe6ed719	-0.2332424
216	0x39ec5c1f	0.00045082063
217	0xbe3f6d13	-0.18693952
218	0x3d4b3356	0.049609505
219	0x3e5e942d	0.21736212
220	0xbe7682e7	-0.24073373
221	0x3e5f712a	0.21820512
222	0x3cab2ed8	0.02089636
223	0x3da66c10	0.0812608
224	0x3c1ab3bf	0.009442269
225	0x3e512118	0.2042278
226	0xbe13782f	-0.14401315
227	0x3e438003	0.19091801
228	0x3da0a844	0.07844594
229	0xbe4c626c	-0.1995942
230	0x3e1ae944	0.15128046
231	0x3c6c399d	0.014418033
232	0x3e238bbb	0.15971272
233	0xbdec01f7	-0.11523812
234	0x3e25a8a4	0.16177613
235	0x3e72290c	0.2364847
236	0xbe376967	-0.17911302
237	0x3e339dcb	0.17540662
238	0xbe8368d7	-0.25665924
239	0xbd5a4303	-0.053286564
240	0xbb4ba76e	-0.0031075138
241	0x3e1ffcc3	0.15623765
242	0xbe3f6a8b	-0.18692987
243	0xbcb6acbd	-0.022299165
244	0x3d090c83	0.033459198
245	0xbda389f6	-0.07985298
246	0x3d13a51c	0.036046132
247	0x3e39c8c8	0.18142998
248	0xbda58b3d	-0.08083198
249	0x3e17b8dc	0.14816612
250	0x3e037c58	0.12840402
251	0x3dd0c4b4	0.10193768
252	0x3c963a94	0.01833848
253	0xbdea9261	-0.11453701
254	0x3d88b74b	0.06675585
255	0xbd065442	-0.0327952

layers.1.bias f4 [16]
0	0x3c3f3c9b	0.011672164
1	0x3e6cadec	0.23113221
2	0x3e7124b8	0.23549163
3	0xbe7e732a	-0.24848619
4	0xbe67541d	-0.2259068
5	0xbe36fe99	-0.17870559
6	0x3e7e3e80	0.2482853
7	0x3ddfa4ae	0.10920082
8	0x3d818a95	0.063252605
9	0x3dac2320	0.08405137
10	0xbe5ceb65	-0.21574171
11	0x3d9fce86	0.07803063
12	0x3e4af3f2	0.1981962
13	0xbdef3915	-0.116808094
14	0x3dfe71dd	0.124240614
15	0x3d18fcd5	0.037350494

layers.2.weight f4 [1, 16]
0	0x3e240f2e	0.16021416
1	0x3dbf91ac	0.093539566
2	0x3d51d121	0.05122483
3	0x3e15166a	0.14559332
4	0xbd0a6fa0	-0.03379786
5	0x3d8a87b9	0.06764168
6	0xbe2e852c	-0.17042989
7	0xbdfa384d	-0.1221777
8	0xbe244290	-0.16041017
9	0x3d81b9b5	0.06334249
10	0x3e04257f	0.12904929
11	0xbd91934f	-0.07108175
12	0xbe46b7b1	-0.1940601
13	0x3b601894	0.0034194337
14	0xbe68ab3b	-0.22721569
15	0xbdf63d77	-0.12023442
