saved_models/pytorch_connect/saved_model_compas4.pt (torch, 4480 bytes, 5 tensors)

layers.0.weight f4 [16, 7]
0.18448985 0.21134304 -0.23308258 0.17510167 -0.19830647 0.015105658 0.12833726 -0.052704416
-0.046048008 0.3409368 -0.064492874 0.32429713 0.34865525 0.018966809 0.18620028 -0.030079424
0.072377756 -0.25237942 -0.30507773 -0.282557 0.20543805 -0.2761316 0.045554157 -0.32636368
-0.04243617 -0.35561815 -0.31448904 0.11253084 -0.31591877 0.3553081 0.24605139 -0.05362948
-0.18195954 -0.20839375 0.37622535 0.14272831 -0.2722327 -0.17001598 0.18155691 -0.070398055
-0.23603652 -0.117203005 0.05432506 0.13056596 -0.36738488 0.15928946 0.22382659 -0.0018914118
0.17153102 -0.13036248 -0.36804086 0.013642449 -0.015506593 -0.07109677 0.3497512 -0.18560842
0.21238536 0.2960296 0.14271846 0.14782847 -0.031198058 0.007912837 0.06808304 0.26683414
-0.34627026 0.15747933 -0.36408016 -0.026387189 -0.23040362 0.13447446 0.15560855 0.20383567
0.15462793 0.096195206 -0.10062409 -0.28898782 -0.23583029 0.2821368 0.012502416 -0.3021742
-0.024372818 0.0806596 -0.33196005 0.12265728 -0.12155814 0.35167068 0.3539495 0.0780906
0.16168895 -0.20750847 -0.31243303 -0.2693874 0.15898645 -0.0393211 -0.19337456 0.32932073
-0.3089759 -0.06753584 -0.361227 -0.03144302 0.26595497 -0.2880961 -0.10921481 -0.1349856
0.034695305 -0.089201026 -0.1354879 0.1726387 0.022596546 0.12931438 -0.20742173 0.05487121
00000000: e8ea 3c3e 4f6a 583e 33ad 6ebe da4d 333e
00000010: da10 4bbe b97d 773c d86a 033e 96e0 57bd
00000020: d69c 3cbd 458f ae3e d714 84bd 460a a63e
00000030: f182 b23e 4860 9b3c 49ab 3e3e 2069 f6bc
00000040: ca3a 943d e037 81be 2633 9cbe 50ab 90be
00000050: 5a5e 523e 1f61 8dbe ff96 3a3d 2419 a7be
00000060: 8dd1 2dbd 9513 b6be b504 a1be 9276 e63d
00000070: 1bc0 a1be f1ea b53e e5f4 7b3e 96aa 5bbd
00000080: 9a53 3abe 2c65 55be 9ca0 c03e 5f27 123e
00000090: 1662 8bbe ab18 2ebe 0eea 393e db2c 90bd
000000a0: 8fb3 71be 2108 f0bd f483 5e3d 15b3 053e
000000b0: df19 bcbe c71c 233e cc32 653e 40e9 f7ba
000000c0: d4a5 2f3e be7d 05be da6f bcbe 9484 5f3c
000000d0: 5d0f 7ebc 2f9b 91bd 9712 b33e 2210 3ebe
000000e0: 8c7b 593e 3191 973e ca24 123e 5960 173e
000000f0: 1293 ffbc d8a4 013c 1f6f 8b3d 7c9e 883e
00000100: 564a b1be 4342 213e b768 babe f229 d8bc
00000110: edee 6bbe acb3 093e d957 1f3e 4cba 503e
00000120: c956 1e3e fe01 c53d 0114 cebd 36f6 93be
00000130: 7f7d 71be 3c74 903e efd6 4c3c 94b6 9abe
00000140: 81a9 c7bc dc30 a53d abf6 a9be bd33 fb3d
00000150: 79f3 f8bd 2e0e b43e de38 b53e f7ed 9f3d
00000160: ca91 253e 1a7d 54be 39f7 9fbe 25ed 89be
00000170: 58cd 223e 290f 21bd fb03 46be ba9c a83e
00000180: 1732 9ebe 3b50 8abd bff2 b8be 65ca 00bd
00000190: 402b 883e 5581 93be 04ac dfbd aa39 0abe
000001a0: aa1c 0e3d 07af b6bd 57bd 0abe 33c8 303e
000001b0: 641c b93c fd6a 043e 5d66 54be a2c0 603d

layers.0.bias f4 [16]
-0.14703697 0.35079908 -0.16822012 0.15769807 -0.23777667 -0.0029400564 -0.13626519 -0.34975916
-0.07325543 -0.3495737 -0.12393923 0.0072158123 -0.35405943 -0.048331495 -0.027544113 0.10411561
00000000: dc90 16be f09b b33e e541 2cbe 9a7b 213e
00000010: ba7b 73be f6ad 40bb 1a89 0bbe a213 b3be
00000020: f106 96bd 53fb b2be dad3 fdbd 9f72 ec3b
00000030: 4747 b5be 3ff7 45bd 31a4 e1bc 913a d53d

layers.1.weight f4 [16, 16]
0.035174157 -0.18812355 -0.029556701 -0.01680229 -0.12705614 -0.21834926 -0.16205408 -0.002994787
-0.2350269 0.16335383 0.1376594 0.15236364 -0.10601808 0.21303314 -0.034312207 -0.13013114
-0.10432088 -0.13144219 -0.05203077 -0.12998387 0.05983826 0.07642859 0.053406887 -0.16491526
0.12043197 -0.12375128 -0.06473116 -0.20008428 0.061746307 0.18408753 -0.06719593 -0.080029204
-0.049514815 0.063724466 0.23484355 -0.1366783 -0.0022838153 0.24812357 -0.22966442 0.24996166
-0.14569646 0.22307143 0.14662044 -0.11506594 -0.01815297 0.15805617 -0.0011169148 0.18056983
-0.118551254 0.19897367 0.13029951 -0.12995017 0.17863184 0.11915459 0.12731013 -0.2411946
-0.1979386 0.23714894 -0.2259741 -0.12761718 0.2195976 -0.0069507984 0.2514726 -0.1365499
-0.14978556 0.19334069 0.03868652 0.045824382 0.19010791 -0.17823769 0.0010619155 0.01786675
-0.24343798 0.20858502 0.008915835 0.0790531 0.067274906 0.1758303 -0.04186956 -0.029051447
0.23709737 -0.20179424 0.2006539 0.10596457 0.10720554 0.21411693 -0.0062841047 -0.24105382
0.04029698 0.249368 0.09247998 0.12557365 0.10731464 -0.045123678 0.17010248 -0.1320185
-0.025114674 0.04416038 0.021241603 -0.15991703 0.044972364 0.10502026 -0.15279044 0.24612793
0.19687188 -0.1063141 -0.11522628 -0.15475956 0.13049309 -0.21268952 0.15588778 -0.2496726
0.1665515 -0.1038146 -0.03227631 0.049135756 -0.23407058 0.00029815277 -0.05210228 -0.04036989
-0.0062216744 0.071581505 -0.040435772 0.015752057 -0.03771709 -0.24944659 0.13474031 -0.07150474
0.1406163 -0.04741936 -0.21849619 -0.024083411 0.03783621 0.04617176 -0.06625991 -0.12916936
0.19601196 0.074307315 -0.23096745 0.06268355 -0.188234 -0.20660175 0.05082506 0.033585064
-0.16471715 0.018677704 -0.13857429 0.22121376 -0.20853929 0.19456658 0.13269947 -0.15399024
0.23337759 -0.053715896 -0.1858447 -0.14698662 0.13531168 0.071461365 -0.046272658 0.11219345
0.04454446 -0.11438078 -0.15353143 0.2158739 -0.094329625 -0.1700176 -0.016307384 0.042871
-0.018781245 -0.18090424 -0.019993126 -0.0343661 0.060552567 -0.16757104 -0.0010815859 -0.21380764
-0.23180352 0.10970511 0.08514225 0.105137184 -0.19203018 -0.16676594 0.13965628 -0.07887926
-0.030793715 -0.17388678 -0.06769322 0.07059789 -0.16598067 0.12934697 0.050007194 -0.12042213
-0.061944537 -0.06639836 -0.13068482 0.029552199 -0.07010312 0.1367893 0.12410766 0.19557448
0.18366475 -0.14299667 0.049714737 -0.0036215235 -0.04827217 -0.22281443 -0.121639304 -0.17767365
0.12576234 0.15705533 -0.23759909 -0.09280094 -0.033400785 0.17665227 0.0052135917 -0.1169988
0.18792532 -0.19349816 -0.040332153 0.13356449 -0.06991897 -0.11687343 -0.21499962 -0.16102982
-0.19243768 0.021507178 -0.02659813 -0.03649419 -0.17013155 -0.044445455 -0.18831165 0.17469248
0.1952411 -0.17041181 0.07302151 -0.06461045 -0.14552465 0.23696907 -0.1147089 -0.18561925
0.14850715 0.16246483 0.05552035 0.17763776 -0.196224 -0.017993748 -0.23796724 0.14584398
0.023997901 -0.051115207 -0.16467693 -0.07749448 0.22043854 0.10370643 0.05729374 -0.16343436
00000000: c712 103d 76a3 40be e520 f2bc f5a4 89bc
00000010: 011b 02be f396 5fbe 81f1 25be 3044 44bb
00000020: e4aa 70be 3a46 273e 96f6 0c3e 3705 1c3e
00000030: 0220 d9bd 5c25 5a3e f58a 0cbd 1941 05be
00000040: 2fa6 d5bd c898 06be 371e 55bd 7e1a 05be
00000050: f718 753d 9886 9c3d 2ec1 5a3d 8cdf 28be
00000060: 09a5 f63d 5071 fdbd c591 84bd e5e2 4cbe
00000070: b2e9 7c3d 7181 3c3e 059e 89bd 5ae6 a3bd
00000080: 0cd0 4abd f981 823d d47a 703e 65f5 0bbe
00000090: 10ac 15bb 1b14 7e3e 262d 6bbe f3f5 7f3e
000000a0: 7431 15be d66c 643e ab23 163e b1a7 ebbd
000000b0: 8ab5 94bc 7ad9 213e 7165 92ba 4ce7 383e
000000c0: 00cb f2bd c1bf 4b3e 3c6d 053e a811 05be
000000d0: 44eb 363e 5207 f43d 965d 023e b8fb 76be
000000e0: 6bb0 4abe 2cd7 723e c165 67be 14ae 02be
000000f0: 31de 603e 86c3 e3bb 04c1 803e bdd3 0bbe
00000100: 6361 19be 1afb 453e c275 1e3d 59b2 3b3d
00000110: a6ab 423e f183 36be f92f 8b3a 4a5d 923c
00000120: ce47 79be 5097 553e b913 123c 97e6 a13d
00000130: 6dc7 893d dc0c 343e 6a7f 2bbd 4dfd edbc
00000140: a7c9 723e 26a3 4ebe 3778 4d3e f403 d93d
00000150: 948e db3d 7841 5b3e e4ea cdbb d0d6 76be
00000160: 720e 253d 535a 7f3e 2566 bd3d 6196 003e
00000170: c7c7 db3d 9bd3 38bd 582f 2e3e dc2f 07be
00000180: 4abd cdbc 84e1 343d df02 ae3c 4ac1 23be
00000190: f134 383d dd14 d73d 1975 1cbe f608 7c3e
000001a0: c898 493e 35bb d9bd c2fb ebbd 4a79 1ebe
000001b0: fb9f 053e 48cb 59be 0ca1 1f3e 2daa 7fbe
000001c0: 7a8c 2a3e c09c d4bd 2a34 04bd 9342 493d
000001d0: 33b0 6fbe 6351 9c39 3369 55bd e65a 25bd
000001e0: 30df cbbb 5399 923d fb9f 25bd 750a 813c
000001f0: 3c7d 1abd ed6e 7fbe 5df9 093e 1471 92bd
00000200: b8fd 0f3e ce3a 42bd 77bd 5fbe 934a c5bc
00000210: 24fa 1a3d 991e 3d3d 47b3 87bd f944 04be
00000220: 5cb7 483e 6f2e 983d bb82 6cbe 3c60 803d
00000230: 6ac0 40be 698f 53be f02d 503d 7e90 093d
00000240: 9dab 28be fc01 993c 6be6 0dbe dc85 623e
00000250: 538b 55be 763c 473e 5fe2 073e 9eaf 1dbe
00000260: 89fa 6e3e 3305 5cbd 134e 3ebe a983 16be
00000270: 258f 0a3e 565a 923d 6688 3dbd aec5 e53d
00000280: 4074 363d 7840 eabd 5837 1dbe 0c0e 5d3e
00000290: e42f c1bd 1819 2ebe 1097 85bc 8099 2f3d
000002a0: 20db 99bc f63e 39be a0c8 a3bc 78c3 0cbd
000002b0: f805 783d be97 2bbe 00c4 8dba 64f0 5abe
000002c0: e75d 6dbe 13ad e03d 0f5f ae3d 2a52 d73d
000002d0: 8fa3 44be b1c4 2abe 0e02 0f3e 738b a1bd
000002e0: 1a43 fcbc 600f 32be bea2 8abd a095 903d
000002f0: d6f6 29be 8873 043e 58d4 4c3d e19f f6bd
00000300: 8eb9 7dbd ddfb 87bd 3ed2 05be 7417 f23c
00000310: 3992 8fbd 7f12 0c3e 282c fe3d ad44 483e
00000320: 9d12 3c3e b86d 12be aea1 4b3d 1557 6dbb
00000330: 0ab9 45bd 7729 64be 071e f9bd 15f0 35be
00000340: d8c7 003e 1dd3 203e 2d4d 73be 6b0e bebd
00000350: 43cf 08bd 55e4 343e c7d6 aa3b 119d efbd
00000360: 7f6f 403e 6224 46be 5433 25bd 21c5 083e
00000370: ad31 8fbd 565b efbd dc28 5cbe 00e5 24be
00000380: 620e 45be d22f b03c 52e4 d9bc ef7a 15bd
00000390: f736 2ebe 700c 36bd c5d4 40be 96e2 323e
000003a0: 48ed 473e 6f80 2ebe 4d8c 953d 7c52 84bd
000003b0: 6a04 15be 05a8 723e 80ec eabd f912 3ebe
000003c0: 4212 183e 2e5d 263e 4e69 633d ace6 353e
000003d0: f2ee 48be a067 93bc afad 73be 2058 153e
000003e0: 3f97 c43c 2e5e 51bd 12a1 28be 6db5 9ebd
000003f0: a4ba 613e 0964 d43d d7ac 6a3d 565b 27be

layers.1.bias f4 [16]
-0.079175495 -0.021074181 0.08648179 0.12542509 0.25000238 -0.20546363 0.15391809 -0.032611195
-0.000252297 0.04551645 -0.21056381 -0.0024414682 0.14452404 0.11019722 0.14081772 0.07355927
00000000: c326 a2bd c3a3 acbc 5d1d b13d 6f6f 003e
00000010: 5000 803e 0f65 52be b49c 1d3e 5193 05bd
00000020: bb46 84b9 756f 3a3d 0a9e 57be 0a01 20bb
00000030: 1cfe 133e 15af e13d 8532 103e 3ea6 963d

layers.2.weight f4 [1, 16]
-0.04218931 -0.047940552 0.121212766 0.19974492 -0.23704359 -0.1983774 -0.14934218 0.242092
-0.24068835 -0.011150289 -0.020464897 0.11318593 0.038503412 0.19140469 0.043945234 0.15410449
00000000: b3ce 2cbd 505d 44bd 663e f83d ef89 4c3e
00000010: 8ebb 72be 7223 4bbe 28ed 18be f7e6 773e
00000020: 0277 76be b4af 36bc 00a6 a7bc 06ce e73d
00000030: c1b5 1d3d 97ff 433e ebff 333d 91cd 1d3e
