saved_models/pytorch_connect/saved_model_income11.pt (torch, 4554 bytes, 5 tensors)

layers.0.weight f4 [16, 8]
00000000: cee8 a83e 8542 15be 015f a23d 73bd 7ebe
00000010: a9c6 66be e721 9b3e cecf 84bd 40a5 8ebe
00000020: bd9b 4c3d 3b3d 53be aa3a 9c3d 0ce3 6b3e
00000030: 6eff fa3d 2c44 1fbd fbd9 a2be 1362 8b3e
00000040: c4e5 3bbe 6e46 56be 0a88 eb3d 52ca 003e
00000050: b435 8d3e 3fb2 4fbe 5abf 123d d921 08be
00000060: 9fba bf3d 0f79 9cbe ce74 363e 5549 adbe
00000070: 541d b03d 714e b1bc f04f 2b3e 4708 86be
00000080: 9b52 a83e 0628 993e 092f 93be fa55 9fbe
00000090: 95e1 9fbe f2f3 5ebe 848b a6be 75a1 1cbe
000000a0: 68de 133e cba2 87be 0358 c7bd d83c 5fbe
000000b0: 12bd a4bd a970 b13e e9c6 303e 1679 ac3e
000000c0: 492d 883c d5b4 983e 6cf3 853e a99f c9bd
000000d0: 292f 91be 7c01 783d 0336 9f3e 5d2d 9a3e
000000e0: 1be7 3ebd b20d 963e 1c4d 87be a0b3 233e
000000f0: 8de5 89be 0290 46be 74f1 a53e 29a6 4cbe
00000100: 9501 393e 2d6d 023e 5dac 4c3c ed5c 56bd
00000110: 2b66 453e 5063 18be 62c1 a6be 5b15 53bd
00000120: 7a42 133e 0bf4 333e 4665 833e 812a b23e
00000130: 6401 8d3e 4ed5 1d3d c8ad 1abd 90d4 443e
00000140: c9f5 8c3d bb3e aebe 9c40 673e 8303 1b3e
00000150: 9622 1d3c 0349 873e 0d19 ac3e 2819 8fbe
00000160: 7e26 a5be 01c4 a73c 2fc1 06be 841a a83e
00000170: b1f0 8bbe 54b7 0a3d 5e82 afbe d27d a4be
00000180: 3c78 b33e c8f7 b03e ffb6 8e3d 342b e03d
00000190: e6bf 36be c155 49be 3ff6 9e3d d9fb 983e
000001a0: 7400 b03e cf3c b03d f762 91bc 6695 63be
000001b0: b055 7dbe f338 5ebd 3a39 1bbe 5c66 a33e
000001c0: 5f76 843c 1458 a7be 5278 a0bd f331 973d
000001d0: 6f2e a73d a074 04be a825 943e 296b 8ebd
000001e0: 3176 8c3e b792 483e 5ad6 84bd 4066 d33d
000001f0: 295b 833e dafd 9ebc 3491 aa3e cf80 86bd
0.32990116 -0.14576156 0.07928277 -0.24876957 -0.2253672 0.30299303 -0.06484948 -0.2786045
0.04995321 -0.20628826 0.07628377 0.2303583 0.122557506 -0.038883373 -0.3180693 0.27223262
-0.18349367 -0.20925304 0.11500557 0.12577179 0.27580035 -0.20282839 0.03582702 -0.13294162
0.09361767 -0.3056111 0.17817995 -0.3384501 0.08599344 -0.02164385 0.16729712 -0.2617819
0.32875523 0.29913348 -0.28746822 -0.31120282 -0.31226793 -0.21772745 -0.32528317 -0.15295966
0.1444031 -0.2649139 -0.09733584 -0.21800554 -0.08043875 0.34656265 0.17263378 0.3368613
0.016623156 0.29825464 0.2616228 -0.09844906 -0.28356293 0.06054829 0.31095895 0.30112734
-0.046607118 0.29307324 -0.26426017 0.1598649 -0.26932946 -0.19390872 0.32410777 -0.1998526
0.1806701 0.1273696 0.0124922665 -0.052334715 0.19277255 -0.14881635 -0.32569414 -0.051534038
0.14380828 0.17573564 0.25663203 0.34798053 0.27540123 0.0385335 -0.037763387 0.19221711
0.06882817 -0.34032235 0.2258324 0.15138058 0.009590765 0.2642289 0.33612862 -0.2794888
-0.3225593 0.020479204 -0.13159631 0.3283273 -0.2733207 0.03386624 -0.3427915 -0.32127243
0.3505267 0.34564042 0.069684975 0.1094574 -0.17846641 -0.19661619 0.077618115 0.29879645
0.34375346 0.08605348 -0.017747385 -0.2222496 -0.24739718 -0.05425353 -0.15158549 0.31914032
0.016169725 -0.32684386 -0.07835449 0.07382574 0.081631534 -0.12935114 0.2893498 -0.06954033
0.27433923 0.19587217 -0.06486197 0.10322237 0.25655487 -0.019408155 0.33313906 -0.06567537

layers.0.bias f4 [16]
00000000: a24b a43e 026b dcbd 0c55 24be 0cc8 aa3d
00000010: 3483 b8bd 8f17 c83d 6872 fe3d 0cf4 a9be
00000020: 0eb4 463d 3bff 563d 8695 573e 8dbc 8fbe
00000030: 730b 953e 671a 8dbe 5e12 aebe d516 24be
0.32088953 -0.107625976 -0.16048068 0.08338937 -0.090094 0.097701184 0.12424165 -0.33194005
0.048511557 0.0524895 0.21053132 -0.2807354 0.29110298 -0.27559206 -0.33998388 -0.16024335

layers.1.weight f4 [16, 16]
00000000: 1b91 713d 55e0 413e 5893 6b3e e588 aa3c
00000010: 7484 5d3e 0f6c 90bd 1309 743e bfcd 36be
00000020: 61dd 413e 97c3 5fbb 02bd d03d de01 8e3c
00000030: fef1 853c e1a9 78bd 76ab 783e 9544 00be
00000040: 8f24 2dbe b737 4a3e 6ca2 d63d fbbf b7bd
00000050: d3ea 833d 025f af3d b7b1 52bc 8f0d 503e
00000060: 174a f3bc 792f 523d 217a 3a3e b762 c93d
00000070: 7217 4dbe d6db 443d de48 89bc f394 003e
00000080: b20c 8d3d 084b 29be 6e54 15be 0675 153e
00000090: dd53 b3ba c69b c73d 19d1 e9bd bbdf 2abd
000000a0: d3d3 6fbe ef1c 393e 515e 6b3e 56a4 353e
000000b0: 622e 053c d6b3 2ebd 274f 47be 028c 573e
000000c0: 629f d73c 7965 5cbb 3784 1a3d 64e8 5abe
000000d0: 3b85 0e3a f9a5 40be ba8f 673e 7b79 923d
000000e0: 08c9 07be f503 213e 99e1 733e c812 593d
000000f0: 81b7 0b3e 8a1c 913d 09f1 2cbe 5882 323e
00000100: 0031 6cbe 0389 d93d 5cbe 7c3d 1e42 e93a
00000110: dc7a aabd 2c01 f5bd 0323 5c3e 4e39 1dbb
00000120: 7de5 51be eb6b 223d b3c2 04be 6cc5 0bbe
00000130: e14f 4e3e 6d0b 75be 34a6 1ebd b13d 783e
00000140: fcfa f4bd 2948 82bd 0afa 21be 5c7e 0bbe
00000150: 60c1 d63c 76f2 3e3e 2dfb 0abe d8f5 343e
00000160: 1086 b2bd 9eb7 4ebe f4fe f9bd 00e1 893b
00000170: 6190 03bc 9cf6 c5bd 80d1 f43c 0080 6abc
00000180: 8d45 f0bd 7710 8dbd e785 013e 101c 6fbe
00000190: ec1e 183e a89d 6cbe e33b 47be 294a 113e
000001a0: 8063 3fbe cad3 d7bd dfa5 373a 9c31 383e
000001b0: 60c8 95bd 8f83 1c3e c361 48be f74c 2bbe
000001c0: 3861 f13c 7073 503e 051e 3bbe 8d20 10bd
000001d0: 956c 21bd d185 d53c 4da5 d23d ef1e 40be
000001e0: 0d96 08be e146 b53d 1559 15bd 91ad 123d
000001f0: 0732 31bc 84bd 2a3e 683e 383e b9c7 45be
00000200: d8b1 40be 49ba 073e 533e c33c 1fa1 8d3a
00000210: ba7b 4fbe 675f 05be b3dd 83bd 61bc e43d
00000220: 34dd 723e d5bf 053e 1807 1e3e 2d29 473e
00000230: 3cdd bb3d e30b 52bd a46d b0bc f8b9 b8bd
00000240: e485 ff3d 7e18 07be 99a2 f23d 4039 7b3e
00000250: 84cf 07be a81c 11be 4733 43be 4986 0f3c
00000260: cf83 83bd 2837 5dbe 482f 38be 6450 0bbe
00000270: e34e 4a3e aff7 7e3e adfa 9a3d f454 2d3d
00000280: 7f43 6c3d c9cd 683c 8b24 6fba a4ee 64be
00000290: c8a5 603e b739 5b3d 9c40 76bd 7d7e 8dbc
000002a0: d761 703e c70d db3b a00b 32be b08e bc3d
000002b0: 7970 043e 31c3 2abe 864e 17bd d0f2 debc
000002c0: ca2f 413e 13de ef3d d7d5 79be 8d8a 70bd
000002d0: 7144 debd 8cef 73be 1ec4 7ebd 4ea3 523e
000002e0: bec1 183e f3da 30be 2769 313e 0a07 f1bc
000002f0: 84e7 1abe 9844 143e d836 6d3e 7399 683e
00000300: 4b38 3a3e e5a1 a1bd f61f 683e d557 25be
00000310: 0124 2c3e d3f0 71be 885c 5c3e e7a0 b1bd
00000320: 8b90 403e 7a75 18be ec89 913d f936 803d
00000330: f309 55be 87bc 50be 3578 99bd 76de a53d
00000340: cf76 0cbe 17ac 29be 3add 653e 2a26 b7bd
00000350: 64e4 f03d e2d2 5dbc 3d4f 36be e5bd 453e
00000360: 3a82 0abe 500b 113e 10e8 73be 30dd 43be
00000370: 807c 27be 8a8e 0abd 1e2b 7fbe 1962 0d3e
00000380: 3ef1 7a3e 2578 093e bcc2 a6bc e8e8 303e
00000390: 699e 03be ee4a 88bd dca7 0abe 2a55 e13d
000003a0: 79c0 c33d 1101 2dbe 1442 dc3d 94a4 85bd
000003b0: ed18 0cbe 980b 16be 6fd7 373d 2e97 fb3c
000003c0: 4427 0dbe 3e6b 5ebe 6de7 eabd 5745 e33d
000003d0: 4178 623d e688 a7bd 985e 213e ffae f3ba
000003e0: 6716 74be cb00 2f3c 7123 00be 9b2c efbd
000003f0: 33b3 ac3d aed0 e4bd f726 0dbd fbfd 46be
0.058976274 0.18933232 0.23005426 0.02081723 0.21632558 -0.070518605 0.23831587 -0.17851923
0.18932106 -0.003414368 0.101923004 0.017334875 0.016350742 -0.060708884 0.24284157 -0.12526162
-0.16908477 0.19747816 0.10480198 -0.08972164 0.064412735 0.08563043 -0.012859753 0.20317672
-0.029698415 0.051314805 0.18210651 0.098332815 -0.20028475 0.048061214 -0.016758379 0.1255682
0.06887187 -0.16532528 -0.14582989 0.14595422 -0.0013681609 0.09746508 -0.11416835 -0.041717272
-0.23420648 0.18077444 0.22985198 0.1773847 0.008128734 -0.042651974 -0.19463788 0.21049502
0.026321117 -0.0033629818 0.037723746 -0.21377712 0.0005436723 -0.18813314 0.22613421 0.07152077
-0.13260281 0.15724166 0.23816527 0.052996427 0.1364422 0.070855215 -0.16888823 0.17432535
-0.23065567 0.10621836 0.06170498 0.0017796194 -0.08324215 -0.11963114 0.21497731 -0.0023990455
-0.20497699 0.0396537 -0.12964897 -0.13649529 0.20147659 -0.2393014 -0.038732722 0.24242283
-0.11961934 -0.0636142 -0.15818039 -0.13622421 0.026215255 0.18647179 -0.13572378 0.17671907
-0.08716977 -0.20187232 -0.122068316 0.0042077303 -0.008030028 -0.09666178 0.029885054 -0.014312744
-0.11732016 -0.06887906 0.12648736 -0.23350549 0.14855546 -0.23107016 -0.19456439 0.14188446
-0.186903 -0.105384424 0.0007005613 0.17987674 -0.07313609 0.1528456 -0.19568543 -0.16728579
0.029465303 0.20356536 -0.1827317 -0.035187293 -0.039410193 0.026064785 0.10285435 -0.187618
-0.1333849 0.0885141 -0.03646191 0.035810057 -0.01081515 0.16673857 0.17992556 -0.1931447
-0.18817842 0.13254656 0.02383343 0.0010805464 -0.20262042 -0.13024674 -0.0643877 0.11168743
0.23717195 0.1306146 0.15432394 0.19449301 0.091730565 -0.051280867 -0.021536656 -0.09019846
0.124767095 -0.13192937 0.11847419 0.24533558 -0.13262755 -0.14171088 -0.1906253 0.008760043
-0.06421625 -0.21603072 -0.17986786 -0.13604885 0.19756655 0.24899171 0.07567344 0.042317346
0.057681557 0.014209219 -0.0009122572 -0.22356659 0.2193824 0.053521838 -0.06012021 -0.017272228
0.23474823 0.006684992 -0.17387247 0.09206903 0.1293353 -0.16676022 -0.03694012 -0.027215391
0.18865886 0.11712279 -0.2439798 -0.058725882 -0.10852898 -0.23821849 -0.06219875 0.20570108
0.14917657 -0.17271022 0.17325269 -0.029422302 -0.15127379 0.14479291 0.23165452 0.22714786
0.18185537 -0.07892207 0.22668442 -0.16146787 0.1681061 -0.23627023 0.21519673 -0.08673268
0.18805139 -0.14888564 0.07106385 0.06260485 -0.20804577 -0.20384417 -0.07493631 0.08099072
-0.13717197 -0.16569553 0.22447672 -0.08942826 0.11762312 -0.013539048 -0.17803665 0.1931072
-0.1352624 0.14164472 -0.23818994 -0.19127345 -0.16356087 -0.033827342 -0.24918792 0.13806953
0.24506089 0.13424738 -0.020356528 0.17276347 -0.12853397 -0.06654917 -0.13540596 0.11002572
0.095581956 -0.16894938 0.10754791 -0.065255314 -0.13681383 -0.1465286 0.044883188 0.030711737
-0.1378451 -0.21720597 -0.11469922 0.1109721 0.055290464 -0.08180408 0.15758741 -0.0018591582
-0.23836671 0.010681341 -0.1251352 -0.1167843 0.08432617 -0.11172615 -0.034460988 -0.19432823

layers.1.bias f4 [16]
00000000: f571 4cbe f9c3 273e b66e 74be 2ddc 24be
00000010: 94ff d63d 3eae 2ebe c5f2 01be b259 673d
00000020: e61a 67be 29e3 383e 43f3 26be 463c cfbd
00000030: e404 3cbe 3ee8 7e3e 0296 2cbe edef c23c
-0.19965346 0.16383351 -0.23870358 -0.16099615 0.104979664 -0.17058656 -0.12690265 0.056482024
-0.22568855 0.18055405 -0.16303734 -0.10118918 -0.1836124 0.24893281 -0.16854098 0.023796046

layers.2.weight f4 [1, 16]
00000000: 6567 b03d caa7 0fbe 4cb8 2ebd 1057 b23d
00000010: e925 9fbb 2935 97bd f1b1 62bc 4b6b 01be
00000020: 0bb3 5e3e bc3f fe3d 932c 6b3e 7147 303e
00000030: fd08 31be 7827 dfbd 72ed 81bd fab8 54be
0.08613471 -0.1402885 -0.042656228 0.08708012 -0.004856814 -0.07383186 -0.01383637 -0.12638585
0.21747987 0.124145 0.22966222 0.17214753 -0.17288585 -0.108962 -0.06344117 -0.20773688
