saved_models/pytorch_connect/saved_model_income11.pt (torch, 4554 bytes, 5 tensors)

layers.0.weight f4 [16, 8]
0.2313404 0.13269375 -0.30892593 -0.014537743 -0.30243993 -0.044387214 -0.18035762 -0.013836742
0.09677776 -0.21073431 -0.033284225 -0.21397717 -0.21950889 -0.34548634 0.09663748 -0.15742943
-0.21304443 -0.30414063 -0.22254454 -0.078150466 0.33795866 0.26378772 -0.34532046 -0.09214639
-0.09706506 0.039011758 -0.21694456 0.21547915 0.24072568 -0.2418286 -0.045351688 -0.12605083
-0.11958331 -0.24517305 -0.27943236 -0.07324887 0.123454325 -0.2130906 0.13163054 0.05679518
0.31054747 0.34636912 -0.25768703 -0.052968536 0.073412225 -0.03782259 0.077054106 -0.1076771
-0.26981544 -0.20856702 0.19898617 -0.10035984 0.1928528 0.19676362 0.18326172 0.22408356
0.23782954 -0.27680528 -0.28075346 -0.1295204 -0.051976435 0.11890034 -0.07974893 0.2511911
0.17061162 -0.036269803 0.16506933 -0.016095616 0.020562299 -0.07166245 0.016765993 -0.022577818
-0.14807661 0.2353197 -0.24213977 -0.3275414 0.29165387 0.34833184 0.08487039 0.049452372
0.29241017 0.15255651 -0.325147 0.05288045 0.18972076 0.30694926 0.1711062 -0.091751404
-0.2047352 -0.18829529 -0.1034824 -0.36258712 0.2085249 -0.11461933 0.14317647 -0.17946208
-0.181209 0.20996743 -0.030733427 -0.054016422 0.29697973 -0.28800213 0.2641173 -0.053799715
0.098703235 0.30166265 -0.03648823 0.2829686 -0.016249614 0.009583195 -0.050038207 0.020591924
-0.3095893 0.27994 0.35029396 -0.1564108 -0.24605934 0.1001965 -0.17192711 -0.09690389
0.115552954 0.3182168 -0.36970413 -0.21161595 -0.039474327 -0.2473302 0.2397203 0.2579304
00000000: 7fe4 6c3e dfe0 073e 8a2b 9ebe b72f 6ebc
00000010: 68d9 9abe 5ecf 35bd abaf 38be 81b3 62bc
00000020: 6b33 c63d bcca 57be 0a55 08bd d51c 5bbe
00000030: f0c6 60be 96e3 b0be dfe9 c53d 2e35 21be
00000040: 5228 5abe 52b8 9bbe b7e2 63be 5a0d a0bd
00000050: eb08 ad3e 2f0f 873e d8cd b0be 3fb7 bcbd
00000060: 0cca c6bd cbca 1f3d b726 5ebe 91a6 5c3e
00000070: cb80 763e eba1 77be b1c2 39bd 7813 01be
00000080: 18e8 f4bd a50e 7bbe c211 8fbe 8103 96bd
00000090: 9fd5 fc3d 6c34 5abe 28ca 063e 10a2 683d
000000a0: 1400 9f3e 4b57 b13e 8eef 83be 89f5 58bd
000000b0: 2659 963d dceb 1abd 8bce 9d3d d085 dcbd
000000c0: 4025 8abe 9892 55be 08c3 4b3e 7689 cdbd
000000d0: 347b 453e 677c 493e f6a8 3b3e 2976 653e
000000e0: 9689 733e 6cb9 8dbe ebbe 8fbe ffa0 04be
000000f0: 3ee5 54bd 0582 f33d 6853 a3bd 1f9c 803e
00000100: d0b4 2e3e a58f 14bd ef07 293e f4da 83bc
00000110: 4472 a83c c3c3 92bd d658 893c 1ef5 b8bc
00000120: 65a1 17be a6f7 703e 7df3 77be 82b3 a7be
00000130: a853 953e 8d58 b23e 87d0 ad3d 928e 4a3d
00000140: c9b6 953e c637 1c3e ab79 a6be 2c99 583d
00000150: 2946 423e 7428 9d3e 7736 2f3e 29e8 bbbd
00000160: 1ba6 51be 7bd0 40be 95ee d3bd 05a5 b9be
00000170: 8d87 553e 8abd eabd da9c 123e e8c4 37be
00000180: da8e 39be b401 573e abc4 fbbc 5340 5dbd
00000190: ba0d 983e 0475 93be 623a 873e 175d 5cbd
000001a0: ec24 ca3d 8773 9a3e af74 15bd 43e1 903e
000001b0: e91d 85bc d502 1d3c ddf4 4cbd 65b0 a83c
000001c0: 7d82 9ebe 4c54 8f3e bb59 b33e 272a 20be
000001d0: fbf6 7bbe d333 cd3d a90d 30be 8c75 c6bd
000001e0: 07a7 ec3d 50ed a23e dc49 bdbe dab1 58be
000001f0: d5af 21bd 2144 7dbe 3d79 753e 740f 843e

layers.0.bias f4 [16]
-0.27219495 -0.25662798 0.28611624 0.2601301 0.06577809 0.1385465 0.24138416 0.0808617
-0.059118886 -0.28413942 0.2477957 -0.122474805 0.2588098 -0.1582288 -0.052558325 0.02831934
00000000: 235d 8bbe be64 83be d47d 923e c62f 853e
00000010: aab6 863d 22df 0d3e 692d 773e d29a a53d
00000020: a526 72bd b97a 91be 28be 7d3e 12d4 fabd
00000030: b882 843e bb06 22be 6647 57bd f6fd e73c

layers.1.weight f4 [16, 16]
-0.048977405 -0.22566167 0.1251422 0.18129149 -0.051985368 0.10197174 -0.0633758 0.05613116
0.22260822 0.21392891 -0.048209168 0.017488347 -0.10622026 0.21525684 0.1871513 -0.061919596
0.056136362 -0.1573725 0.17660648 -0.1362313 0.1576737 0.23476131 -0.04198774 0.19497855
-0.19188116 0.101979814 0.20392275 0.05347094 0.18826081 0.093401685 0.20091087 0.05790723
-0.13153972 0.076580584 0.03521523 0.16736181 0.0384591 -0.06321352 -0.050555903 0.20781222
-0.14860964 0.021295866 0.09986618 -0.12094897 0.21599525 -0.19143139 -0.1403975 -0.042309992
-0.18240145 0.023030864 -0.23560153 -0.005716277 -0.062220573 0.13983405 -0.053518113 0.049003106
0.032564938 0.08624902 -0.17742254 0.07367331 -0.22225179 0.24649924 -0.051105455 -0.07899925
-0.08611078 0.15247223 -0.24398273 -0.13189283 0.19202287 -0.077738 0.058391526 0.018188976
0.15333806 0.20947622 -0.21730314 0.22338177 0.22132452 0.09885154 0.16112152 0.18845505
0.045574147 0.112313166 -0.13931024 0.20704229 0.240813 -0.1935061 -0.23197612 -0.22984038
-0.052137993 -0.24897887 0.20393042 0.13724765 -0.0501951 -0.004692284 -0.17028938 -0.24576001
0.010342986 0.17807648 -0.13548695 0.006802605 -0.07230233 -0.106559336 -0.027449343 0.1490705
-0.14017752 0.12693402 -0.19482705 -0.06558474 -0.20149457 -0.023349596 0.04340027 0.18313514
-0.044044323 0.14838268 -0.13388118 -0.11629944 0.033033308 -0.22676685 -0.1486511 0.0678637
0.045193337 -0.24812469 -0.034122124 0.23284736 0.14707276 0.0015461445 -0.19710197 -0.09674934
-0.14571795 -0.22071601 -0.06721385 -0.21320598 0.092704944 -0.09185851 0.19802997 -0.1611603
-0.14284824 0.18315288 0.13384712 0.17016686 -0.22970723 -0.16130182 -0.113240376 -0.15892227
0.113384075 -0.041931514 0.04426002 -0.116701394 0.03384928 0.104537025 0.14587137 -0.13259214
-0.07420557 0.10891361 0.18429747 0.07679018 0.10757512 -0.13320836 -0.00014259279 0.16251338
0.013746683 -0.20309332 -0.053781096 -0.20699455 0.11921918 0.10663503 0.24227116 0.23346063
0.058227893 -0.032381255 0.0155131705 0.018374514 -0.084241726 0.006988322 -0.23663889 -0.009181815
-0.067938454 -0.10321248 0.08214067 0.17989227 -0.18994334 -0.23160046 -0.056487158 -0.008788885
0.19416729 0.13915086 -0.23430519 -0.017269326 0.16635254 -0.22018893 0.06968376 -0.06904918
0.14049557 0.15046963 -0.07194167 -0.22511423 -0.18175602 -0.14466397 -0.039020963 0.045663785
-0.15281837 0.17504363 0.032703027 -0.23561747 -0.2188663 -0.093300365 0.08674552 0.081300065
0.06941184 -0.11569151 -0.0046415054 0.22521144 0.25982797 -0.070695646 -0.21699712 0.18058375
0.22080123 -0.22377385 0.25108278 0.19980305 0.09353055 -0.07971603 -0.072630525 0.16171415
-0.08348494 -0.063050404 0.07492029 -0.24337733 0.14953694 0.17786668 0.16853951 -0.06490705
0.18428782 0.18124366 0.118389316 -0.0074237296 0.084533274 -0.24676163 -0.18878108 0.17588507
0.08864529 -0.21988297 0.11393946 -0.07375412 0.23709632 4.127629e-05 -0.14507858 0.18293595
-0.13951504 -0.21994328 -0.1499637 -0.11961001 -0.00036567563 -0.04295794 0.21111226 0.2000841
00000000: 889c 48bd da13 67be 4725 003e 7aa4 393e
00000010: 9cee 54bd 8fd6 d03d 2ccb 81bd cae9 653d
00000020: 69f3 633e 2e10 5b3e fa76 45bd b943 8f3c
00000030: 028a d9bd 4a6c 5c3e 97a4 3f3e 679f 7dbd
00000040: 3eef 653d 4226 21be 54d8 343e 3880 0bbe
00000050: 3775 213e 4565 703e 56fb 2bbd 75a8 473e
00000060: 7f7c 44be cbda d03d 20d1 503e 5804 5b3d
00000070: 71c7 403e 6249 bf3d 94bb 4d3e 2230 6d3d
00000080: 59b2 06be 48d6 9c3d d83d 103d e560 2b3e
00000090: 4a87 1d3d 1776 81bd b513 4fbd bacc 543e
000000a0: 202d 18be ab74 ae3c a486 cc3d 18b4 f7bd
000000b0: dc2d 5d3e 9706 44be 5dc4 0fbe 3e4d 2dbd
000000c0: 72c7 3abe 39ab bc3c 8741 71be 9b4f bbbb
000000d0: 00db 7ebd a830 0f3e cf35 5bbd 7bb7 483d
000000e0: d062 053d 54a3 b03d 41ae 35be 08e2 963d
000000f0: f995 63be 4c6a 7c3e f453 51bd 5cca a1bd
00000100: d95a b0bd ae21 1c3e 9cd6 79be ea0e 07be
00000110: a5a1 443e 1a35 9fbd f42b 6f3d 0c01 953c
00000120: a704 1d3e ef80 563e b784 5ebe 31be 643e
00000130: e5a2 623e ad72 ca3d 0afd 243e 5cfa 403e
00000140: f5ab 3a3d 7204 e63d 58a7 0ebe e502 543e
00000150: af97 763e 7726 46be 268b 6dbe 475b 6bbe
00000160: a68e 55bd 51f4 7ebe 23d3 503e a68a 0c3e
00000170: 6199 4dbd bbc1 99bb 5760 2ebe 83a8 7bbe
00000180: a175 293c ae59 363e 17bd 0abe 63e8 de3b
00000190: 3e13 94bd c83b dabd 72dd e0bc f0a5 183e
000001a0: b28a 0fbe fefa 013e be80 47be 4b51 86bd
000001b0: 9854 4ebe a747 bfbc 7bc4 313d c787 3b3e
000001c0: d267 34bd a1f1 173e 2618 09be 672e eebd
000001d0: ef4d 073d 9235 68be fe37 18be 20fc 8a3d
000001e0: a61c 393d 6614 7ebe a4c3 0bbd 8a6f 6e3e
000001f0: 3e9a 163e 00a8 ca3a 19d5 49be 8524 c6bd
00000200: 1637 15be 6103 62be 6aa7 89bd ab52 5abe
00000210: 17dc bd3d 5120 bcbd 5ec8 4a3e 3507 25be
00000220: cf46 12be 6e8c 3b3e 380f 093e 3940 2e3e
00000230: 5f38 6bbe 4e2c 25be 92ea e7bd 85bc 22be
00000240: e935 e83d 61c0 2bbd ff49 353d 2401 efbd
00000250: 8ba5 0a3d 8217 d63d 4e5f 153e 3cc6 07be
00000260: 17f9 97bd 190e df3d 7ab8 3c3e 2b44 9d3d
00000270: 5850 dc3d c667 08be f684 15b9 e869 263e
00000280: c439 613c b2f7 4fbe 9149 5cbd 61f6 53be
00000290: 2f29 f43d 7763 da3d ee15 783e 4e10 6f3e
000002a0: 5f80 6e3d 35a2 04bd f42a 7e3c 2686 963c
000002b0: ed86 acbd 4bfe e43b 7751 72be 536f 16bc
000002c0: 5123 8bbd 1161 d3bd 5e39 a83d ae35 383e
000002d0: 8280 42be ac28 6dbe 145f 67bd 41ff 0fbc
000002e0: cad3 463e 907d 0e3e b3ed 6fbe 6778 8dbc
000002f0: 5258 2a3e 3579 61be 5cb6 8e3d a869 8dbd
00000300: 12de 0f3e b614 1a3e 2756 93bd 5884 66be
00000310: 401e 3abe cb22 14be 72d4 1fbd f309 3b3d
00000320: 6b7c 1cbe a33e 333e 9cf3 053d b545 71be
00000330: 7d1e 60be 4314 bfbd a3a7 b13d a680 a63d
00000340: cb27 8e3d acef ecbd c517 98bb d49d 663e
00000350: 2c08 853e e1c8 90bd 7e34 5ebe f2ea 383e
00000360: b819 623e f924 65be ec8d 803e 2c99 4c3e
00000370: f28c bf3d 2842 a3bd 50bf 94bd 6598 253e
00000380: 27fa aabd 9220 81bd cf6f 993d e837 79be
00000390: 3620 193e af22 363e 9f95 2c3e fded 84bd
000003a0: f2b5 3c3e f097 393e 1976 f23d c242 f3bb
000003b0: c81f ad3d 15af 7cbe d44f 41be 371b 343e
000003c0: a98b b53d 0029 61be 1759 e93d 660c 97bd
000003d0: 61c9 723e 1420 2d38 7b8f 14be 9053 3b3e
000003e0: 08dd 0ebe d038 61be 1690 19be 18f6 f4bd
000003f0: 27b8 bfb9 aaf4 2fbd d02d 583e d9e2 4c3e

layers.1.bias f4 [16]
0.16099904 -0.050196946 0.112011306 -0.07316993 0.13825773 0.034088224 0.15835246 -0.22985342
-0.103566274 0.12653555 0.16560003 0.20710959 0.118847586 -0.110679984 -0.22084032 0.11232713
00000000: efdc 243e 509b 4dbd 2f66 e53d 1eda 95bd
00000010: 6f93 0d3e 18a0 0b3d 2627 223e b25e 6bbe
00000020: 8e1a d4bd 8992 013e 0e93 293e 8914 543e
00000030: 5d66 f33d 30ac e2bd f723 62be c40b e63d

layers.2.weight f4 [1, 16]
0.15295151 0.17626339 -0.047705267 0.044608187 -0.21461482 -0.0785799 -0.023757365 0.015010857
-0.12806767 -0.095497034 0.151674 0.23423643 0.21398984 -0.22195658 0.1646934 -0.12928212
00000000: 529f 1c3e 647e 343e 9966 43bd 13b7 363d
00000010: fdc3 5bbe 80ee a0bd ce9e c2bc 19f0 753c
00000020: 2c24 03be f393 c3bd 6e50 1b3e addb 6f3e
00000030: 2720 5b3e 9648 63be 63a5 283e 8862 04be
