saved_models/pytorch_connect/saved_model_compas10.pt (torch, 4490 bytes, 5 tensors)

layers.0.weight f4 [16, 7]
-0.08697529 -0.07893728 0.12537019 -0.19817732 -0.14515686 -0.11081693 0.34253415 0.2712202
0.23373422 0.24180362 0.2802134 -0.0026592189 0.3181372 0.10504567 0.2292272 0.19808714
0.16289645 0.26692328 0.18375562 -0.17175375 0.12461519 -0.3071807 -0.34237432 0.3860325
0.09998845 0.13695471 0.06685302 -0.049575746 -0.17947873 -0.18094037 0.03780428 -0.16879877
0.071265675 0.29382485 0.0055194977 0.35033727 -0.30858645 6.387881e-05 -0.21477613 0.0807229
0.22070634 0.29690552 0.19356892 -0.30209488 -0.36092418 -0.29716748 -0.33057556 0.2750038
0.26254916 0.21723004 -0.32229415 0.17027496 -0.16613548 -0.08368188 0.18483353 -0.25831088
0.008161878 -0.015825214 0.37085968 0.31745765 0.17409416 0.15785474 -0.15063009 -0.00080964534
0.35578048 0.1619823 -0.29607043 -0.26138347 -0.036797814 -0.078297846 0.20065592 0.25923434
-0.2081893 0.1474836 0.32935253 -0.32267356 -0.3608586 -0.30378163 0.021449352 0.29184467
0.06625177 -0.36136422 0.026092198 0.068401955 0.29115996 0.031173453 -0.3640785 -0.034988616
0.20201403 -0.3590161 0.07685935 -0.18988429 0.029326117 -0.28475675 -0.3360117 0.16467883
-0.25542444 0.31123707 -0.11632507 -0.26700255 0.04169636 -0.10247986 -0.13713308 0.16198693
-0.11145811 0.28734335 -0.18806933 -0.2461842 -0.3741707 0.314142 0.17606851 0.1366503
00000000: 1a20 b2bd dea9 a1bd 0b61 003e ffee 4abe
00000010: 00a4 14be fdf3 e2bd a360 af3e 60dd 8a3e
00000020: 0658 6f3e 5e9b 773e 2178 8f3e 4a46 2ebb
00000030: e1e2 a23e 2f22 d73d 89ba 6a3e 5bd7 4a3e
00000040: 54ce 263e 2baa 883e 6f2a 3c3e 37e0 2fbe
00000050: 4036 ff3d ca46 9dbe b04b afbe 0da6 c53e
00000060: bfc6 cc3d db3d 0c3e 3cea 883d f00f 4bbd
00000070: 46c9 37be 6f48 39be a9d8 1a3d 96d9 2cbe
00000080: bdf3 913d 3670 963e e7dc b43b 685f b33e
00000090: 0bff 9dbe adf6 8538 46ee 5bbe 0c52 a53d
000000a0: d800 623e 0004 983e ee36 463e 2eac 9abe
000000b0: 0ecb b8be 5626 98be 3341 a9be 4ccd 8c3e
000000c0: d86c 863e 8d71 5e3e bd03 a5be 8f5c 2e3e
000000d0: 6b1f 2abe 6861 abbd 0045 3d3e 5341 84be
000000e0: 66b9 053c e1a3 81bc 52e1 bd3e cf89 a23e
000000f0: bd45 323e aca4 213e c63e 1abe 613e 54ba
00000100: dc28 b63e b0de 253e 8b96 97be 0ed4 85be
00000110: 4eb9 16bd 9f5a a0bd bf78 4d3e 5dba 843e
00000120: 932f 55be f105 173e e5a0 a83e 7835 a5be
00000130: 75c2 b8be 4489 9bbe 8db6 af3c aa6c 953e
00000140: 02af 873d bb04 b9be 4ebf d53c 5316 8c3d
00000150: eb12 953e 785f ff3c 7f68 babe 3950 0fbd
00000160: c4dc 4e3e f5d0 b7be 6f68 9d3d 0771 42be
00000170: 533d f03c a3cb 91be ba09 acbe 91a1 283e
00000180: fec6 82be 775a 9f3e d73b eebd 8fb4 88be
00000190: cdc9 2a3d f6e0 d1bd 9d6c 0cbe e7df 253e
000001a0: 2644 e4bd ab1e 933e 3f95 40be b617 7cbe
000001b0: 4d93 bfbe 38d7 a03e 4e4b 343e 0eee 0b3e

layers.0.bias f4 [16]
-0.2949072 -0.2311957 0.34649035 0.3120346 -0.15494637 -0.12938157 0.09001169 0.16149418
-0.02675334 -0.14353089 0.0068983254 -0.096055076 -0.2989063 -0.08252274 -0.029103061 -0.05603081
00000000: 14fe 96be 91be 6cbe 2f67 b13e 00c3 9f3e
00000010: 43aa 1ebe 9a7c 04be 0d58 b83d bb5e 253e
00000020: d229 dbbc c3f9 12be 590b e23b 86b8 c4bd
00000030: 3f0a 99be af01 a9bd 8b69 eebc 9080 65bd

layers.1.weight f4 [16, 16]
-0.09799563 0.1435465 -0.15764391 0.17633355 0.09378729 -0.040621247 0.15867679 -0.2239921
-0.19209354 0.21601398 -0.0540935 -0.18938674 0.10212406 -0.09188142 -0.025685273 -0.2106911
-0.14040218 -0.16343525 0.11094784 -0.116502136 0.00020477685 0.104483575 -0.13454102 0.24106978
0.124474294 0.20616345 -0.05343375 -0.0032532052 0.0123551795 0.031308394 0.03306997 -0.112952314
-0.10812223 -0.21812151 -0.12779896 -0.12227658 -0.008789838 0.21664888 -0.014925044 -0.22541519
-0.123620674 -0.017616307 -0.041890066 -0.18610156 -0.10567656 0.22105573 -0.0359308 0.10641713
-0.020516016 0.06186094 0.13419312 0.28277287 0.08235867 -0.055390343 -0.013852783 0.21514721
0.0070483126 -0.1848183 0.12734964 -0.15525039 0.08044298 -0.21367855 -0.22519462 -0.23458785
-0.14938375 0.014855774 -0.03925264 0.016963508 -0.21219207 0.14445864 -0.13929619 -0.028131546
0.22006935 0.10440988 0.19272721 -0.17851968 0.17370568 -0.11448261 0.10818977 0.05580819
0.1285423 -0.18008845 0.23423329 -0.17960736 0.1664907 -0.047169194 0.23152705 0.15260974
-0.13223475 0.2064774 -0.12729101 0.017273435 0.097902276 0.076434724 -0.19339946 -0.0036158918
-0.02706471 -0.013957383 0.18369693 -0.12737727 -0.019714773 -0.24018353 -0.0036753565 -0.22217762
-0.041179743 -0.18358648 -0.09076858 -0.033665657 0.16991636 -0.027001739 0.01627776 0.19680601
0.23592763 0.069202624 -0.035761405 -0.039743032 0.09892064 0.1558324 0.14114757 0.17506115
-0.24680279 -0.22437663 0.19842014 -0.10398482 0.23200367 0.12212199 -0.096908726 -0.12754045
0.06584433 -0.2449033 0.020140134 -0.21804254 -0.175049 0.14375111 0.027675282 0.19120353
0.03718312 0.10726012 0.14379509 0.02431852 0.23464407 0.18880673 -0.12614483 0.16889215
-0.11010745 -0.1571272 0.17135446 -0.020292426 0.22038773 0.19274524 0.025496723 0.12566248
0.0584028 -0.15705094 -0.014386765 0.08952809 0.19079956 0.045499567 0.010133654 0.012490119
0.19893117 0.13262522 0.14876236 -0.23094507 0.2280553 -0.23085457 0.023502767 -0.22752492
-0.1039761 -0.23030335 -0.102440275 0.18986249 0.08518331 -0.026162382 0.17501292 0.22159326
-0.2370421 -0.11650516 0.0114808995 -0.15085633 -0.1159157 -0.20645325 -0.074873425 -0.12545069
0.08841529 0.010038951 0.1866293 0.14897366 -0.2528397 -0.20430347 -0.08514295 0.22594649
0.18046957 0.11967533 0.13429569 0.08749154 0.16288099 0.04563858 -0.021390663 -0.24384843
0.2279307 0.09580633 0.030330392 -0.1120329 0.22055362 0.24335141 -0.035572797 -0.18690832
-0.21687907 -0.1455703 0.24354228 0.15540189 0.09953337 0.23022301 0.09252944 -0.13561192
-0.13470179 -0.021814592 0.18703341 -0.08103936 0.118320264 -0.18992446 -0.21770404 0.029172204
-0.24378355 -0.22439355 0.024323955 0.23708203 -0.057240356 -0.018073423 -0.07594247 -0.15985017
-0.1867864 -0.11476982 0.19846767 -0.12134169 -0.035337612 -0.06531727 0.14276561 -0.05130254
-0.21326095 0.060959447 -0.01448996 -0.058307264 -0.1861891 -0.18660167 0.06777891 -0.028513147
0.24051094 -0.09898653 -0.1491072 0.23560347 -0.18011504 -0.03585731 -0.17550513 -0.013981759
00000000: efb1 c8bd dbfd 123e 686d 21be c890 343e
00000010: 8d13 c03d 7762 26bd 2b7c 223e 2f5e 65be
00000020: 2bb4 44be c532 5d3e 2591 5dbd 99ee 41be
00000030: 6b26 d13d 532c bcbd ec69 d2bc 68bf 57be
00000040: 97c5 0fbe 925b 27be 9f38 e33d ac98 eebd
00000050: 5eb9 5639 7cfb d53d 1fc5 09be ffda 763e
00000060: 61ec fe3d 831c 533e 59dd 5abd ba33 55bb
00000070: 616d 4a3c 3b3d 003d 6074 073d 8b53 e7bd
00000080: 306f ddbd 3f5b 5fbe bbdd 02be 256c fabd
00000090: 4103 10bc 34d9 5d3e 2c88 74bc 3dd3 66be
000000a0: d62c fdbd 1350 90bc eb94 2bbd 6891 3ebe
000000b0: f46c d8bd 6f5c 623e 2d2c 13bd 39f1 d93d
000000c0: 3411 a8bc e661 7d3d ec69 093e 9bc7 903e
000000d0: aaab a83d fce0 62bd c8f6 62bc 8d4f 5c3e
000000e0: 88f5 e63b 0241 3dbe f267 023e f5f9 1ebe
000000f0: 4abf a43d 8dce 5abe 6b99 66be cc37 70be
00000100: 0ef8 18be a265 733c 60c7 20bd 0ef7 8a3c
00000110: e148 59be f7ec 133e a9a3 0ebe 2174 e6bc
00000120: dc59 613e d9d4 d53d 485a 453e ddcd 36be
00000130: e7df 313e dc75 eabd 9992 dd3d 2197 643d
00000140: 98a0 033e 1b69 38be dada 6f3e feea 37be
00000150: 8a7c 2a3e 7c34 41bd 6d15 6d3e ba45 1c3e
00000160: 8c68 07be d06e 533e 9358 02be 0581 8d3c
00000170: fd80 c83d cf89 9c3d 820a 46be 99f8 6cbb
00000180: d0b6 ddbc 82ad 64bc 0c1b 3c3e 306f 02be
00000190: e080 a1bc acf2 75be 40de 70bb 8882 63be
000001a0: 17ac 28bd 18fe 3bbe e1e4 b9bd 00e5 09bd
000001b0: 8efe 2d3e c032 ddbc f058 853c 8487 493e
000001c0: 0397 713e 1bba 8d3d 8d7a 12bd 97c9 22bd
000001d0: e896 ca3d 8792 1f3e fd88 103e 3b43 333e
000001e0: dfb9 7cbe fdc2 65be a62e 4b3e fef5 d4bd
000001f0: 5f92 6d3e 181b fa3d 1578 c6bd f799 02be
00000200: 64d9 863d eec7 7abe ecfc a43c 8b46 5fbe
00000210: 0c40 33be 7e33 133e 46b7 e23c dcca 433e
00000220: 544d 183d 32ab db3d 053f 133e a237 c73c
00000230: 8946 703e 8d56 413e 1c2c 01be 10f2 2c3e
00000240: 0480 e1bd f4e5 20be 8b77 2f3e 4d3c a6bc
00000250: 52ad 613e 025f 453e 81de d03c aaad 003e
00000260: c637 6f3d f6d1 20be 77b6 6bbc 815a b73d
00000270: f660 433e c15d 3a3d a007 263c 5ba3 4c3c
00000280: 9db4 4b3e e8ce 073e 2955 183e dd7c 6cbe
00000290: 5487 693e 2465 6cbe e088 c03c 4bfc 68be
000002a0: 6cf1 d4bd a4d4 6bbe 35cc d1bd 506b 423e
000002b0: 9674 ae3d 7e52 d6bc 9636 333e 58e9 623e
000002c0: 2abb 72be 429a eebd 621a 3c3c 157a 1abe
000002d0: 3665 edbd 7b68 53be 3d57 99bd 2576 00be
000002e0: 1313 b53d 6a7a 243c c01b 3f3e 8d8c 183e
000002f0: 3574 81be ee34 51be 6d5f aebd 845e 673e
00000300: 04cd 383e 5718 f53d cf84 093e c42e b33d
00000310: 46ca 263e 85ef 3a3d 793b afbc 67b3 79be
00000320: aa66 693e 1c36 c43d 7177 f83c 8171 e5bd
00000330: cfd8 613e 1d31 793e c8b4 11bd e564 3fbe
00000340: 8c15 5ebe 6110 15be 2663 793e ac21 1f3e
00000350: 27d8 cb3d 95bf 6b3e 1380 bd3d dadd 0abe
00000360: 44ef 09be 84b4 b2bc b085 3f3e f7f7 a5bd
00000370: e551 f23d 8f7b 42be cfed 5ebe 8cfa ee3c
00000380: 65a2 79be 6cc7 65be 0843 c73c a2c5 723e
00000390: dd74 6abd b70e 94bc ba87 9bbd c3af 23be
000003a0: ef44 3fbe 700c ebbd 1c3b 4b3e fe81 f8bd
000003b0: 2cbe 10bd 10c5 85bd 2631 123e 9d22 52bd
000003c0: 1461 5abe 9db0 793d 4c67 6dbc 99d3 6ebd
000003d0: 5ba8 3ebe 8214 3fbe abcf 8a3d 6794 e9bc
000003e0: 8048 763e 73b9 cabd 8faf 18be 0942 713e
000003f0: 1470 38be 1ddf 12bd 9eb7 33be bf13 65bc

layers.1.bias f4 [16]
0.092632405 -0.012233036 -0.104969054 -0.027291743 0.08111102 -0.11589786 -0.2050451 0.15482801
0.058034014 0.21995015 -0.19572763 0.0767086 -0.22149089 -0.16691509 0.12705062 0.19062653
00000000: 0fb6 bd3d 126d 48bc 04fa d6bd ef92 dfbc
00000010: 891d a63d db5b edbd 58f7 51be 3c8b 1e3e
00000020: 13b5 6d3d 9d3a 613e d36c 48be 6619 9d3d
00000030: 82ce 62be caeb 2abe 8f19 023e 9a33 433e

layers.2.weight f4 [1, 16]
-0.2017159 -0.13791133 0.21060999 0.2362458 -0.039984245 0.1556645 -0.066692315 -0.17227046
0.06275536 0.0047280774 0.05489252 -0.20482399 -0.09709387 0.15489684 0.077127665 0.07041691
00000000: 9d8e 4ebe a138 0dbe 25aa 573e 6bea 713e
00000010: 85c6 23bd 8466 1f3e fb95 88bd ab67 30be
00000020: e285 803d fded 9a3b fbd6 603d 61bd 51be
00000030: 27d9 c6bd 479d 1e3e 1cf5 9d3d be36 903d
