saved_models/pytorch_connect/saved_model_compas3.pt (torch, 4480 bytes, 5 tensors)

layers.0.weight f4 [16, 7]
00000000: 81fd 94be acec 873e 1a64 cbbd 39de 60be
00000010: b8c1 01be 7a71 9e3e 47ce 213e 1c97 b43e
00000020: 6012 893c 08e4 9c3e 6a29 ae3e ea7f a6bc
00000030: 4d73 393d b507 433d be23 18be bdbc 03bd
00000040: 1705 26bc e8f5 213c c73c bb3e b3aa 063d
00000050: 2113 2f3e 9d58 aebe 8c00 7a3d 767b 51be
00000060: e751 aa3c c0f9 a0be 1413 373e 6727 9bbe
00000070: d53b 8a3e 9ee6 94be c0bd 02be 47be d83d
00000080: de87 50be 0b71 26be e5dd b0be 8b69 afbe
00000090: c382 803e bf67 5c3e ff29 a73e 2823 a23e
000000a0: 34a9 663e 04fa b73e 8445 753e cffa 163e
000000b0: 4ba1 a43e d151 9b3e 57a4 d8bb 518e 81bd
000000c0: 8737 9d3e 1766 033e 4e25 883e 0fe8 473d
000000d0: efdd 6c3e e26d 93be 986f 183e 959f f0bd
000000e0: edcb cfbd c89a 7cbd bd23 30be 881a 95be
000000f0: 0c32 57be d0eb cc3d 1402 aa3e 5a7b 773e
00000100: 1379 8d3e dc44 c1be 7a97 de3d 6ec0 a83e
00000110: 8d51 b73d 86fa 783e 0e1e 18be f640 3fbe
00000120: 2348 793d bd69 db3d db2d 83bd 9f18 a3be
00000130: e337 75bd d84c 94be f495 9e3e 6a89 dc3c
00000140: a334 c6be 0a0d e7bc 00bb 2b3e 10a6 3f3e
00000150: 5543 3b3e ef36 8abd f9d3 f4bd 20f2 a73e
00000160: fc41 17bc 84f6 91be c84a 7b3e 2c3d 7cbe
00000170: ac95 7abe fc55 ad3e c873 2cbe 84a5 52be
00000180: 2595 c13d f8bf b4be 30e6 8f3e 46b9 a9be
00000190: bec1 abbe 3d6b aebe e116 9c3e 41c9 77be
000001a0: 1864 a5be 08b4 b7be 3c26 9d3e 5ca5 adbe
000001b0: 6caf 263e e13f adbe 70d3 bcbe f835 39be
-0.29099658 0.26547754 -0.09931202 -0.21959771 -0.12671554 0.3094595 0.15801345 0.35271537
0.016732395 0.30642724 0.3401597 -0.020324666 0.045275975 0.047614772 -0.14857385 -0.032162417
-0.010133049 0.009885289 0.36569807 0.032877635 0.17097141 -0.34051982 0.061035678 -0.20457253
0.020791007 -0.31440544 0.17878371 -0.303035 0.26998773 -0.29082197 -0.12767696 0.105831675
-0.20364329 -0.1625406 -0.34544292 -0.3426021 0.25099763 0.21523951 0.32649228 0.31667447
0.22525483 0.35932934 0.239523 0.14744113 0.32154307 0.30335858 -0.0066113877 -0.06325973
0.30706427 0.12831913 0.2659096 0.048805293 0.23131536 -0.2879477 0.1488632 -0.11749188
-0.10146318 -0.06167105 -0.17201133 -0.29121804 -0.21015185 0.10005915 0.3320471 0.24168149
0.27631435 -0.37747848 0.108687356 0.32959312 0.089511015 0.24314317 -0.14855215 -0.18677124
0.06085981 0.10713527 -0.064052306 -0.31854722 -0.05986775 -0.28964877 0.3097378 0.026920993
-0.38712034 -0.02820446 0.16770554 0.18715692 0.18287404 -0.06748759 -0.11954493 0.32801914
-0.0092320405 -0.2850839 0.24540246 -0.2463271 -0.24471158 0.33854663 -0.16841042 -0.20570952
0.09452275 -0.3530271 0.28105307 -0.33149165 -0.3354625 -0.3406619 0.30486205 -0.24197866
-0.32302928 -0.3587954 0.30693233 -0.33915222 0.16277856 -0.33837798 -0.36880064 -0.18086994

layers.0.bias f4 [16]
00000000: 65f7 163e f05c 5e3d 9d61 b83e 9ced b2be
00000010: 2082 f8bd 97df 5abe 33c3 103e 7434 073e
00000020: b74d 923e f53f a93e 7340 84be 51a0 80be
00000030: cfbd 943e 942d 8d3e 3b80 f53d e80d bd3e
0.14742811 0.05428785 0.36011973 -0.34946907 -0.121341944 -0.21374355 0.14136963 0.13203603
0.28574917 0.33056608 -0.2583042 -0.25122312 0.29051062 0.27573836 0.11987349 0.36924672

layers.1.weight f4 [16, 16]
00000000: 7a68 b9bd a400 36bd d22a 6d3d 3ad8 33be
00000010: 2332 d53d dd97 76be 371f 153e c2df 36be
00000020: 3ab2 4f3d 8531 cdbc b25e 2e3e 8fbf 7abd
00000030: f7ff 7b3e 1ed6 1b3e bfd2 3fbd 1ab6 77be
00000040: 971e 9cbd 5f3a 5abd ed9d 883c 7c56 6abe
00000050: 7adc 7bbd a3b5 57be bb4a 0abe 2a5c 033e
00000060: 5597 343e a1e4 033e 3eec 633d 0dda a2bd
00000070: 1dcf eb3d 4b98 683d 807c afbd 2181 41be
00000080: 6c92 463d ecf4 5ebe 094a 6d3e 21aa 393e
00000090: 81fd 67be c8bf 3bbe 1719 4cbe 2e50 fa3d
000000a0: 1cc2 2cbe c851 40be d327 adbc 19ed 163e
000000b0: a220 64bd a68f debd 46a5 323e da86 3e3c
000000c0: 1aff f63d 98fa 663e 6d7c bf3d 429e 103e
000000d0: c1d9 68bd befe 273e 1dc9 c43d cf6a 583e
000000e0: 602a 4c3d 51ff 393e 004c 71be d06d 203d
000000f0: 196f 41be fee6 80be ab28 d0bd 14f3 bebd
00000100: a7bc 31bd 2c5a 51be 1c1e 783d b6ae 443e
00000110: 0b40 24be fe7e 403e 6d18 09be 9f1c 893d
00000120: 3ea9 2d3e 9acc 443e d3c7 323e 0372 283e
00000130: d725 0a3e d276 0bbd a32b 1bbe 37ea a7b8
00000140: 0019 193e acbf 80bd 8c5f 643d c621 1cbd
00000150: e9eb 1c3e 6f51 233d 08a3 1bbe 82c1 abbb
00000160: 0b7b 57be 5379 363e 5aa7 473e 558e 823e
00000170: 841b 463e b076 dc3c a27e f13d 0f09 1cbe
00000180: 5da2 0bbe cdb4 14be 37b4 3d3e 3523 d5bd
00000190: 3080 fabc 0971 f4bd d387 173e 0ad8 e83d
000001a0: 9cdf 5cbe 7d60 473e 02b8 4b3e e736 513d
000001b0: 38a4 73be 84b0 203e 1d52 593d a78f 3dbe
000001c0: 68fd 41be 9665 02be 5808 5bbe e084 4d3d
000001d0: 2805 16bd 6008 093d 2ac6 143e 6496 f43d
000001e0: ce2b 7ebe bc01 14be 90b5 12bd 5644 58be
000001f0: cef0 0abe d0f8 bebd 78f2 143d d203 5bbe
00000200: 7ae5 9d3c 8be5 c4bc 0182 2d3e 1677 063d
00000210: 7496 493e 1ed3 7dbe 932f 443e 1a88 39bc
00000220: a159 05bc 479d 7cbe 3474 67be 688c 38be
00000230: 0d5a b3bc 17f3 73be 6bc8 2dbd 39d3 353e
00000240: 295c 2ebe 0f5c 353e 6891 00bd 64b6 ca3c
00000250: df6c 1fbe 5423 403e 8399 fbbc 537f 563e
00000260: b683 1dbe 2ff3 4ebe 2419 f93d acf3 32be
00000270: b4b5 06be 6f27 66be 2ce7 b8bd 1dd8 a53d
00000280: a715 483e d5f9 133e 7fe9 f53d 251f 32be
00000290: 0f6e 6ebe 7e97 0c3e 1afc 5d3e f07d 8dbd
000002a0: d7d3 743d 21db a7bd a354 36be 682b 12be
000002b0: a601 653e 3451 023d a7c6 1b3d 6da5 2f3e
000002c0: d156 103e 84aa 04bd cb94 6ebe 760f 583e
000002d0: bed1 343e 58a7 2f3e ed52 5bbd 8161 40be
000002e0: 24c7 343e f55a 2bbe 8897 523d 1fff 73be
000002f0: 90b1 15be 4e5a 1cbe ae7e 503e a5d7 ebbd
00000300: fa7c 27bd 69e6 4cbe 137e 60be d22a 833c
00000310: 18c4 fabd 4a3a 53bd d99a 44be 7f0d 0abd
00000320: c166 7c3d f2d6 7abe 1027 c1bc ef66 b33d
00000330: b5bf e5bb 676b 21be 426f 2dbd a9f5 93bd
00000340: 0944 2f3d 096d 613e d269 843d af0a 183d
00000350: a9b2 5c3d 73cc f13d cde6 2abe 6b7c 72be
00000360: 44ed 1c3e bdca 9e3b 8f5d a9bd a4b4 22be
00000370: af5b 09be 2824 403c 21e6 f0bd 6fda 34be
00000380: b475 db3d ee49 413c 9c80 a6bb 99e8 843d
00000390: 2b66 01bd 400b 06be b907 143d 4ff8 ff3d
000003a0: ad00 c6bc 0ffe 1bbe 6681 223e 91eb 19be
000003b0: 3e3e 52be 8a66 4bbd 1b40 4b3e e957 f1bd
000003c0: 3cc5 d4bd 8782 603e f74a 713a 1dce b13d
000003d0: 700b 45be 6fbe 23be 6aa3 5d3e 6e62 b9bd
000003e0: 31e7 693e 19ac 10be 83eb 473e 0da1 c83d
000003f0: 2327 3cbe 0709 7b3e 6992 23be 1eaa 3d3d
-0.090531304 -0.044434205 0.057902165 -0.17562953 0.104099534 -0.24081369 0.14562689 -0.17858794
0.05070708 -0.025048027 0.17028311 -0.06121784 0.24609362 0.15218398 -0.046831843 -0.2419056
-0.07623022 -0.053278323 0.016676867 -0.22884554 -0.06148956 -0.21065383 -0.1350507 0.12828127
0.17635854 0.12880184 0.05564522 -0.07951746 0.11514113 0.056785863 -0.08568668 -0.18896915
0.048479483 -0.21773118 0.23172773 0.18131305 -0.22655298 -0.18334877 -0.19931446 0.12222324
-0.16870922 -0.18781197 -0.021137154 0.14738883 -0.055695184 -0.108672425 0.1744586 0.011628831
0.120603755 0.22556531 0.09349904 0.1412287 -0.05684829 0.1640577 0.09608672 0.21134494
0.0498451 0.18163802 -0.23564148 0.039167225 -0.18890037 -0.25176233 -0.10164007 -0.09323707
-0.043392804 -0.20444554 0.06057559 0.19207272 -0.16040055 0.18798444 -0.13388224 0.06694912
0.16959092 0.19218674 0.1745904 0.16449742 0.13490997 -0.034048863 -0.15153365 -8.0068065e-05
0.14950943 -0.062865585 0.055755183 -0.038118146 0.15324368 0.039872583 -0.1519891 -0.005241574
-0.21043031 0.17819719 0.19497433 0.25499216 0.19346434 0.026912063 0.117917314 -0.1523783
-0.13636155 -0.14522095 0.18525778 -0.10407106 -0.030578703 -0.11935622 0.14797907 0.11369331
-0.21569675 0.19470401 0.19894412 0.05107775 -0.23793113 0.15692335 0.053056825 -0.1851183
-0.18944323 -0.12734064 -0.21389902 0.050175548 -0.03662601 0.033455253 0.14528719 0.11942747
-0.24821398 -0.14453787 -0.035817683 -0.21119818 -0.13568422 -0.09324801 0.03636405 -0.21388176
0.019274462 -0.024035236 0.16944124 0.032828413 0.196863 -0.24787566 0.19158773 -0.011323953
-0.008139045 -0.24669372 -0.22602922 -0.1802231 -0.021893525 -0.238232 -0.04242746 0.17756356
-0.17027344 0.17710899 -0.03138867 0.024745174 -0.15568875 0.18763477 -0.030712849 0.20947008
-0.15382275 -0.20209955 0.12162998 -0.17475766 -0.13155252 -0.2247598 -0.090284675 0.08097861
0.1953951 0.14450772 0.120074265 -0.17394693 -0.23284172 0.13729665 0.216782 -0.06908786
0.05977234 -0.081960924 -0.17805724 -0.1427437 0.2236391 0.031815723 0.038031247 0.17152949
0.14095618 -0.03238918 -0.23298948 0.21099648 0.17658135 0.1715368 -0.05354588 -0.18787195
0.17654091 -0.16733916 0.051414043 -0.2382779 -0.14618516 -0.15268824 0.20360824 -0.1151574
-0.04089067 -0.2000977 -0.21923093 0.01601163 -0.12244433 -0.05156926 -0.19199695 -0.033704277
0.06162143 -0.24496058 -0.023578197 0.087598674 -0.0070113786 -0.15763627 -0.04234243 -0.0722459
0.042789493 0.2201425 0.06465496 0.037119564 0.05388132 0.11806574 -0.16689606 -0.23680274
0.15324885 0.0048459456 -0.08269798 -0.15889221 -0.13413881 0.01172737 -0.117626436 -0.17661451
0.107158095 0.011797411 -0.0050812494 0.06489677 -0.031591576 -0.13090229 0.036140177 0.12498533
-0.024170244 -0.15233634 0.15869674 -0.15031268 -0.20531556 -0.049658336 0.19848673 -0.11784346
-0.10389182 0.21924792 0.0009204591 0.08681891 -0.19242644 -0.15990613 0.21644369 -0.09051977
0.22842099 -0.1412815 0.19523434 0.09796343 -0.18374304 0.24515162 -0.1597382 0.046304815

layers.1.bias f4 [16]
00000000: 296b 22be a1d4 eabd 9e49 11be eaf7 6fbe
00000010: a091 7c3e 90fa 67bd e3bd 1a3e 5072 3b3d
00000020: edca 22be d421 52be 2334 d2bd 8fdd 59be
00000030: 86a1 253e eb5e 3ebc 947c c9bd 9703 78be
-0.15861191 -0.11466337 -0.14188239 -0.23434415 0.24664927 -0.05663544 0.15111499 0.045763314
-0.15897723 -0.20520717 -0.102638505 -0.21275924 0.16174898 -0.01161931 -0.098382145 -0.2422012

layers.2.weight f4 [1, 16]
00000000: 7e09 273d 5bdb ecbd 40ea 8b3d 4c84 043e
00000010: 69e2 23be f69e 2b3e d953 7bbd 6861 25be
00000020: ad83 53be 97a0 4a3e 1e44 a63c 5419 d83d
00000030: 9ddc 0e3e 01ce 9b3d fe7c 1a3d e675 4a3e
0.040780537 -0.11565276 0.06831789 0.12941092 -0.16004337 0.16759858 -0.06135926 -0.16150439
-0.20655699 0.19787823 0.020296153 0.10551706 0.13951345 0.076076515 0.037716858 0.19771537
