saved_models/pytorch_connect/saved_model_compas12.pt (torch, 4490 bytes, 5 tensors)

layers.0.weight f4 [16, 7]
0	0xbe559b92	-0.20860127
1	0xbc9041d9	-0.017609524
2	0x3ea2166b	0.3165773
3	0x3e0ecc5a	0.13945141
4	0x3e8fb016	0.2806403
5	0xbdfa8f26	-0.12234335
6	0xbea299bf	-0.31757924
7	0x3ec2e07b	0.3806189
8	0xbdc02742	-0.09382488
9	0x3eb6116b	0.35560164
10	0x3e394743	0.1809359
11	0xbe1fa02c	-0.15588444
12	0xbd7345e0	-0.05939281
13	0xbdb31f38	-0.08746189
14	0x3daf0263	0.08545377
15	0xbc6eadc0	-0.014567792
16	0xbe102741	-0.14077474
17	0xbe0a2520	-0.13490725
18	0x3d8d91c2	0.06912567
19	0x3e77c2b5	0.24195369
20	0xbe46652e	-0.19374534
21	0x3e4d7cf8	0.20067203
22	0x3e3b5681	0.18294717
23	0x3d1cbe63	0.038267504
24	0x3ebfa1f3	0.37428245
25	0xbd5db9bc	-0.05413221
26	0x3eae9c9e	0.34103864
27	0xbc9b06e3	-0.018924182
28	0x3ebb89b5	0.366285
29	0x3e225424	0.1585241
30	0x3cd9a2e8	0.026566938
31	0xbe8a7a6e	-0.2704653
32	0x3e438875	0.19095023
33	0x3ead0fc2	0.33801085
34	0xbc6baddc	-0.014384713
35	0xbe5487ee	-0.20754978
36	0xbc8e07ac	-0.017337643
37	0x3ddd66b4	0.10810605
38	0x3eb4bafd	0.3529891
39	0x3eb05440	0.34439278
40	0xbe9db59a	-0.30802613
41	0x3e15ebaf	0.14640687
42	0x3e08775b	0.1332678
43	0xbd0464b8	-0.032322615
44	0x3dc0979d	0.09403918
45	0xbc967c3d	-0.018369788
46	0x3e84288f	0.25812194
47	0xbdf3704e	-0.11886655
48	0x3db96972	0.09053315
49	0x3c33dd9d	0.01097813
50	0xbdb8a36a	-0.09015544
51	0xbea606e5	-0.32427135
52	0xbe202443	-0.15638833
53	0xbd8a43c8	-0.067512095
54	0x3ea23308	0.3167956
55	0xbdb7915a	-0.089632705
56	0x3d0e7d71	0.0347876
57	0x3ebb5bdd	0.36593524
58	0xbe42467d	-0.18972202
59	0xbe12586c	-0.14291543
60	0xbde83a10	-0.113391995
61	0x3e98bd1b	0.29831776
62	0x3e38bbb6	0.18040356
63	0xbda65bda	-0.08122988
64	0x3e34161d	0.1758656
65	0x3db31c69	0.08745653
66	0xbea46165	-0.32105556
67	0xbea8b84d	-0.3295311
68	0xbdb43ee4	-0.08801058
69	0x3ddaeff4	0.10690299
70	0x3e9d2040	0.30688667
71	0xbd981486	-0.074257895
72	0xbdb3020a	-0.08740623
73	0xbeb73f7e	-0.35790628
74	0x3e6070e6	0.21918067
75	0x3ec42ab9	0.38313845
76	0xbe1ab259	-0.15107097
77	0xbe1a47e1	-0.15066482
78	0xbea5f5c7	-0.32414076
79	0x3e01f4bb	0.12691014
80	0x3e1001e5	0.14063223
81	0x3dc76361	0.09735752
82	0xbe95cf62	-0.29259783
83	0x3bf7beac	0.0075605717
84	0x3c618d67	0.013766623
85	0x3d992baf	0.07479035
86	0xbe637116	-0.22211108
87	0xbdef7af7	-0.116933756
88	0x3eb441a9	0.35206345
89	0xbe67e855	-0.22647221
90	0x3dd329ed	0.10310731
91	0x3e490054	0.19629031
92	0xbe3a3780	-0.18185234
93	0xbeb6233c	-0.35573757
94	0x3e8a5d10	0.27024126
95	0x3e01e48d	0.12684841
96	0x3cbc2b0a	0.022969741
97	0xbea1fc30	-0.31637716
98	0xbe3d19a2	-0.1846681
99	0x3e9bc52a	0.30423862
100	0x3e83e800	0.2576294
101	0xbe959211	-0.29213002
102	0xbdb6b310	-0.08920872
103	0xbd8dfca1	-0.06932951
104	0xbe9320b2	-0.28735882
105	0x3ec26893	0.3797041
106	0x3de64424	0.112434655
107	0xbd7a248f	-0.06107002
108	0xbeb717e3	-0.35760412
109	0xbe3b5ddb	-0.18297522
110	0x3e2a1944	0.166112
111	0x3da3cfd7	0.07998627

layers.0.bias f4 [16]
0	0xbe836141	-0.25660136
1	0x3e129a30	0.1431663
2	0x3e314336	0.17310795
3	0x3e988e75	0.29796186
4	0x3e93e831	0.28888085
5	0xbe94bd7e	-0.2905082
6	0x3e11bd4f	0.14232372
7	0x3de6adf6	0.11263649
8	0xbe160aba	-0.1465253
9	0xbd246fae	-0.04014557
10	0xbe032e1b	-0.12810557
11	0x3e5a7fb9	0.21337785
12	0x3e3fee5b	0.18743269
13	0x3ea2423c	0.31691158
14	0xbe8a44c4	-0.2700559
15	0x3eaaedd6	0.3338458

layers.1.weight f4 [16, 16]
0	0x3e38a70b	0.18032472
1	0x3d73b131	0.059495155
2	0xbb5d049c	-0.0033724671
3	0x3c2a355c	0.010388698
4	0x3ddbf750	0.107405305
5	0x3e2ca7e5	0.16860922
6	0x3e341976	0.17587838
7	0x3e42afac	0.19012326
8	0xbdc6ce37	-0.09707301
9	0x3dcfc13e	0.1014428
10	0x3e7a8151	0.24463393
11	0x3e02da94	0.12778693
12	0xbe44e60d	-0.19228382
13	0x3bc6db09	0.0060685915
14	0x3e274b43	0.16337304
15	0xbe125769	-0.14291157
16	0x3d9473ef	0.07248675
17	0xbe5cd712	-0.21566418
18	0x3dfe2210	0.12408841
19	0xbe64dbc8	-0.22349465
20	0xbe01954a	-0.12654606
21	0x3e241b74	0.16026098
22	0x3d01db8e	0.031703524
23	0x3e2d7b30	0.16941524
24	0xbd81c3d8	-0.06336182
25	0xbcb6a774	-0.022296645
26	0x3d06bba6	0.0328938
27	0x3df068ca	0.11738737
28	0xbe782ab0	-0.24235034
29	0x3e5c8633	0.21535568
30	0x3d8ce4f8	0.0687961
31	0xbe557f8e	-0.2084944
32	0xbe79ecef	-0.24406789
33	0xbdfe9801	-0.12431336
34	0x3daef337	0.08542483
35	0xbdf03d8a	-0.11730488
36	0x3cbcc065	0.02304096
37	0xbe0e88e3	-0.13919406
38	0xbb079818	-0.002069002
39	0x3e681694	0.22664863
40	0x3e27326c	0.16327828
41	0x3e52837f	0.20557974
42	0xbe4c9fa2	-0.1998277
43	0x3e249ce7	0.16075478
44	0x3dc8a9da	0.097980216
45	0x3e12971e	0.14315459
46	0x3e07568d	0.1321661
47	0x3d737f09	0.059447322
48	0xbd10cc81	-0.03535128
49	0x3e0024bd	0.12514015
50	0x3df210d2	0.118196145
51	0x3e76393b	0.24045269
52	0xbde54bdc	-0.1119611
53	0x3d9d39f9	0.07677073
54	0xbdc97b21	-0.09837938
55	0x3d63009f	0.055420514
56	0x3e43a7aa	0.19106928
57	0x3e0998bd	0.13437171
58	0x3c522a50	0.012827471
59	0xbd9d1680	-0.07670307
60	0xbd54adc6	-0.051923536
61	0xbcf558c2	-0.02994955
62	0x3d0e8511	0.03479487
63	0xbd13169f	-0.035910245
64	0xbdce8f7c	-0.10085961
65	0x3dcd6e5f	0.10030817
66	0x3e3ef9f7	0.18650042
67	0x3e7a268d	0.24428768
68	0x3cb21041	0.021736266
69	0xbe749858	-0.2388624
70	0xbe05bbe9	-0.13059963
71	0xbe2b3c76	-0.16722283
72	0xbe44985f	-0.1919875
73	0xbb047f64	-0.0020217532
74	0xbe145e90	-0.14489198
75	0x3e26f61d	0.16304822
76	0x3e0560d6	0.13025221
77	0xbde6a1c4	-0.11261323
78	0x3dcba3a3	0.099433206
79	0xbe658d16	-0.22417101
80	0xbd3be0a9	-0.04586855
81	0x3e706db5	0.2347935
82	0x3d913185	0.07089523
83	0xbe2c8070	-0.1684587
84	0x3bc157d7	0.005900364
85	0x3e422430	0.18959117
86	0x3e6a0d42	0.2285662
87	0x3d886755	0.06660334
88	0x3e057b4a	0.13035312
89	0xbc2644e7	-0.010148264
90	0x3c38b5fd	0.011273858
91	0x3e23ce45	0.15996654
92	0xbde4e405	-0.11176304
93	0x3af8928b	0.0018964572
94	0xbe55099f	-0.20804451
95	0x3e1653b2	0.14680365
96	0xbd42e564	-0.047582045
97	0xbe4fe835	-0.20303424
98	0xbe72994f	-0.23691295
99	0x3d485b08	0.04891494
100	0xbe0608bd	-0.13089271
101	0x3e74d66a	0.23909917
102	0x3e4cbf54	0.19994861
103	0x3e3a882b	0.18216006
104	0x3db1f03e	0.08688401
105	0x3ca073b9	0.01958643
106	0xbdcaa21e	-0.09894203
107	0xbe498d30	-0.19682765
108	0xbe5a9b46	-0.21348295
109	0x3d933b09	0.071889944
110	0x3e71dd25	0.23619516
111	0x3dfee119	0.12445278
112	0x3d463fdd	0.04840075
113	0x3d86ed6a	0.06588252
114	0xbe54017c	-0.20703691
115	0x3d87a72d	0.06623683
116	0x3db39546	0.08768706
117	0xbdd460d2	-0.103700295
118	0xbe71d887	-0.23617755
119	0xbe33468c	-0.1750738
120	0x3d8d175f	0.06889223
121	0x3de4fee1	0.11181427
122	0xbd85c6c8	-0.06532055
123	0x3de1bbf3	0.110221766
124	0xbe149fe9	-0.14514126
125	0x3e363560	0.17793798
126	0xbe23c98b	-0.15994851
127	0x3e57c18b	0.21069925
128	0xbe12bade	-0.14329097
129	0xbe39be7d	-0.18139072
130	0xbe7b8015	-0.24560578
131	0xbc417f3d	-0.011810121
132	0x3e0c47b1	0.13699223
133	0x3d90abae	0.07063995
134	0x3e6c41f4	0.23072034
135	0xbe0f08bb	-0.13968174
136	0x3e5840b7	0.21118437
137	0x3d35a76b	0.044349115
138	0x3e4bf365	0.19917066
139	0x3cb1079c	0.021610074
140	0xbe1c30c6	-0.1525298
141	0xbe734315	-0.23756059
142	0x3e49d90d	0.19711705
143	0xbcd3d3c8	-0.025857821
144	0x3dbb8db9	0.09157891
145	0x3ca83233	0.02053175
146	0xbdf0e2e8	-0.11762029
147	0x3de7529b	0.112950526
148	0xbe54612d	-0.20740195
149	0xbe04b6a3	-0.12960295
150	0x3e482cf6	0.19548401
151	0xbe68bf58	-0.22729242
152	0xbe655c3e	-0.22398469
153	0x3dbfb590	0.09360802
154	0xbe0f609f	-0.14001702
155	0xbd9bbada	-0.076039985
156	0x3dca6ee5	0.09884433
157	0x3d70a69a	0.058752634
158	0x3e49ecd3	0.19719248
159	0xbe5b9c09	-0.21446241
160	0xbd7427ba	-0.0596082
161	0x3e61b364	0.22041088
162	0x3e0e4c9f	0.13896416
163	0x3e58e3bc	0.21180624
164	0x3d64ad19	0.05582914
165	0x3e13e364	0.14442211
166	0x3c73344c	0.0148440115
167	0x3e0e0572	0.13869265
168	0xbe45f9bc	-0.19333547
169	0xbe00dace	-0.12583467
170	0x3e544929	0.20731033
171	0x3e1468bb	0.14493077
172	0x3dacc82c	0.08436617
173	0x3e6b31f1	0.2296827
174	0x3deb232e	0.11481319
175	0x3c839ee9	0.016066985
176	0xbe29a35b	-0.16566221
177	0x3d0dcaac	0.03461711
178	0x3e2a0f9b	0.16607516
179	0xbe007448	-0.12544358
180	0x3dab543e	0.08365677
181	0xbcd66972	-0.026173327
182	0x3e5bd2e2	0.21467164
183	0xbc8e073b	-0.017337432
184	0x3d9cb195	0.076510586
185	0xbe5a627d	-0.21326633
186	0xbd34d22e	-0.044145755
187	0x3c769794	0.0150507875
188	0xbe687633	-0.2270134
189	0xbe21fb13	-0.15818433
190	0x3dc59b59	0.09648771
191	0xbe139ab5	-0.14414485
192	0xbe75bc03	-0.23997502
193	0x3dd5b750	0.10435355
194	0x3d95fc19	0.073234744
195	0x3e592ce3	0.21208529
196	0x3d9d482c	0.07679781
197	0xbe33aec6	-0.1754714
198	0x3d773df8	0.060361832
199	0xbe20bff9	-0.15698232
200	0x3dd8537b	0.10562798
201	0x3dd40b4e	0.10353719
202	0x3e43aacd	0.19108124
203	0x3e786d57	0.2426046
204	0xbe68b178	-0.22723949
205	0xbc0abf0f	-0.0084684035
206	0xbd352d9d	-0.044232953
207	0xbd8106fe	-0.06300162
208	0xbe2d2d72	-0.16911867
209	0xbdf0397e	-0.11729716
210	0xbd92cf34	-0.07168427
211	0xbe6ea675	-0.23305686
212	0xbe0beca6	-0.13664493
213	0xbe599fc4	-0.21252352
214	0xbcb55583	-0.022135502
215	0x3e23449f	0.15944146
216	0xbdc180c7	-0.094483905
217	0x3e65f334	0.22456056
218	0xbdd036af	-0.1016668
219	0x3d9f836d	0.07788739
220	0xbe412d94	-0.18865043
221	0xbdaf9ac2	-0.085744396
222	0x3de36a54	0.11104265
223	0x3dd4199f	0.10356449
224	0xbe07ec43	-0.1327372
225	0x3e5c0031	0.21484448
226	0x3d068cbf	0.03284907
227	0x3d599fe6	0.053131007
228	0xbe7e4b7a	-0.2483348
229	0x3df064d0	0.117379785
230	0xbe3bf83d	-0.18356414
231	0x3e4d2581	0.20033838
232	0xbd9f338c	-0.07773504
233	0x3e388aef	0.18021749
234	0xbcede103	-0.029037958
235	0x3e61d729	0.22054733
236	0xbd80eef8	-0.0629558
237	0xbdf5feec	-0.12011513
238	0x3e5b1db9	0.21398057
239	0x3e2ec57c	0.17067522
240	0xbe2b5015	-0.16729768
241	0xbd95a2bc	-0.0730643
242	0xbd2e6893	-0.0425802
243	0x3d053997	0.032525625
244	0x3e88c980	0.26716232
245	0xbdf67ef4	-0.12035933
246	0x3d5a215f	0.05325448
247	0x3d92ca73	0.071675204
248	0xbd216f97	-0.03941306
249	0x3d379126	0.04481616
250	0xbe0f02f9	-0.13965978
251	0x3dbdd9ca	0.092700556
252	0x3de4a227	0.111637406
253	0x3cbe8b1f	0.023259697
254	0xbe47a351	-0.19495894
255	0x3e82f143	0.25574693

layers.1.bias f4 [16]
0	0xbe7b4755	-0.2453893
1	0x3e4f72b6	0.20258602
2	0xbe03667a	-0.1283206
3	0xbcd26d7a	-0.025686968
4	0xbdd84096	-0.10559194
5	0x3e201701	0.15633775
6	0xbe3d97f0	-0.18514991
7	0xbe66709d	-0.22503896
8	0x3cfbd3bb	0.03074061
9	0xbe1ddbb7	-0.15415846
10	0xbc483d25	-0.012221609
11	0x3e2625b5	0.16225322
12	0x3dadac22	0.08480097
13	0xbccb3077	-0.024803383
14	0xbe73c4d4	-0.23805553
15	0x3d1fb5ef	0.038991865

layers.2.weight f4 [1, 16]
0	0xbe5141bc	-0.20435232
1	0xbe089bec	-0.1334073
2	0xbe24cc2f	-0.16093515
3	0x3e223201	0.15839387
4	0xbdfa59b5	-0.122241415
5	0x3e26726b	0.16254584
6	0xbdb1e8db	-0.08686992
7	0xbe235f2f	-0.15954278
8	0x3debbef0	0.11511028
9	0x3d8b966f	0.06815802
10	0x3e2c0225	0.16797693
11	0x3d5e4be4	0.054271594
12	0x3ce6dc4d	0.02818122
13	0x3e0eee43	0.13958077
14	0x3ded8481	0.11597539
15	0x3e937f82	0.28808218
