examples/data/saved_models/pytorch_connect/saved_model_compas0.pth (torch, 5824 bytes, 5 tensors)

weight f4 [16, 7]
0	0xbe40e882	-0.18838695
1	0x3de22fac	0.11044249
2	0x3e885f42	0.26635176
3	0xbea89214	-0.3292395
4	0x3e053163	0.13007121
5	0x3ea12edc	0.31481063
6	0x3eba37ea	0.36370784
7	0x3e8f313d	0.27967253
8	0xbe2f55fb	-0.17122643
9	0xbec3deee	-0.3825602
10	0x3da06d39	0.078333326
11	0x3d67c8a9	0.05658785
12	0xbda14e2d	-0.07876239
13	0x3bd4616f	0.0064813416
14	0xbe1bad2d	-0.1520278
15	0xbdc946b3	-0.09827938
16	0x3e5cdbdd	0.21568246
17	0x3dc2afb2	0.095061675
18	0x3df8ffc9	0.12158162
19	0x3e8c69a0	0.27424335
20	0x3e9dc6a0	0.308156
21	0xbd8ac5fb	-0.06776043
22	0xbeb3b341	-0.35097697
23	0x3d3b40b6	0.04571601
24	0xbe87f0b3	-0.26550826
25	0xbd767e1d	-0.060178865
26	0x3e0680b8	0.1313504
27	0xbe348399	-0.17628326
28	0xbd08a96e	-0.033364706
29	0x3dc9dfeb	0.09857162
30	0x3e4d8e21	0.20073749
31	0x3e96cb53	0.29452
32	0xbe1e27df	-0.15444897
33	0x3e5eecb0	0.21769977
34	0x3de2b98c	0.110705465
35	0xbe7eae5f	-0.24871205
36	0xbe252364	-0.16126782
37	0xbe87d1b2	-0.26527172
38	0x3e7b3d57	0.24535118
39	0x3e9c0449	0.3047202
40	0x3d874dd3	0.06606641
41	0xbe649b9b	-0.22324984
42	0xbe33cb58	-0.17558038
43	0x3ebb2621	0.36552528
44	0x3d801fa4	0.06256035
45	0xbe9bbf37	-0.30419323
46	0xbe5adb3d	-0.21372695
47	0x3e1b209a	0.15149155
48	0x3ea37aa1	0.31929496
49	0x3dcbe626	0.09956007
50	0xbe8a9f39	-0.27074602
51	0x3d6f44cb	0.058415215
52	0x3ea41131	0.32044366
53	0xbccfedae	-0.02538189
54	0xbe80865c	-0.25102508
55	0x3ec31c31	0.38107446
56	0xbd58e67f	-0.052954193
57	0xbe7c0c39	-0.24614038
58	0x3d13a572	0.036046453
59	0xbd938b76	-0.072043344
60	0x3e08e20b	0.13367479
61	0xbd90bb4a	-0.070669726
62	0x3d1cab3c	0.03824924
63	0xbeb7aac5	-0.35872474
64	0xbe78c8f6	-0.2429541
65	0x3e015f5c	0.12634033
66	0xbe0a3199	-0.13495483
67	0xbc5299f5	-0.012854089
68	0x3e141afe	0.14463422
69	0xbe2bfcda	-0.16795674
70	0xbd42ca5c	-0.047556266
71	0xbebe701e	-0.37194914
72	0xbe983320	-0.29726505
73	0xbd409046	-0.04701259
74	0x3e38c3a4	0.18043381
75	0xbdefc239	-0.11706967
76	0x3e8a7bf3	0.2704769
77	0xbd07ea40	-0.033182383
78	0xbe8d50e8	-0.2760079
79	0x3e8d6bb2	0.27621228
80	0x3e665b6a	0.22495809
81	0xbe751ff9	-0.23937978
82	0x3e3f8aa9	0.18705238
83	0x3e0aea24	0.1356588
84	0x3df8a187	0.12140184
85	0xbe27de2b	-0.16393344
86	0x3d5ee4bc	0.054417357
87	0xbe8626ff	-0.26201627
88	0xbe22ce4d	-0.1589901
89	0xbdb88e6e	-0.09011541
90	0xbcb169cb	-0.021656891
91	0xbdc2a31d	-0.09503768
92	0xbe0e8798	-0.13918912
93	0x3e0da548	0.13832581
94	0x3cdafd77	0.02673219
95	0xbeb252f7	-0.34828922
96	0x3de90ec2	0.11379768
97	0x3e8012b3	0.25014266
98	0x3e99af21	0.30016425
99	0x3e972371	0.29519227
100	0xbdba68bf	-0.0910201
101	0xbd7f3856	-0.062309586
102	0xbe8dcc50	-0.2769494
103	0xbce62f9f	-0.02809888
104	0x3ec426bb	0.383108
105	0xbe58a03f	-0.21154879
106	0x3e801fdd	0.2502431
107	0x3e86d538	0.26334548
108	0x3e75b53d	0.23994918
109	0xbe3e99e6	-0.18613395
110	0x3de598ed	0.11210809
111	0x3c615aa5	0.0137545215

bias f4 [16]
0	0x3e4ead68	0.20183337
1	0x3d81785c	0.06321785
2	0xbca6a30b	-0.020341417
3	0xbe4bbf31	-0.19897152
4	0xbd6151c7	-0.05500963
5	0xbe9b76f9	-0.30364206
6	0xbe5b97ca	-0.21444622
7	0x3cae8628	0.021304205
8	0x3d947faa	0.072509125
9	0x3eb5cc86	0.35507601
10	0x3e832668	0.2561524
11	0x3e6c21ea	0.23059812
12	0xbea5ff59	-0.32421377
13	0x3d5d2f23	0.05400003
14	0xbe977853	-0.29583988
15	0xbe850acb	-0.25984797

weight f4 [16, 16]
0	0xbd0e89ac	-0.034799263
1	0xbd70f959	-0.058831546
2	0xbd662ba3	-0.05619396
3	0xbb6cfcc4	-0.0036161402
4	0x3e73957b	0.23787491
5	0x3c1b7e2d	0.009490532
6	0x3d60a800	0.054847717
7	0xbdb34e9f	-0.0875523
8	0xbe0c99eb	-0.1373059
9	0xbd7c8ef0	-0.061659753
10	0xbe22116e	-0.15826961
11	0xbdf7b95d	-0.12095902
12	0x3e76ea40	0.24112797
13	0x3e1c404a	0.152589
14	0xbcace1f4	-0.021103837
15	0xbd881406	-0.06644444
16	0xbdc99933	-0.098436736
17	0xbe061825	-0.13095148
18	0xbdc3e7f8	-0.09565729
19	0xbca21ecf	-0.019790081
20	0x3d43fff5	0.04785152
21	0xbe6fee42	-0.23430732
22	0x3e8317e8	0.25604177
23	0xbe3ecfe9	-0.18633999
24	0x3e4ba562	0.19887307
25	0xbe017882	-0.12643626
26	0xbd8d5485	-0.069008864
27	0x3e74fda0	0.23924875
28	0x3d12d499	0.03584728
29	0x3e656776	0.22402748
30	0x3e1c019d	0.1523499
31	0xbda7cfac	-0.08193907
32	0xbbdf951a	-0.006823194
33	0x3d960f94	0.0732719
34	0x3dd3bca3	0.10338714
35	0x3e0083f3	0.12550335
36	0x3e3de70f	0.18545173
37	0xbe14ab78	-0.14518535
38	0x3e799b73	0.24375705
39	0xbdda4f00	-0.10659599
40	0xbddc8911	-0.10768331
41	0xbcd1fc08	-0.025632873
42	0xbdd832b3	-0.10556545
43	0x3d9296dd	0.07157681
44	0xbe6331aa	-0.22186914
45	0xbc5e8064	-0.013580415
46	0x3d607259	0.05479655
47	0x3e3bf9c5	0.18356998
48	0xbd8a2fa7	-0.0674737
49	0xbe5cb4ff	-0.2155342
50	0xbe6fd4ae	-0.23420975
51	0x3d0f6605	0.035009403
52	0xbc96542e	-0.018350687
53	0xbc5c56ee	-0.01344846
54	0x3e7f3a4b	0.24924581
55	0x3e37b620	0.17940569
56	0x3ccca066	0.024978828
57	0x3da7823c	0.08179137
58	0x3dbeae0b	0.0931054
59	0x3daebaa6	0.08531694
60	0x3d2f6684	0.042822376
61	0xbdec3fd7	-0.11535614
62	0xbe0bf25f	-0.13666676
63	0x3da5d5f8	0.08097452
64	0xbe003614	-0.12520629
65	0xbe6ff270	-0.23432326
66	0xbc8eab33	-0.017415619
67	0xbdd741a4	-0.10510567
68	0xbe45796d	-0.19284602
69	0xbb9495c0	-0.004534453
70	0x3e132029	0.14367737
71	0xbcc33a50	-0.023831517
72	0xbe380f42	-0.1797457
73	0xbe22c66c	-0.15896004
74	0x3db78770	0.089613795
75	0xbd64fec7	-0.055907037
76	0x3e312275	0.172983
77	0xbe54c6df	-0.20778988
78	0x3dfb18c7	0.12260585
79	0x3c5d5bc0	0.013510644
80	0x3d08a107	0.033356693
81	0x3d273e52	0.040830918
82	0x3da38352	0.07984032
83	0x3e5c05a4	0.21486527
84	0xbe3df9c6	-0.18552312
85	0xbe08f347	-0.13374053
86	0xbe4c982a	-0.19979921
87	0x3d24fdf2	0.040281244
88	0xbe1080cb	-0.1411163
89	0x3dd264d6	0.10273139
90	0x3e77b63f	0.24190615
91	0xbe1fde65	-0.1561218
92	0x3d85ace7	0.06527119
93	0x3e43489a	0.19070664
94	0xbd41063b	-0.047125082
95	0xbe4e3029	-0.20135559
96	0xbe801901	-0.25019076
97	0x3cf2fd1e	0.029661711
98	0xbe0faba4	-0.1403032
99	0x3e685804	0.22689825
100	0x3c8d1970	0.017224044
101	0xbd1a6326	-0.03769221
102	0x3bdb9604	0.006701233
103	0xbdd2e825	-0.10298184
104	0x3e5a1fd1	0.213012
105	0x3c70fbb3	0.014708447
106	0xbe5637d9	-0.20919742
107	0xbe1dbf06	-0.15404901
108	0x3d18cb3e	0.0373032
109	0xbd3da768	-0.04630223
110	0xbd6cd3db	-0.05781923
111	0xbe60b43e	-0.21943757
112	0xbe051128	-0.12994826
113	0x3e30edef	0.17278264
114	0xbc8d8a08	-0.017277732
115	0x3e328e1f	0.17437027
116	0xbdda7f4e	-0.10668813
117	0xbe6f3442	-0.23359779
118	0xbe1520a7	-0.14563237
119	0xbe08e897	-0.13369976
120	0x3da1b07c	0.0789499
121	0x3e2aade2	0.16667894
122	0x3d963e6d	0.073361255
123	0xbe0f2ce7	-0.13981973
124	0x3e75aca7	0.23991643
125	0xbb90125c	-0.00439672
126	0x3da40b22	0.08009936
127	0xbe50185e	-0.20321795
128	0xbe288d20	-0.16460085
129	0xbe74438a	-0.23853889
130	0xbcd6c4f7	-0.026216967
131	0xbde51df7	-0.11187356
132	0x3ddf44cb	0.10901793
133	0x3e0bbeb5	0.13646968
134	0xbddc7bdf	-0.10765814
135	0x3dd6ca33	0.10487785
136	0x3bacf113	0.0052777617
137	0x3e1eb3bd	0.15498252
138	0xbde1f74b	-0.110334955
139	0x3dd04c8d	0.10170851
140	0xbdbec0c6	-0.09314112
141	0xbe5b4b4d	-0.21415444
142	0x3e0044e1	0.12526275
143	0xbe56e8f2	-0.20987299
144	0xbe3dfd88	-0.18553746
145	0xbe2aa5ff	-0.16664885
146	0xbe773990	-0.24143052
147	0x3e318976	0.17337593
148	0x3d1836bc	0.037161574
149	0xbe43dc03	-0.19126897
150	0x3dfb5849	0.122726984
151	0x3e437a8f	0.19089721
152	0xbdd704f5	-0.10498992
153	0xbd7a0d49	-0.061047826
154	0x3e5d2e11	0.21599604
155	0xbe8018e2	-0.25018984
156	0x3e08f985	0.13376434
157	0x3dc10705	0.09425167
158	0xbe579e6e	-0.2105653
159	0x3d2fd545	0.042928
160	0x3dc33383	0.095313095
161	0x3e4cbf93	0.19994955
162	0xbdbcf212	-0.09225859
163	0xbdfdf5f3	-0.12400427
164	0xbe362951	-0.17789198
165	0xbe575bac	-0.21031064
166	0xbd8f87f9	-0.070083566
167	0x3d54f678	0.051992863
168	0xbd86a92a	-0.06575234
169	0xbddd279d	-0.10798571
170	0x3e313320	0.17304659
171	0xbdeeeb66	-0.116659924
172	0x3d72396f	0.059136804
173	0x3bcd1506	0.0062586097
174	0xbabbd7d8	-0.0014331294
175	0xbe6f8b10	-0.23392892
176	0x3ccec1ed	0.025238955
177	0x3d8016bb	0.062543355
178	0xbd8f54c8	-0.069985926
179	0xbe7af791	-0.24508502
180	0xbe294a12	-0.16532162
181	0x3d2451cb	0.040117066
182	0x3e902315	0.28151765
183	0x3be30e38	0.0069291852
184	0xbe520318	-0.20508993
185	0x3dd90101	0.105958946
186	0xbdeb124a	-0.11478098
187	0x3e1791d8	0.14801729
188	0x3def6b61	0.11690403
189	0xbd497fde	-0.04919421
190	0x3d7a0716	0.061041914
191	0xba1a35bb	-0.000588264
192	0xbc6b30d5	-0.014354904
193	0x3d6a6ccc	0.057232663
194	0x3e7a514b	0.24445073
195	0x3e66a027	0.22522031
196	0x3b14b250	0.002268929
197	0xbd8f9c3d	-0.07012222
198	0xbddd8811	-0.10816968
199	0x3e6877e0	0.22701979
200	0xbdbc36f6	-0.091901705
201	0xbe423278	-0.18964565
202	0x3d61de1f	0.05514347
203	0xbe148c79	-0.14506711
204	0xbcc228a0	-0.023701012
205	0xbe2dee8b	-0.16985528
206	0xbe4bcbc8	-0.19901955
207	0xbe13ef26	-0.14446697
208	0xbe503883	-0.20334058
209	0x3e5df66e	0.21676037
210	0xbe77ffe4	-0.24218708
211	0x3d2d566a	0.04231874
212	0xbe7180fc	-0.2358436
213	0xbd84dfce	-0.06488
214	0x3e62694e	0.22110483
215	0xbe7d5cdc	-0.24742454
216	0x3e04c2cd	0.12964936
217	0x3cf4cd83	0.029883152
218	0x3e1ca012	0.15295437
219	0x3dada224	0.084781915
220	0xbe49843d	-0.19679351
221	0x3dfb6310	0.12274754
222	0xbe0a1a67	-0.13486634
223	0x3dbee1bc	0.09320399
224	0x3d06ea46	0.032938264
225	0xbe14f2d0	-0.1454575
226	0x3e257387	0.16157351
227	0x3e35cdf6	0.17754349
228	0xbde8f674	-0.11375132
229	0xbe732643	-0.23745064
230	0x3ddfcd54	0.10927835
231	0xbe5f8e39	-0.21831597
232	0xbd85b708	-0.06529051
233	0x3e77e67e	0.2420902
234	0xbe6e5ff7	-0.23278795
235	0x3d9ddf66	0.077086255
236	0xbe437739	-0.19088449
237	0xbe138d79	-0.14409436
238	0x3e564067	0.20923005
239	0xbe4bb835	-0.19894488
240	0x3df534a1	0.11972929
241	0xbe450af0	-0.19242454
242	0x3dee5405	0.11637119
243	0xbe70386b	-0.23459022
244	0xbe5bdc5f	-0.21470784
245	0xbd4794f4	-0.048726037
246	0x3da6615e	0.0812404
247	0x3e6e9f00	0.23302841
248	0x3e0ec5b2	0.13942602
249	0x3ddd0c25	0.10793332
250	0xbe2d7b5d	-0.1694159
251	0x3e37e5c4	0.17958742
252	0xbb91e134	-0.004451895
253	0xbe3c7a6b	-0.18406074
254	0xbe36a75d	-0.17837282
255	0x3dc7f93d	0.09764335

bias f4 [16]
0	0x3e46da0f	0.1941912
1	0x3e37efc2	0.17962554
2	0x3d4cf89a	0.050041772
3	0xbe4c00a0	-0.19922113
4	0xbdb7be0f	-0.08971798
5	0x3e15fa94	0.14646369
6	0xbd94abd2	-0.072593346
7	0xbe1f80e4	-0.15576512
8	0x3d521aca	0.05129508
9	0x3c81ebe7	0.015859557
10	0xbe0f6c99	-0.1400627
11	0x3e3bb3fc	0.18330377
12	0xbdb88a4c	-0.09010753
13	0x3e203659	0.15645732
14	0xbe4ecf15	-0.20196183
15	0xbe4a3219	-0.19745673

weight f4 [1, 16]
0	0x3da20283	0.07910635
1	0x3e626bac	0.22111386
2	0x3df91cb2	0.12163676
3	0x3d501643	0.05080248
4	0xbe45d516	-0.19319567
5	0xbe1a59ec	-0.15073365
6	0x3e74ae53	0.23894624
7	0x3e538b70	0.2065866
8	0x3e0990b1	0.13434102
9	0xbd595ef7	-0.05306908
10	0xbe12e6d0	-0.1434586
11	0x3e10f5ca	0.14156261
12	0xbd323795	-0.04351004
13	0xbe0b5beb	-0.13609283
14	0x3d965811	0.07341016
15	0xbe00be72	-0.12572649
