examples/data/saved_models/pytorch_connect/saved_model_income2.pth (torch, 5888 bytes, 5 tensors)

weight f4 [16, 8]
0	0x3e796f43	0.24358849
1	0x3d05c39a	0.032657243
2	0x3e21d51f	0.15803955
3	0x3d9cabcb	0.076499544
4	0x3e0a07e3	0.13479571
5	0xbd857aad	-0.06517539
6	0xbe8cfb31	-0.27535394
7	0x3e249f5c	0.16076416
8	0xbbf9fa3a	-0.0076287063
9	0x3dc7fca8	0.09764987
10	0xb9f37edf	-0.00046443098
11	0x3e37f059	0.17962779
12	0xbe3c3a79	-0.1838168
13	0xbea56149	-0.32300785
14	0xbe58e63b	-0.21181576
15	0xbd6c155f	-0.05763757
16	0xbeb01bd5	-0.34396234
17	0xbdbf4bda	-0.093406394
18	0xbe347b1f	-0.17625092
19	0xbd304bc7	-0.043041017
20	0xbeaf986f	-0.34295985
21	0x3e1b15c9	0.15145029
22	0x3e945ebd	0.2897853
23	0xbe08c481	-0.1335621
24	0x3e09614b	0.1341602
25	0x3de78c40	0.113060474
26	0xbe5e56e3	-0.21712832
27	0xbe988002	-0.29785162
28	0xba9f64e6	-0.0012160807
29	0x3e82b19b	0.25526127
30	0xbebaddc3	-0.36497316
31	0xbd542de6	-0.051801585
32	0x3e982cd3	0.29721698
33	0x3e194aba	0.14969912
34	0x3e9505e8	0.2910607
35	0xbe37e9b6	-0.17960247
36	0xbe83f6cb	-0.25774226
37	0xbe0a236f	-0.1349008
38	0x3d922f37	0.07137912
39	0xbda4247e	-0.08014773
40	0xbe93696d	-0.2879137
41	0xbe7836fe	-0.24239728
42	0xbdee94d6	-0.11649482
43	0x3c7e9190	0.0155376345
44	0x3e255a86	0.16147813
45	0xbe3cd240	-0.18439579
46	0x3e310ee7	0.17290841
47	0xbe70dc7c	-0.23521608
48	0x3d8657e7	0.06559735
49	0xbe8998db	-0.26874432
50	0x3d0a9b2c	0.03383939
51	0x3e187dce	0.1489174
52	0xbdc84945	-0.097796
53	0x3e74516c	0.23859185
54	0x3e26e5a0	0.16298532
55	0xbdbe59e8	-0.09294492
56	0x3e861ba2	0.26192957
57	0xbe9dbf80	-0.30810165
58	0xbe19e708	-0.15029538
59	0x3e52855e	0.20558688
60	0xbd8b65c0	-0.06806517
61	0xbe8211c8	-0.2540419
62	0x3d94d703	0.07267573
63	0xbde43f2a	-0.1114486
64	0xbea82e08	-0.3284762
65	0x3e2b797f	0.16745566
66	0xbeaca16f	-0.33716914
67	0x3d747593	0.05968244
68	0x3e92b2df	0.28652093
69	0x3e1b33b2	0.15156439
70	0x3cbfc52b	0.023409447
71	0x3d987fda	0.07446261
72	0x3e3264e0	0.17421293
73	0xbe925b04	-0.28585064
74	0xbcabc546	-0.02096809
75	0xbd3f90f0	-0.046769083
76	0xbe12a722	-0.14321569
77	0xbd325cee	-0.043545656
78	0xbe57377d	-0.21017261
79	0xbe0b5567	-0.13606797
80	0xbe45e3f1	-0.19325234
81	0xbdc81c6e	-0.097710475
82	0xbd4fd213	-0.05073745
83	0xbca40f72	-0.020026896
84	0xbe64ba90	-0.22336793
85	0xbe91b4fa	-0.28458387
86	0x3c6bacd3	0.014384466
87	0xbe27ea7c	-0.16398042
88	0x3e7bbd1f	0.24583863
89	0xbe7298a7	-0.23691045
90	0xbea16a38	-0.3152635
91	0x3e590879	0.21194638
92	0x3e8db4f9	0.27677134
93	0xbe4b1797	-0.19833218
94	0xbcef0931	-0.029179187
95	0xbc8de611	-0.017321618
96	0x3ead0655	0.33793893
97	0xbe9fc025	-0.31201282
98	0x3e6272f3	0.22114162
99	0x3d82deb2	0.06390132
100	0xbe63da42	-0.22251227
101	0x3da25c46	0.07927756
102	0x3e3f0169	0.18652882
103	0xbcf4fef4	-0.029906727
104	0x3d3b4f1c	0.04572974
105	0xbe84a2a9	-0.2590535
106	0xbe2224a0	-0.15834284
107	0xbeafc1df	-0.343276
108	0xbdc07009	-0.09396369
109	0x3e707aa1	0.23484279
110	0x3d79ab06	0.060954116
111	0x3d8aa41f	0.06769585
112	0x3e951f37	0.29125378
113	0xbe7ce07f	-0.24695013
114	0xbe6cb4d7	-0.2311586
115	0xbc53f928	-0.012937821
116	0xbdad8476	-0.084725305
117	0xbe182d37	-0.14860998
118	0xbea33857	-0.3187892
119	0x3e9c0a78	0.30476737
120	0xbc30b62a	-0.010785619
121	0x3e21287a	0.15738097
122	0x3e3f8af5	0.18705352
123	0xbc733a51	-0.014845447
124	0x3ea5dff2	0.3239742
125	0x3e444daa	0.19170251
126	0x3e8a6890	0.270329
127	0x3eb14727	0.34624597

bias f4 [16]
0	0x3e810a10	0.2520299
1	0x3d8bf678	0.068341196
2	0xbea905ac	-0.3301214
3	0xbeb03301	-0.34413913
4	0x3e9fe238	0.3122728
5	0x3e9c52e1	0.30531982
6	0x3e9ca781	0.30596545
7	0xbe9ec43e	-0.31009096
8	0xbe828c8b	-0.2549785
9	0xbe9a4f93	-0.30138835
10	0xbdaa3ea4	-0.08312729
11	0xbe88b426	-0.26699942
12	0xbcd43239	-0.025902854
13	0xbe66859c	-0.22511905
14	0x3dbbc9e9	0.09169371
15	0xbdaf64c4	-0.085641414

weight f4 [16, 16]
0	0x3e4a4a42	0.1975489
1	0x3d633708	0.055472404
2	0xbe0956cc	-0.13412017
3	0x3cfbaade	0.030721124
4	0x3e5c406f	0.21508954
5	0xbd06bbd9	-0.03289399
6	0xbe723a22	-0.23654988
7	0x3e331f47	0.174924
8	0xbe22303b	-0.15838711
9	0xbd860dd7	-0.065456085
10	0x3e74c84c	0.23904532
11	0xbe3fd3f0	-0.18733191
12	0x3e5dad01	0.21648027
13	0x3d71485d	0.0589069
14	0x3e0aaccb	0.13542478
15	0x3e3843f2	0.17994669
16	0xbe768504	-0.24074179
17	0xbe78cec9	-0.24297632
18	0x3e1f6c2e	0.15568611
19	0x3e7a7121	0.24457218
20	0x3e6c7f43	0.23095421
21	0xbe3ae5b1	-0.18251683
22	0xbd229bfc	-0.03969954
23	0x3e7a4825	0.24441583
24	0x3df40964	0.119158536
25	0xbe6b7f9d	-0.229979
26	0xbcdda4f0	-0.027056187
27	0x3e123b95	0.14280541
28	0xbe049d3d	-0.12950607
29	0x3e35a3b3	0.17738228
30	0xbe293f01	-0.1652794
31	0xbe143ca7	-0.14476262
32	0x3e1b2c1f	0.1515355
33	0x3bf182a0	0.007370308
34	0xbd8c283b	-0.06843611
35	0xbe7b6487	-0.24550067
36	0xbe04f2ab	-0.12983195
37	0xbd83a860	-0.06428599
38	0x3e4af217	0.19818912
39	0x3de79904	0.11308482
40	0x3e29e69d	0.16591878
41	0xbe0f2e9f	-0.13982628
42	0x3e78035d	0.24220033
43	0x3e2844b1	0.16432454
44	0x3e172276	0.1475924
45	0x3e1c2455	0.15248235
46	0xbe2155e7	-0.15755425
47	0xbdb94265	-0.09045867
48	0xbdfa6984	-0.12227157
49	0x3e0b262d	0.13588782
50	0xbe1fe704	-0.15615469
51	0x3d9275ea	0.071513966
52	0x3d854adf	0.06508421
53	0x3e0c30e3	0.13690524
54	0xbdb3760a	-0.087627485
55	0x3e3971fd	0.1810989
56	0xbdb80ebd	-0.08987186
57	0xbe3a7b80	-0.18211174
58	0x3e45bd78	0.19310558
59	0xbe07f12f	-0.13275598
60	0xbe2a1b05	-0.1661187
61	0x3d148c34	0.03626652
62	0xbda3a0ef	-0.0798968
63	0xbd2c0cd4	-0.04200442
64	0x3d82e9b1	0.06392229
65	0x3e7a8c3d	0.24467559
66	0x3e77e9a2	0.24210218
67	0xbda3ea6a	-0.08003695
68	0x3e02fb8a	0.12791267
69	0xbe56153e	-0.20906541
70	0x3de69319	0.112585254
71	0x3e2f215f	0.17102574
72	0xbe829728	-0.25505948
73	0x3ce44d7e	0.027868982
74	0xbe04f418	-0.1298374
75	0xbe30594c	-0.17221564
76	0xbb21f7b3	-0.002471429
77	0xbda69dbf	-0.081355564
78	0x3d9194a8	0.07108432
79	0xbe83b3bc	-0.25723064
80	0x3ccd0710	0.025027782
81	0xbe7e4f38	-0.24834907
82	0xbb46d1f8	-0.0030337553
83	0x3d9a16ec	0.07523903
84	0x3e214c89	0.15751852
85	0xbe13ee70	-0.14446425
86	0x3e2594c9	0.16170038
87	0xbdde85e1	-0.10865379
88	0x3e655c36	0.22398457
89	0x3e4b1cf2	0.1983526
90	0xbda69412	-0.08133711
91	0xbe1c7fb2	-0.15283087
92	0xbe72affc	-0.23699945
93	0xbe652b88	-0.22379887
94	0xbe2270ea	-0.15863386
95	0xbe7a4eef	-0.24444173
96	0x3e628711	0.22121836
97	0xbe0302d5	-0.12794049
98	0xbdb10bcc	-0.08644828
99	0xbc317b6b	-0.010832648
100	0xbd94327c	-0.07236192
101	0xbdab369e	-0.08360027
102	0x3df33fc8	0.118774
103	0xbdc9da84	-0.09856132
104	0xbe22e5ea	-0.15908018
105	0x3e2e11f0	0.1699903
106	0xbe352cba	-0.17692843
107	0xbe1abf68	-0.15112078
108	0xbe0aa5f8	-0.13539875
109	0xbe5129e8	-0.20426142
110	0x3d9a5416	0.07535569
111	0x3daf7d9c	0.0856888
112	0x3dd7206d	0.105042316
113	0x3c1c235b	0.009529914
114	0x3e0a4dce	0.13506243
115	0xbe1f8761	-0.15578987
116	0x3e204ebc	0.15655035
117	0x3e35162e	0.17684242
118	0x3e069665	0.13143308
119	0x3e43b003	0.19110112
120	0xbe67050a	-0.22560516
121	0xbe63cd6e	-0.22246334
122	0xbe5bd7ae	-0.21468994
123	0x3d92e012	0.07171644
124	0x3e291525	0.16511972
125	0xbe803fdc	-0.2504872
126	0xbe3b2cce	-0.1827881
127	0xbd04d8d4	-0.032433346
128	0x3e08cd48	0.13359559
129	0x3e59012a	0.2119185
130	0x3e087087	0.13324176
131	0x3e1122b9	0.14173402
132	0xba341bd8	-0.0006870604
133	0x3d7aaf4e	0.06120234
134	0xbe47a1c1	-0.19495298
135	0xbe67785a	-0.22604504
136	0x3daa4d04	0.08315471
137	0x3e6a8c11	0.22904994
138	0xbe2e3e6c	-0.17016
139	0x3da5257c	0.0806379
140	0x3e4c54bf	0.19954203
141	0x3b26c602	0.0025447612
142	0x3e299c30	0.16563487
143	0x3e753f98	0.2395004
144	0x3a82607d	0.0009946969
145	0x3e06b4bc	0.13154882
146	0x3d7d1f95	0.061797697
147	0xbe7900e3	-0.24316745
148	0x3e07a201	0.13245393
149	0xbe4df8d9	-0.20114459
150	0x3dbd820f	0.09253322
151	0xbd869e77	-0.065731935
152	0x3e4ec1a9	0.20191063
153	0xbe1a5713	-0.15072279
154	0xbe334163	-0.17505412
155	0xbe605aed	-0.21909685
156	0x3e26e199	0.16296996
157	0x3e20eda1	0.15715648
158	0xbe60e951	-0.21964003
159	0x3ce3a281	0.027787449
160	0xbcb5cbd8	-0.022191927
161	0xbdf27d52	-0.11840309
162	0xbdd6f8ad	-0.1049665
163	0x3e4d3ec4	0.20043474
164	0xbd2d04c3	-0.04224087
165	0xbd470813	-0.048591685
166	0xbb806ea5	-0.00391944
167	0x3dbbe32c	0.09174189
168	0xbd5c9e5f	-0.053861972
169	0xbe093bb2	-0.13401678
170	0xbd461334	-0.048358157
171	0xbd808f27	-0.06277304
172	0xbdc3afe3	-0.09555032
173	0x3e62e555	0.22157796
174	0xbe571d86	-0.21007356
175	0x3e25756a	0.16158071
176	0x3df81ddd	0.12115071
177	0x3e47d73a	0.19515696
178	0xbd66e7b2	-0.056373306
179	0x3e19193b	0.14951031
180	0x3c8cc19d	0.017182166
181	0xbe77c6d9	-0.24196948
182	0x3e6b0f3d	0.22955032
183	0xba82ba40	-0.000997372
184	0x3d5d164c	0.053976342
185	0xbe15c7c4	-0.14626986
186	0xbe439d4e	-0.19102976
187	0x3e4d88a5	0.20071657
188	0xbe4e2183	-0.20129971
189	0x3da4fed5	0.08056418
190	0xbd2a8bf1	-0.041637365
191	0xbe10e388	-0.14149296
192	0xbdd94808	-0.10609442
193	0x3d4c1db4	0.049833015
194	0xbe15c58b	-0.14626138
195	0x3e19340e	0.14961264
196	0xbd8b1aab	-0.06792196
197	0xbb3b8f27	-0.002861926
198	0xbca9c6ef	-0.020724742
199	0x3e2d8831	0.16946484
200	0xbe704600	-0.23464203
201	0xbd141a55	-0.036157925
202	0x3e6c5377	0.23078714
203	0x3de7fa65	0.11327056
204	0x3e4bb52f	0.19893335
205	0xbe0f1756	-0.13973746
206	0x3df159ab	0.11784681
207	0xbc1ee3d0	-0.009697869
208	0x3e562898	0.20913923
209	0x3dc69c2e	0.09697758
210	0xbd3e3270	-0.04643482
211	0xbdacca36	-0.08437006
212	0x3dd98833	0.10621681
213	0xbd812463	-0.06305768
214	0x3df583e3	0.11988046
215	0xbdcfd865	-0.10148696
216	0xbb23cf14	-0.0024995254
217	0xbe62e9f7	-0.22159563
218	0x3e2b6ae4	0.16739994
219	0x3e070100	0.13183975
220	0x3e7db276	0.24775109
221	0x3ddf7d21	0.10912538
222	0x3e37f77d	0.17965503
223	0xbda40e8c	-0.08010587
224	0xbddd3955	-0.10801951
225	0xbc956567	-0.018236829
226	0xbe218dbf	-0.15776728
227	0x3d6a525e	0.057207458
228	0x3d0ebff8	0.034851044
229	0xbcabed04	-0.020987041
230	0xbd7c9913	-0.06166942
231	0x3d596f2a	0.05308453
232	0x3de40e53	0.11135545
233	0xbe30bf5f	-0.17260502
234	0xbdf23519	-0.11826534
235	0xbc6b1f72	-0.014350759
236	0xbe01a578	-0.12660778
237	0x3dda7319	0.106664844
238	0xbe6efe65	-0.23339231
239	0xbdd4b0f3	-0.10385313
240	0x3cdaff95	0.0267332
241	0x3d0616e1	0.032736663
242	0x3e168b3e	0.14701554
243	0x3de853ba	0.113440946
244	0x3e27d6f9	0.163906
245	0x3e47dff2	0.19519022
246	0xbd572164	-0.05252208
247	0x3e10ba98	0.1413368
248	0xbe625b19	-0.22105063
249	0x3e62d752	0.2215245
250	0xbdb8c05d	-0.090210654
251	0x3e540e7b	0.20708649
252	0xbe606628	-0.2191397
253	0x3bcfe15b	0.006344003
254	0x3e66581f	0.22494553
255	0x3e7a04d0	0.24415898

bias f4 [16]
0	0x3e64f088	0.2235738
1	0xbc0ddb24	-0.008658204
2	0x3e63d716	0.22250018
3	0xbdd683aa	-0.10474332
4	0x3e48e6a2	0.1961923
5	0x3e0e0b73	0.13871555
6	0xbe88cc59	-0.26718405
7	0xbdd865e5	-0.1056631
8	0xbe2fe6b1	-0.17177846
9	0xbe05bf23	-0.13061194
10	0xbd2b6998	-0.04184875
11	0xbe233f5a	-0.15942135
12	0x3e3e30d9	0.18573321
13	0x3e102a39	0.14078607
14	0x3e51e35c	0.20496887
15	0xbd9bbf9a	-0.076049045

weight f4 [1, 16]
0	0x3d17f400	0.03709793
1	0x3e048c1f	0.12944077
2	0x3cfe38e9	0.031032996
3	0xbe0155f0	-0.12630439
4	0x3e50fed7	0.20409714
5	0x3dd4d4fe	0.103921875
6	0x3e56e2a8	0.209849
7	0xbd8a9a02	-0.06767656
8	0xbdbc79c9	-0.09202916
9	0x3d9a8b18	0.07546061
10	0x3ca4a02e	0.02009591
11	0xbe51e446	-0.20497236
12	0xbcd2074c	-0.025638245
13	0x3d801a16	0.062549755
14	0xbe0bcbb4	-0.13651925
15	0xbc0a9f5a	-0.008460844
