examples/data/saved_models/pytorch_connect/saved_model_compas4.pth (torch, 5824 bytes, 5 tensors)

weight f4 [16, 7]
00000000: 494a 873e fa72 e73d 2ed7 413e 10f7 a53e
00000010: 82d8 c7bc c375 adbe 4968 0a3e 653e 903e
00000020: 17ee 9e3e 5e8d 59be fae9 9d3e 3707 223d
00000030: 0536 85be 4851 0c3e 8ac1 9ebe 3ebc c0be
00000040: 7979 94bd da76 4bbe 1120 4ebe a05d b33e
00000050: 4bcd f0bc 5465 093e e587 cf3d ea86 b63d
00000060: ec9d bb3e 71d8 a7be 0b71 85be bce8 efbd
00000070: 96f1 ba3e 2a4a 823e 92f0 0abc cc9d a43c
00000080: 34b6 b03e babc 9dbc a487 953e 9193 82bc
00000090: e9d9 843e 085a ba3d 80a1 9d3d 9edf 58bd
000000a0: 0924 99be cd5d de3d 7854 6ebd ae0b 91be
000000b0: dc18 8a3e eeba 80bd b495 9fbe 574f 793e
000000c0: 9bf7 afbe 561e a93e 3762 2cbe 1018 b73d
000000d0: 4553 c03c 790d 253e 808a ddb9 9a7e 1d3e
000000e0: ac16 823e dccf 793e 63e9 97be ff17 0bbe
000000f0: 7ae4 bfbe 4bc7 9a3d 2374 60bd aa43 863e
00000100: 786a 703d 4978 aa3e 0211 d33d 0883 17be
00000110: f94b 2fbe 40e2 83be 2f09 dfbd b378 343d
00000120: a137 853e ab53 633e 5618 8b3e 5c44 b93e
00000130: 2766 82be 5e8a fa3c 3c09 933d a41a 12be
00000140: a5d4 babd c9f0 a4be 60f3 043e fade 883e
00000150: c8fe 373d 7f39 993e d5d8 60be 003c 05bd
00000160: d7a9 203d 114d b9be f5cf 9e3e 8ed0 afbd
00000170: 57f2 8f3e cb82 b6be f05c b93e 226a 2fbe
00000180: 432c 87bc 257d 6ebe 1846 a3be 93ef dcbd
00000190: 37ee c73e d5a3 37bd de5d 0cbb da48 42be
000001a0: 586b 8abe 6d40 32bd 14f2 7bbd 0a57 693d
000001b0: ccbf a2be 26f0 583e 45ef 06be 04d1 773e
0.26423863 0.11301227 0.18929741 0.32415056 -0.024395231 -0.33878908 0.13516344 0.28172603
0.31041023 -0.21245334 0.30842572 0.03955766 -0.26017776 0.13702881 -0.31007034 -0.37643617
-0.072497316 -0.19869557 -0.2012942 0.35032368 -0.029394766 0.1341756 0.10133342 0.089124516
0.36643922 -0.3278232 -0.26062807 -0.117143124 0.3651244 0.25447208 -0.008480208 0.020094775
0.3451401 -0.01925503 0.29205048 -0.015939506 0.25947502 0.09099203 0.07696819 -0.052947633
-0.29910305 0.10857735 -0.058186024 -0.28329223 0.2697209 -0.06285654 -0.31168902 0.24346672
-0.34368595 0.33030957 -0.16834341 0.089401364 0.023477206 0.1611842 -0.00042255595 0.15380326
0.25407922 0.24395698 -0.29670247 -0.13583373 -0.37479 0.07557543 -0.054798257 0.262235
0.058695287 0.33294895 0.10305978 -0.14796078 -0.17118825 -0.25758553 -0.108904235 0.04406042
0.26019004 0.22199886 0.27167004 0.36184967 -0.2546856 0.030583557 0.07179496 -0.14267975
-0.0912259 -0.32214954 0.12983465 0.26732618 0.044920713 0.2992668 -0.21957715 -0.032527924
0.039224472 -0.3619161 0.31018034 -0.085847005 0.28114578 -0.35646662 0.36203718 -0.1713033
-0.016500598 -0.23289926 -0.31889415 -0.10787883 0.3904893 -0.044833977 -0.0021418254 -0.18973103
-0.27035022 -0.043518472 -0.06151016 0.056967773 -0.31786954 0.2118536 -0.13177212 0.24200827

bias f4 [16]
00000000: 4907 b7be 0e41 363e 2ab6 cfbc a8ad babe
00000010: f821 623e 986c 5cbe 1a9d b43e 53b8 ca3e
00000020: c742 b7be 1906 a6bd 3ad4 e9bd d662 fe3b
00000030: 3855 3b3d 8959 3a3e c2e3 5bbe ee85 b8be
-0.35747746 0.17798254 -0.025355417 -0.36460614 0.2208327 -0.215258 0.3527611 0.39593753
-0.35793135 -0.08106632 -0.11417432 0.007763247 0.045735568 0.18198217 -0.21473601 -0.3603968

weight f4 [16, 16]
00000000: 7f55 3e3d d0d7 77be d06a b63d eacd 7dbe
00000010: 0d42 903c 6800 06be 9700 533d 067e 763d
00000020: c7e1 c03c 383c 5b3c f56b 06bd 4d8d 513e
00000030: 57cf 1f3d 8eb2 06be ad7a 033e 1dd7 1ebd
00000040: c860 953d 1539 3c3d d7d6 af39 6fec 663d
00000050: 51c0 493e 7e9a 96bd 65ed a83d cdb9 c53d
00000060: b5d2 12be 3ccd cf3c 8fab 463d aa61 6f3d
00000070: 95a2 083e 23d6 553e dd96 823c 2cb4 e23c
00000080: c178 1ebd a1cd 4cbe 3cf7 a9bd 190d 50be
00000090: 01bd 8f3d b462 2abe c3a7 563e db2f 0d3c
000000a0: 9142 033e 38f5 2d3e e1f6 35be 2459 523e
000000b0: b347 723d b1ee 063e 19fd 6a3e d919 0dbd
000000c0: 4a55 c5bd 5896 303d 6e65 bd3d 20db 28be
000000d0: 112e f7bd 8ecd e5bd 9200 6dbc 5843 e53c
000000e0: 3d69 fdbd 5dfe 503e baba 443e 5cf7 6abe
000000f0: b957 6e3d dcb6 b93d 88f7 223e cc60 713e
00000100: e9ac d43d 0b84 f93c af82 03be 7716 193d
00000110: cbaf 6d3e 45f5 c43d 1af6 b7bd 0cfe 483e
00000120: 59b1 5dbe 5ddd 473e 9dcb 0c3e 30e1 f3bb
00000130: edb4 6b3e 4d3e 60be 855e 4e3e 218a 6ebe
00000140: 0041 45be ba01 4e3e a9af 52bc d164 223d
00000150: fb8a feba a8cc 1c3e e95b 43be 3b79 22be
00000160: 3465 003e bb37 353e 8dfa 3fbe 918f a4bd
00000170: 49d5 973b 175e 253e 7e56 163e 7157 04be
00000180: 458f 403e 35fe c43d aaf5 183e c9f8 513d
00000190: 5666 063e 9f6f fbbb ca86 15be 08f1 52be
000001a0: 45f6 663e 4fa9 8c3c 9753 0c3e c85a aa3d
000001b0: a46b 38be b4f7 1fbd 03b5 28be bb37 0ebe
000001c0: 7749 04be 976f db3d a3a3 2fbe 13a4 7f3d
000001d0: 7f98 9c3d 9071 58be 7173 3f3e a0cb 0fbe
000001e0: d445 3b3e f548 03be 5349 553e 3592 4bbe
000001f0: 198b 2abe 3999 173e a0b9 7abd 07ec 053d
00000200: a00c ffbd 4823 3dbe efb9 45be 755a 11be
00000210: 75ee 81be d603 353e a77f 323e 7e85 003c
00000220: 2178 19be ad03 4e3e 0763 e63d e226 453e
00000230: 862b 373e 97e1 55be 4bff 4e3e 41d6 5e3e
00000240: 1cb8 26be 0afa 45be 238a f6bb acea 2b3e
00000250: 3171 533d 6c5b d53d 20e2 823d efb8 72bc
00000260: 6701 3b3e 7a50 61be d872 3abe 1bc1 e2bd
00000270: d357 61bd 1b48 4abe 8f9a c1bd f53b 3e3d
00000280: c1fb 6a3e 4ccb 1e3e 7032 933d c87e cc3d
00000290: b104 32bd 6a75 c9bd 9a49 c5bd 88c6 473d
000002a0: 177c 223e 254c 67be 5055 023e 054a 1b3e
000002b0: b585 1ebe 0a02 f4bd 60f3 913d 4fd1 4fbe
000002c0: 6802 da3d a5e8 d13d 055e 683e f6cd 28bd
000002d0: a76b 233e 7c33 6bbe b208 023e 4e08 34bd
000002e0: 31e3 51bd 5097 42be 4e98 cabd 690c 98bd
000002f0: 6924 7a3e e135 4abe 1325 8bbc 9660 763e
00000300: d539 5dbd f763 6e3e ce53 3cbc 30cc 49be
00000310: b6d1 4cbe 2ccf 1abe e4ee 4dbc b5f9 8ebd
00000320: dd5a 9d3d 5f0f 40bd e59f 24be a26d b4bd
00000330: 2727 a03d b424 3e3e 6a90 acbc 00cd 0fbe
00000340: d09d bd3c 1bc2 0c3d 197c e5bd f67a 863e
00000350: 3bd5 5ebe 04a5 f4bd e940 7a3d 90a9 5abe
00000360: e391 013e e853 323e 34c7 423e bce1 28be
00000370: 8398 323e f30a 4dbe 5825 983d a1d3 813c
00000380: 5893 5e3d 647d 79be 740a 2f3d 1b83 6ebc
00000390: db68 1abe a9db 65be fbe8 c43b d737 a1bd
000003a0: 2f35 793c 8c4c 84bd 4643 fbbd 1c82 9d3d
000003b0: 437a 62bc a563 7f3d e0a8 51bd f565 b3bc
000003c0: 585b 743e e288 47be 2852 a63d e496 77be
000003d0: 6470 cebd 0068 af3a 98b7 13bd 9e55 52be
000003e0: c020 0ebe 80e7 4d3b c479 2fbe d4b0 27be
000003f0: 5255 2fbe 9838 6abd 0499 14be 3cd6 00be
0.046468254 -0.2420342 0.089070916 -0.24785581 0.01760962 -0.13086092 0.051514234 0.06017878
0.023545159 0.0133810565 -0.0328178 0.20464058 0.039016094 -0.1315405 0.12839766 -0.038779367
0.0729385 0.045952875 0.0003353867 0.056377824 0.19702269 -0.07353686 0.082484044 0.09654579
-0.14338191 0.025366418 0.048503455 0.05844275 0.1334327 0.20882468 0.015941078 0.027673803
-0.03868938 -0.20000316 -0.08299109 -0.20317496 0.070184715 -0.16639215 0.20962434 0.008617367
0.12818362 0.16988075 -0.17769958 0.20541817 0.05915041 0.13176991 0.22948112 -0.03444848
-0.09635408 0.04311213 0.09247862 -0.1648984 -0.12069333 -0.11220847 -0.014465468 0.027986214
-0.12373588 0.20409532 0.19211856 -0.22945923 0.058189128 0.09068081 0.15914738 0.23572081
0.103845425 0.03045847 -0.1284282 0.03737494 0.23211591 0.09617094 -0.08982487 0.19628161
-0.21649684 0.19518037 0.13749547 -0.007442616 0.23018236 -0.21898766 0.20153244 -0.2329488
-0.19263077 0.20117846 -0.012859263 0.039646927 -0.0019420082 0.15312445 -0.1907803 -0.15866558
0.12538606 0.1769704 -0.18747921 -0.080351956 0.00463358 0.16149174 0.14681432 -0.12923981
0.18804653 0.09618799 0.14937463 0.05126265 0.13124976 -0.0076732184 -0.14602199 -0.20599759
0.22554882 0.017170576 0.13703762 0.083180964 -0.18009812 -0.039054587 -0.164753 -0.13888447
-0.1291865 0.107146434 -0.17152266 0.062412333 0.07646274 -0.2113707 0.18696381 -0.1404252
0.18288356 -0.128208 0.20828752 -0.19879992 -0.16654624 0.14804544 -0.061212182 0.032695796
-0.1245358 -0.1847049 -0.1930921 -0.14194663 -0.2537724 0.17677245 0.17431508 0.007844327
-0.14987232 0.2011859 0.11249357 0.19253114 0.17887697 -0.20886837 0.20214574 0.21761419
-0.1628117 -0.19333664 -0.0075237914 0.16788739 0.05162162 0.10417828 0.06390786 -0.014814599
0.18262254 -0.22003356 -0.18207872 -0.11071988 -0.055015396 -0.19754069 -0.09453308 0.0464439
0.22947599 0.15507239 0.071873546 0.09985119 -0.043461505 -0.09836848 -0.09633179 0.04877332
0.15867649 -0.2258764 0.12727857 0.15164955 -0.15480693 -0.119144514 0.07126498 -0.20294689
0.1064499 0.102494515 0.22692116 -0.041212045 0.15959035 -0.22968858 0.1269863 -0.043953232
-0.051242057 -0.19003034 -0.09892331 -0.07424242 0.24427952 -0.19747116 -0.016985452 0.24060282
-0.05401023 0.23280321 -0.01149459 -0.19706798 -0.20001873 -0.15118092 -0.012569163 -0.069812216
0.076833464 -0.04688966 -0.1607662 -0.08809973 0.07819968 0.18568689 -0.021064956 -0.14043045
0.02314654 0.0343648 -0.112053104 0.26265687 -0.21761028 -0.11945537 0.06109706 -0.21353745
0.12653308 0.1741482 0.19021302 -0.16492361 0.17440991 -0.20023708 0.07428998 0.015847983
0.054339737 -0.24364239 0.04273458 -0.014557625 -0.15079062 -0.22447075 0.0060092187 -0.07871979
0.015210434 -0.06459913 -0.12268691 0.07690832 -0.013823095 0.062350888 -0.051186442 -0.021899203
0.2386297 -0.1948581 0.08121139 -0.24178654 -0.100800306 0.0013382435 -0.03606376 -0.20540473
-0.1387968 0.0031418502 -0.17136294 -0.16376048 -0.17122391 -0.05718288 -0.14511496 -0.12581724

bias f4 [16]
00000000: 2244 94bd d3fa 4bbc 90e8 0dbb 990d 60bc
00000010: 5b36 ac3d 75b8 3f3c ca65 f2bd 12b1 533e
00000020: 8d13 d93d 4a66 3f3a 644b 21be c0a0 4bbd
00000030: c17a c6bd 25c7 4c3e 4740 3dbd 9826 a4bd
-0.07239558 -0.012449938 -0.002165351 -0.013675117 0.08408805 0.011701693 -0.11835821 0.20673016
0.10599432 0.0007301314 -0.15751415 -0.04971385 -0.09691382 0.19997843 -0.046203878 -0.08015174

weight f4 [1, 16]
00000000: e89d ca3d e0c0 b8bd cf04 233e 95a8 b43d
00000010: af9b 36be 70c6 fdbc 9808 243e ef7d 9d3d
00000020: 52fc 713d 4000 dfbd a934 953d 12de ad3d
00000030: ef4f 73be 68a9 1f3e abf3 3d3e 6899 2abe
0.098933995 -0.09021163 0.15919803 0.08821217 -0.17832826 -0.030978411 0.16018903 0.076900356
0.059078522 -0.108887196 0.07285435 0.08489622 -0.23760961 0.15591967 0.18549983 -0.16660082
