examples/data/saved_models/pytorch_connect/saved_model_income4.pth (torch, 5888 bytes, 5 tensors)

weight f4 [16, 8]
0	0x3e9648cc	0.29352415
1	0xbdb79565	-0.089640416
2	0x3d10b04a	0.035324372
3	0xbe5e0917	-0.21683155
4	0xbe0ed225	-0.13947351
5	0xbe5aec32	-0.21379164
6	0x3d91c405	0.07117466
7	0x3e19c647	0.15017043
8	0x3db972b7	0.09055083
9	0xbe7baefa	-0.24578467
10	0xbda46e28	-0.08028823
11	0xbda91719	-0.08256359
12	0x3dd6f581	0.10496045
13	0x3dd7cc13	0.10536971
14	0xbdba88e8	-0.09108144
15	0xbe1cdee1	-0.15319397
16	0x3e9ce9af	0.30647036
17	0xbde3e8bb	-0.11128374
18	0x3cf2d22c	0.029641233
19	0x3e1b6650	0.15175748
20	0x3e8de499	0.2771347
21	0x3e038a80	0.12845802
22	0xbea8382c	-0.32855356
23	0xbc02c7fc	-0.00798225
24	0x3e3dc6ca	0.18532863
25	0x3d78e382	0.060763843
26	0xbe98c36c	-0.29836595
27	0x3de7975b	0.11308166
28	0xbd7e3584	-0.062062755
29	0x3d1a3cfc	0.037655815
30	0x3d27ca3d	0.040964354
31	0x3e32c3df	0.17457531
32	0xbdb4d143	-0.08828976
33	0x3e74b319	0.23896445
34	0xbeae0f3b	-0.33995995
35	0xbdbc0195	-0.09179989
36	0xbeaf7025	-0.34265247
37	0xbe030bb3	-0.12797432
38	0xbe0a0f9a	-0.13482514
39	0x3c85b39b	0.016320994
40	0xbea8d26a	-0.32973033
41	0xbdd55bd4	-0.104179054
42	0x3ead20c5	0.33814064
43	0xbe28c6ed	-0.16482134
44	0x3db11c50	0.08647978
45	0x3dc69028	0.096954644
46	0x3cf824b8	0.030290946
47	0xbe3e0e98	-0.18560255
48	0xbe7f9422	-0.24958852
49	0x3de22e58	0.110439956
50	0xbd86fc0a	-0.065910414
51	0xbe983e04	-0.29734814
52	0xbdf10e42	-0.117702976
53	0x3d4016f7	0.0468969
54	0xbea291dc	-0.31751907
55	0xbd3334d7	-0.043751564
56	0x3c1fa176	0.009743085
57	0xbd200c3f	-0.03907418
58	0x3e9593ac	0.29214227
59	0x3e65d7cd	0.22445603
60	0xbdc51766	-0.096236035
61	0xbe157f3a	-0.14599314
62	0x3c7c060f	0.015382304
63	0xbe4118ca	-0.18857113
64	0xbcfa197e	-0.030529734
65	0x3e800dd8	0.25010562
66	0xbeb01cab	-0.34396872
67	0x3d9b6384	0.075873405
68	0x3a808aec	0.0009807027
69	0x3d4dea95	0.050272543
70	0x3e2e45ce	0.17018816
71	0xbc21e7a1	-0.009881885
72	0xbe3fce0f	-0.18730949
73	0x3e953077	0.29138538
74	0xbdf521b8	-0.11969322
75	0x3ea80ae8	0.3282082
76	0xbe76def3	-0.24108486
77	0xbead2a5b	-0.33821377
78	0x3e85147d	0.25992194
79	0xbc1ebb6e	-0.009688241
80	0x3d099b83	0.033595573
81	0x3b8d9dca	0.0043217884
82	0x3dcf3370	0.10117233
83	0xbe0dd106	-0.13849267
84	0x3c55da98	0.013052605
85	0xbe664d47	-0.22490416
86	0x3dc6b3d6	0.0970227
87	0x3eaa138d	0.3321804
88	0x3e9ab02b	0.3021253
89	0x3e616360	0.22010565
90	0x3dca232c	0.0986999
91	0x3d71a3da	0.05899415
92	0xbe0dd880	-0.1385212
93	0xbeaae48d	-0.33377495
94	0xbe907d06	-0.28220385
95	0x3ea6df7d	0.32592383
96	0xbbce8fa4	-0.0063037444
97	0x3ea0821a	0.3134926
98	0xbe205309	-0.15656675
99	0x3e9ce183	0.30640802
100	0xbe602478	-0.21888912
101	0xbe909696	-0.28239888
102	0xbe6508e2	-0.2236667
103	0xbe9ac847	-0.30230924
104	0xbcf65d16	-0.030073684
105	0x3dff542c	0.124672264
106	0x3e5c53be	0.2151632
107	0x3e7b02ee	0.24512836
108	0xbe849b8a	-0.25899917
109	0x3dc77d90	0.09740746
110	0x3eb305a9	0.34965256
111	0xbe2c91eb	-0.16852538
112	0xbea4d139	-0.32190874
113	0xbe913fe6	-0.28369063
114	0xbe2faec6	-0.17156515
115	0x3e980990	0.29694796
116	0xbe8d50bd	-0.2760066
117	0xbd8b4f5d	-0.06802247
118	0x3e416a39	0.18888177
119	0xbe0e2665	-0.13881834
120	0xbdfcc91f	-0.12343048
121	0xbe3970e1	-0.18109466
122	0x3e595e75	0.21227439
123	0xbe59e487	-0.21278583
124	0x3e648b77	0.22318827
125	0xbe6882d5	-0.22706158
126	0xbe23e340	-0.16004658
127	0x3e803d43	0.2504674

bias f4 [16]
0	0x3b901169	0.0043966067
1	0xbb127b3d	-0.0022351288
2	0x3eb2d045	0.34924522
3	0xbeaeae1d	-0.34117213
4	0x3e7ec065	0.2487808
5	0x3cbc727f	0.023003815
6	0xbe879303	-0.2647935
7	0x3decd7ec	0.11564621
8	0xbde1dbce	-0.110282525
9	0xbe9bd105	-0.30432907
10	0x3cc75f11	0.024337323
11	0x3d07b3d2	0.033130474
12	0xbd2c62f2	-0.04208655
13	0x3e76d003	0.24102788
14	0x3db30f15	0.08743111
15	0x3d75d273	0.060015153

weight f4 [16, 16]
0	0x3e5a8985	0.21341522
1	0xbdc00d54	-0.09377542
2	0x3e2a3657	0.16622292
3	0x3e367950	0.17819715
4	0xbe0d6650	-0.1380856
5	0x3e4bb6f4	0.1989401
6	0xbd894a63	-0.06703641
7	0xbe69cca0	-0.22831964
8	0xbe22a89f	-0.15884636
9	0xbe2c4119	-0.16821708
10	0x3af3529e	0.001856405
11	0xbdb4d9ab	-0.08830579
12	0x3e7c1dbe	0.2462072
13	0xbe2110f2	-0.1572912
14	0xbe514f77	-0.2044047
15	0x3e76afd2	0.24090508
16	0x3e09d434	0.13459855
17	0x3e33c3e8	0.17555201
18	0xbcbac9d2	-0.022801314
19	0x3e760091	0.24023654
20	0x3e2c816b	0.16846244
21	0xbdf085a4	-0.1174424
22	0x3e3451d7	0.17609344
23	0x3e679ebc	0.22619146
24	0x3da5b1a7	0.08090525
25	0x3dae7cf7	0.08519929
26	0x3cd28379	0.025697457
27	0x3d774b4e	0.06037455
28	0xbe81671e	-0.25273985
29	0x3e0ca24f	0.13733791
30	0x3c0b1d99	0.008490943
31	0xbe42cd8f	-0.19023727
32	0x3e452faf	0.19256471
33	0x3e4a1f1f	0.19738434
34	0x3e6d3eca	0.23168483
35	0x3dec7692	0.11546053
36	0xbe21cb0e	-0.15800115
37	0xbe2615ac	-0.16219205
38	0xbdc53a20	-0.09630227
39	0xbe5d82f9	-0.21631993
40	0xbe3e8bbd	-0.18607993
41	0xbd9c1874	-0.076218516
42	0x3ab3d277	0.001371934
43	0xbdf14a8d	-0.117817976
44	0x3e24ee75	0.16106589
45	0xbe8005e4	-0.25004494
46	0x3d84c3be	0.06482647
47	0xbdd75611	-0.10514463
48	0x3dbb8a25	0.09157208
49	0x3de4289c	0.11140558
50	0xbd4eb93d	-0.050469626
51	0x3e76b94b	0.24094121
52	0xbe28d967	-0.16489182
53	0x3d6d5097	0.057938185
54	0xbdaf48d6	-0.08558814
55	0xbd82b0c0	-0.06381369
56	0xbe7e7a37	-0.24851309
57	0xbb2ac340	-0.002605632
58	0xbdc91887	-0.09819131
59	0x3d841b5b	0.0645053
60	0x3da7f0e9	0.08200247
61	0xbda0c35a	-0.0784976
62	0xbc8bcc42	-0.017065171
63	0xbd3a9db2	-0.045560546
64	0x3e365bbd	0.17808433
65	0xbd887007	-0.066619925
66	0x3e4d614d	0.20056649
67	0xba91b27f	-0.0011115818
68	0xbe6d00b9	-0.23144807
69	0x3dee54bf	0.11637258
70	0x3e57df1e	0.21081206
71	0xbd3be2d6	-0.045870624
72	0xb8fc8202	-0.00012040512
73	0xbd027426	-0.03184905
74	0xbe1e5209	-0.15460981
75	0x3d243325	0.040087838
76	0xbddb0f92	-0.10696329
77	0x3dcc84c3	0.0998626
78	0x3e5940b1	0.21216084
79	0xbe03f6f5	-0.12887175
80	0x3e7241e0	0.23657942
81	0xbe5598e4	-0.20859104
82	0x3dd8fde0	0.10595298
83	0xbd8b4456	-0.068001434
84	0xbdfd0156	-0.123537704
85	0x3c0ff966	0.008787489
86	0xbd6f62f8	-0.058443993
87	0xbd65c5b4	-0.056096748
88	0x3d62c16f	0.055360254
89	0x3d81f146	0.063448474
90	0xbe3a9156	-0.18219504
91	0xbdc3ddf5	-0.09563819
92	0xbd0f3e49	-0.03497151
93	0x3da2e69c	0.079541415
94	0xbe256417	-0.16151462
95	0xbdfa8742	-0.1223283
96	0x3d389508	0.045064002
97	0x3e3e9f1c	0.18615383
98	0xbc182ba0	-0.009287745
99	0x3e62ab32	0.22135618
100	0xbe289b3f	-0.16465472
101	0x3e6b8821	0.23001148
102	0xbdf83a87	-0.12120538
103	0x3dcf90d0	0.10135043
104	0xbdd5f3f2	-0.104469195
105	0x3d2782f0	0.040896356
106	0xbdb0c235	-0.08630792
107	0xbdd63134	-0.104586035
108	0xbdccba62	-0.09996487
109	0x3de907ba	0.11378427
110	0x3e6081d8	0.21924531
111	0x3e737a3e	0.237771
112	0x3ce31def	0.027724234
113	0x3dca77c1	0.098861225
114	0x3e1e15a0	0.15437937
115	0xbe167849	-0.14694323
116	0x3e76bd5c	0.24095672
117	0xbd50cfc1	-0.05097938
118	0x3e3f02c4	0.18653399
119	0xbe74de63	-0.23912959
120	0x3de9f9c4	0.11424592
121	0xbdafb27c	-0.08578965
122	0x3e240c4c	0.16020316
123	0x3e3fa928	0.18716872
124	0x3e722990	0.23648667
125	0xbde32163	-0.110903524
126	0x3d99bbf5	0.07506553
127	0x3dc32e5e	0.09530328
128	0x3cdb6d5b	0.026785543
129	0x3e4ee1f8	0.20203388
130	0xbe5c5cd0	-0.2151978
131	0x3dea1769	0.114302464
132	0xbc2cc79c	-0.010545637
133	0xbe0b0528	-0.13576186
134	0x3c271e75	0.010200133
135	0xbe70c590	-0.23512864
136	0x3db93148	0.09042603
137	0xbdbfad14	-0.09359184
138	0xbdb5c0b4	-0.08874646
139	0x3e48e239	0.19617547
140	0xbc5eb050	-0.013591841
141	0xbe08963a	-0.13338557
142	0xbe559a0b	-0.20859544
143	0xbe04c1f8	-0.12964618
144	0x3ccffc49	0.025388854
145	0x3db279e8	0.08714658
146	0x3e5ee186	0.21765718
147	0x3d05cf53	0.032668423
148	0x3e5f16a6	0.21785983
149	0x3e4ae9b5	0.19815715
150	0xbdf45cc5	-0.11931757
151	0xbe178b91	-0.14799334
152	0x3e0aadf5	0.13542922
153	0xbded71a3	-0.1159394
154	0xbd8d3b49	-0.06896073
155	0x3dbe04d3	0.09278264
156	0xbd2a4faf	-0.0415799
157	0x3e801e18	0.2502296
158	0x3e577e55	0.21044286
159	0x3e63f350	0.22260785
160	0xbe594e59	-0.21221294
161	0xbdc68d00	-0.09694862
162	0xbd5d586e	-0.05403941
163	0xbe1be125	-0.15222605
164	0xbe027202	-0.12738803
165	0xbe416198	-0.18884885
166	0x3dfdbcdc	0.12389538
167	0x3deed106	0.11660962
168	0x3e557554	0.20845538
169	0x3b65def5	0.003507552
170	0xbdfa9752	-0.12235893
171	0x3e838cc4	0.25693333
172	0xbd63b319	-0.055590723
173	0xbe0a18b4	-0.13485986
174	0x3e33ed31	0.1757095
175	0xbba216ca	-0.0049465643
176	0x3dc93a85	0.09825615
177	0xbd46a20b	-0.04849438
178	0x3e62740f	0.22114585
179	0xbe479b5f	-0.19492863
180	0xbe3a34c0	-0.18184185
181	0x3e4f129e	0.20221946
182	0x3e7972de	0.24360225
183	0x3e780391	0.2422011
184	0xbe25bb05	-0.16184624
185	0x3c102b10	0.008799329
186	0xbadd748b	-0.0016895694
187	0x3d7e57c5	0.062095422
188	0x3e11c01f	0.14233445
189	0x3b9eaa2f	0.004842065
190	0x3de08626	0.10963087
191	0xbdc314f2	-0.095254794
192	0xbddc5583	-0.107584976
193	0x3dec35a6	0.1153367
194	0xbddefaa3	-0.10887649
195	0x3dedd9fe	0.11613844
196	0x3d0eadbb	0.03483365
197	0xbe11b374	-0.14228612
198	0x3e3af822	0.18258718
199	0xbd759fb0	-0.059966743
200	0x3d44b4b7	0.048023906
201	0x3c634491	0.013871328
202	0xbdfaa4e0	-0.12238479
203	0x3e7d1eab	0.2471873
204	0x3d72b002	0.059249885
205	0x3e64e13a	0.22351542
206	0x3e073b10	0.13206124
207	0xbe04c866	-0.12967071
208	0x3c0a56aa	0.008443514
209	0x3d35a1c6	0.044343732
210	0xbdb96611	-0.09052671
211	0x3cfc9205	0.030831346
212	0xbd73f89d	-0.059563268
213	0xbdd15687	-0.10221582
214	0x3d6ad06d	0.057327677
215	0x3e5838c1	0.211154
216	0x3e53067a	0.2060794
217	0xbe3022ed	-0.17200823
218	0x3e271f42	0.16320518
219	0x3e45498c	0.19266337
220	0xbe12f49e	-0.14351127
221	0xbe50e503	-0.20399861
222	0xbe0bfe27	-0.1367117
223	0xbc9d4833	-0.019199466
224	0x3dd02750	0.10163748
225	0xbe6f2dc7	-0.23357306
226	0x3e135051	0.14386107
227	0x3dccefde	0.100066885
228	0x3e84830a	0.25881225
229	0x3e1f9fd4	0.15588313
230	0x3e10c221	0.14136554
231	0x3dddee30	0.10836446
232	0xbaf87786	-0.0018956519
233	0x3bcf2f5a	0.0063227834
234	0x3e74100f	0.23834251
235	0x3d99f5c2	0.07517578
236	0xbe1136a8	-0.14181006
237	0x3d6dd40c	0.05806355
238	0x3dd871bf	0.1056857
239	0x3e393ed8	0.18090379
240	0xbe778289	-0.24170889
241	0x3e34fb19	0.17673911
242	0xbdc4ea9e	-0.09615062
243	0xbe63f57d	-0.22261615
244	0xbd5d4569	-0.054021273
245	0x3e546f6c	0.20745629
246	0xbe16c2c7	-0.14722739
247	0xbd33c279	-0.043886635
248	0xbe1943d0	-0.14967275
249	0xbc663c8d	-0.014052522
250	0xbe572f1a	-0.21014062
251	0xbca065cb	-0.019579789
252	0x3ca5306e	0.020164695
253	0x3bd68bc8	0.006547425
254	0x3ddd48f1	0.10804928
255	0x3e6e1353	0.23249559

bias f4 [16]
0	0xbe56b418	-0.20967138
1	0xbd960494	-0.07325092
2	0x3e386c9f	0.18010186
3	0xbc8a37b4	-0.016872264
4	0xbda77601	-0.08176804
5	0xbdcef60e	-0.10105525
6	0x3d8d3ded	0.06896577
7	0xbd361c12	-0.044460364
8	0xbdd5272c	-0.10407862
9	0x3cc7fef3	0.024413561
10	0xbc656c15	-0.01400282
11	0x3e5b3311	0.21406199
12	0xbb0715d6	-0.002061238
13	0x3e614afd	0.22001262
14	0xbdb2cd8c	-0.08730611
15	0x3dda8e40	0.10671663

weight f4 [1, 16]
0	0x3cf0bd80	0.029387236
1	0x3e358c9a	0.17729416
2	0x3c8f02b0	0.017457336
3	0x3c805744	0.015666611
4	0xbe64776e	-0.22311184
5	0xbcd9a8b2	-0.026569698
6	0x3db8e7dc	0.09028599
7	0xbe0c8115	-0.13721116
8	0x3e6b9675	0.23006614
9	0xbda9b71a	-0.08286877
10	0x3e1b9d43	0.1519671
11	0xbd959313	-0.07303443
12	0xbdee32ea	-0.11630805
13	0xbd42e1a1	-0.047578458
14	0xbdb5452b	-0.08851083
15	0x3e236f2f	0.15960382
