examples/data/saved_models/pytorch_connect/saved_model_compas5.pth (torch, 5824 bytes, 5 tensors)

weight f4 [16, 7]
0	0x3e83c90c	0.25739324
1	0xbe7e9348	-0.24860871
2	0xbd37a100	-0.044831276
3	0xbeaf080b	-0.34185824
4	0xbc09c820	-0.00840953
5	0xbd80feb8	-0.06298584
6	0xbe21987d	-0.15780826
7	0x3e21b93e	0.1579332
8	0x3e5def8c	0.21673411
9	0x3de7770e	0.11302005
10	0x3e9a5cf4	0.30149043
11	0x3e56545d	0.2093062
12	0x3eaee0b3	0.34155807
13	0xbeb22801	-0.34796146
14	0xbe788de8	-0.24272883
15	0xbebf5778	-0.3737142
16	0xbe43c5a0	-0.19118357
17	0x3e282395	0.16419823
18	0x3c86f0ee	0.016472306
19	0xbe74659e	-0.23866889
20	0xbe73ff2b	-0.23827808
21	0x3eb77ec6	0.35838908
22	0xbcfe0562	-0.031008426
23	0x3db54270	0.088505626
24	0xbebb31ce	-0.36561435
25	0xbcf81d28	-0.03028734
26	0xbd600106	-0.054688476
27	0xbe08d7c2	-0.13363555
28	0xbe9766bd	-0.2957057
29	0xbcbc2999	-0.022969054
30	0xbe2ac909	-0.16678251
31	0xbe8b9d54	-0.2726847
32	0xbeb4ac80	-0.35287857
33	0x3bd7a2f2	0.006580704
34	0x3ddaaeb6	0.10677855
35	0xbddada21	-0.10686136
36	0xbe35bc69	-0.17747654
37	0xbd058815	-0.03260048
38	0xbd230812	-0.03980262
39	0xbdddf979	-0.10838599
40	0xbdc0d338	-0.09415287
41	0x3dc622c9	0.096746035
42	0x3e81ae3c	0.25328243
43	0x3c49babc	0.012312587
44	0x3e6aa16b	0.22913139
45	0x3c67217a	0.0141071025
46	0xbd805945	-0.06267027
47	0xbeb297ee	-0.34881538
48	0xbec2b2ac	-0.3802694
49	0x3e668d55	0.22514851
50	0xbd49da25	-0.049280304
51	0x3dd1bdce	0.102412805
52	0xbe78e14d	-0.24304695
53	0xbe51b68b	-0.20479791
54	0xbe8daf4d	-0.27672806
55	0xbda962a6	-0.08270769
56	0xbdaead0f	-0.08529102
57	0xbea9792f	-0.33100268
58	0x3e80fcc1	0.25192836
59	0x3c9d1738	0.01917611
60	0x3ea620c0	0.3244686
61	0x3e3c2a60	0.1837554
62	0xbd3f315e	-0.04667794
63	0xbe08f2da	-0.1337389
64	0xbda17725	-0.07884053
65	0x3d7d320a	0.0618153
66	0x3cfbcacd	0.030736351
67	0xbeb4da29	-0.35322693
68	0x3d7342ba	0.059389807
69	0xbea544e1	-0.32279113
70	0xbe07fb69	-0.13279499
71	0x3e3e19a5	0.1856447
72	0x3d5d812e	0.054078273
73	0x3c20f72a	0.0098245535
74	0x3e99de12	0.3005224
75	0x3e613fa7	0.21996938
76	0x3de5ac8e	0.11214553
77	0x3e94ace7	0.29038164
78	0xbe98be09	-0.29832485
79	0x3e2ce4c8	0.16884148
80	0x3eb9d0bf	0.36292073
81	0xbe06ff65	-0.13183363
82	0x3e9f0d15	0.31064668
83	0x3e3056ca	0.17220607
84	0xbcf72905	-0.030170927
85	0x3ebd9929	0.37030914
86	0xbe9cbaf1	-0.30611375
87	0xbebfadba	-0.3743723
88	0xbea0b3e9	-0.3138726
89	0xbe969e71	-0.29417756
90	0x3e6ca69b	0.2311043
91	0x3e89244b	0.26785502
92	0xbe5d1d11	-0.21593119
93	0x3dd4fc60	0.10399699
94	0xbc83b217	-0.01607613
95	0x3e6889e6	0.22708854
96	0xbe051a06	-0.12998208
97	0x3e6483ed	0.2231595
98	0x3e3f0db1	0.18657567
99	0x3eb096e5	0.34490123
100	0x3b0ca705	0.0021461856
101	0x3e8e39cc	0.2777847
102	0x3da9f8fd	0.08299444
103	0x3eaf34a9	0.34219864
104	0x3e500ce4	0.20317417
105	0x3e9b76ef	0.30364177
106	0xbea300b4	-0.31836474
107	0x3d890e7b	0.06692215
108	0x3db5c97f	0.08876323
109	0xbea64767	-0.3247635
110	0xbe9344e0	-0.28763485
111	0xbe7fd3b7	-0.24983107

bias f4 [16]
0	0x3e3078e0	0.1723361
1	0xbc114185	-0.008865719
2	0xbe95463b	-0.29155144
3	0xbeb34315	-0.35012117
4	0x3e1f44ee	0.15553638
5	0xbeac72a5	-0.33681217
6	0xbe8e7b8d	-0.27828637
7	0xbeb0108a	-0.34387618
8	0x3e85c46b	0.26126418
9	0x3eabd62d	0.3356184
10	0x3eb8dc8c	0.36105764
11	0x3de27d37	0.11059039
12	0x3c690b6a	0.014223913
13	0x3df9993b	0.121874295
14	0xbe104273	-0.14087848
15	0xba47ca64	-0.0007621406

weight f4 [16, 16]
0	0x3d2c318d	0.042039443
1	0x3e457734	0.19283754
2	0x3dc7d9e5	0.09758357
3	0xbde66f9b	-0.11251756
4	0x3dbc94ae	0.09208046
5	0x3e41c02b	0.18920963
6	0x3dd3c670	0.10340583
7	0xbcb9420d	-0.022614503
8	0x3e69aa90	0.2281897
9	0xbe427e9a	-0.18993607
10	0xbe21ee33	-0.15813522
11	0xbc806ca6	-0.015676808
12	0x3e6dd517	0.23225819
13	0x3e8008df	0.25006768
14	0x3d03c19d	0.032167066
15	0xbde6de0f	-0.11272823
16	0xbb827b7a	-0.0039820047
17	0xbd54bacd	-0.05193596
18	0x3d575bf7	0.05257794
19	0xbc973316	-0.018456977
20	0xbd7e2dab	-0.06205527
21	0xbe2948f9	-0.16531743
22	0x3e64b9d8	0.22336519
23	0x3e22e3f8	0.15907276
24	0x3dc33c11	0.09532941
25	0xbd919da2	-0.07110144
26	0xbd3225d3	-0.043493103
27	0xbe167100	-0.14691544
28	0xbd677807	-0.05651095
29	0x3de14ee9	0.11001379
30	0xbe506ea8	-0.20354712
31	0x3d7ad2ed	0.06123631
32	0xbc1dc183	-0.009628656
33	0x3e139ad2	0.14414528
34	0xbe4ca25e	-0.19983813
35	0xbd3d2f99	-0.04618797
36	0x3e4a4deb	0.19756286
37	0x3e31ab99	0.17350616
38	0xbbbd24be	-0.0057722023
39	0x3e5b0acb	0.21390836
40	0xbc6b7305	-0.0143706845
41	0x3db8b604	0.09019092
42	0xbe6f0368	-0.23341143
43	0x3e2778c5	0.16354664
44	0xbe0b2eae	-0.13592026
45	0x3e54a07f	0.2076435
46	0x3e7a5a42	0.24448493
47	0xbd39df12	-0.045378752
48	0x3dfac78a	0.1224509
49	0xbe2a0221	-0.16602375
50	0xbe4bef4d	-0.19915505
51	0x3da63ac8	0.081166804
52	0x3e31df90	0.17370439
53	0x3e328ef2	0.17437342
54	0x3e6241e9	0.22095455
55	0xbdb7e75b	-0.089796744
56	0x3c892e58	0.016745731
57	0x3dba8ffb	0.09109493
58	0xbd1649fe	-0.03669166
59	0x3cb6124b	0.02222552
60	0x3e2d8ee2	0.16949037
61	0x3e5faa30	0.21842265
62	0xbe18493f	-0.14871691
63	0xbd61ad07	-0.055096652
64	0xbe43796a	-0.19089285
65	0x3e80e368	0.25173497
66	0xbe584c54	-0.21122867
67	0xbe37b181	-0.17938806
68	0x3deacb92	0.11464609
69	0x3e57c18b	0.21069925
70	0x3e813686	0.2523691
71	0xbc3584ef	-0.011079057
72	0x3de57c26	0.1120532
73	0xbdb6601f	-0.089050524
74	0x3e4a6adb	0.19767325
75	0xbe33eef6	-0.17571625
76	0xbbadb510	-0.0053011253
77	0x3e808a28	0.25105405
78	0xbdede8ac	-0.11616644
79	0x3df43c33	0.119255446
80	0xbe3c71d2	-0.18402794
81	0xbe0bc60d	-0.13649769
82	0x3e7eb5fa	0.24874106
83	0x3cba7d9f	0.022764979
84	0x3c999520	0.018747866
85	0xbdef2264	-0.11676481
86	0x3d92db07	0.071706824
87	0x3e7a5cc9	0.24449457
88	0xbdbf8594	-0.0935165
89	0xbe60927a	-0.21930876
90	0xbe7aef71	-0.24505402
91	0x3c9cb478	0.019129023
92	0xbbc87221	-0.006117121
93	0xbe554306	-0.20826349
94	0x3e7d49b3	0.24735145
95	0x3d935c8c	0.07195386
96	0x3db11385	0.08646301
97	0x3e554897	0.20828472
98	0xbd9b03d4	-0.075690895
99	0xbe36c058	-0.17846811
100	0xbe37e3f9	-0.17958058
101	0xbc21e580	-0.009881377
102	0x3e5b5510	0.21419168
103	0xbcf7a670	-0.03023073
104	0xbe4145c3	-0.18874268
105	0x3e15a606	0.14614114
106	0x3e7fe3f6	0.24989304
107	0xbe0f490e	-0.13992712
108	0x3e38ace0	0.18034697
109	0xbe18e3da	-0.14930668
110	0xbdf236c4	-0.11826852
111	0xbe1a6742	-0.15078452
112	0xbc36ae39	-0.011149936
113	0xbd194df7	-0.03742787
114	0x3e00fbae	0.12596008
115	0xbcaf3be0	-0.021390855
116	0xbe6ea4d0	-0.23305058
117	0xbdee5657	-0.11637562
118	0x3dfbca0f	0.12294399
119	0x3dde74ef	0.10862147
120	0x3e2face2	0.17155793
121	0xbd90866b	-0.07056888
122	0xbe4b86d6	-0.19875655
123	0x3e3f0ae5	0.186565
124	0x3c67de34	0.014152098
125	0xbd7d0950	-0.06177646
126	0x3d6a7f0a	0.05725006
127	0xbe42ea5d	-0.19034715
128	0x3e45b73e	0.19308183
129	0x3dae265f	0.085034125
130	0x3d7a3ee3	0.06109513
131	0xbe659a4c	-0.22422141
132	0x3e815259	0.2525814
133	0xbe60f905	-0.21969993
134	0xbd962980	-0.07332134
135	0x3dbdfc87	0.092766814
136	0xbe49183e	-0.19638154
137	0xbd855f10	-0.06512272
138	0x3d871c61	0.0659721
139	0x3e16c562	0.14723733
140	0x3e1990b1	0.14996602
141	0x3d9f2964	0.077715665
142	0xbe45d43d	-0.19319244
143	0xbdf552cd	-0.119786836
144	0xbe723bd2	-0.23655632
145	0x3e346eb4	0.17620355
146	0xbdc9a924	-0.09846714
147	0x3c603780	0.013685107
148	0xbe3ef9e4	-0.18650013
149	0xbddad6e8	-0.10685521
150	0xbe0fd43e	-0.14045808
151	0xbd8e9838	-0.06962627
152	0x3b5bf180	0.0033560693
153	0xbe49efac	-0.19720334
154	0xbe79ed06	-0.24406824
155	0x3d1cca78	0.038279027
156	0xbdf57ea0	-0.119870424
157	0x3d34dcd8	0.044155926
158	0xbe4c7dc2	-0.19969848
159	0x3e6f70c2	0.23382857
160	0xbe55246d	-0.20814677
161	0xbe5e4948	-0.21707642
162	0x3d8be258	0.06830281
163	0x3d6fde89	0.058561835
164	0xbe3095fe	-0.17244717
165	0x3db7515c	0.08951065
166	0x3e7825f4	0.24233228
167	0xbdc632ee	-0.09677683
168	0xbe6174d5	-0.22017224
169	0xbe199ae5	-0.15000494
170	0x3e67e671	0.226465
171	0x3c8a18d0	0.016857535
172	0xbbf6db4c	-0.0075334664
173	0xbe318849	-0.17337145
174	0x3dc206c7	0.09473949
175	0x3c9b3b66	0.018949222
176	0x3e11f5f7	0.14253984
177	0x3e52e30b	0.20594423
178	0xbe0a4e54	-0.13506442
179	0x3e54a119	0.20764579
180	0x3e7e24d4	0.24818736
181	0x3bfe6430	0.007763408
182	0x3e2926ef	0.16518758
183	0xbe76f8c9	-0.24118342
184	0x3e574efb	0.21026222
185	0xbe3ebc2f	-0.18626474
186	0x3e604229	0.21900238
187	0x3e232261	0.15931083
188	0xbe20295c	-0.15640777
189	0x3e447f50	0.19189191
190	0xbe5272d9	-0.20551623
191	0x3df19f50	0.117979646
192	0xbe518752	-0.20461777
193	0xbe146d1b	-0.14494745
194	0x3e6c506e	0.23077556
195	0xbd30abf1	-0.043132726
196	0xbdca34d3	-0.09873357
197	0x3e3d3ec1	0.1848097
198	0xbd4103eb	-0.047122877
199	0x3e80a6c7	0.2512724
200	0x3df58268	0.11987764
201	0xbe6e3ee5	-0.2326618
202	0x3e21cfad	0.15801878
203	0xbc0e2654	-0.00867613
204	0xbe5f7981	-0.21823694
205	0x3e4f816a	0.20264211
206	0xbdb230d6	-0.08700721
207	0x3e0a0f3c	0.13482374
208	0xbd8a4bd5	-0.06752745
209	0x3e5d12ac	0.21589154
210	0x3e122a00	0.14273834
211	0xbddf0b6f	-0.10890853
212	0x3e5fe504	0.21864706
213	0xbe5e0b0b	-0.216839
214	0xbe3d39f5	-0.1847914
215	0x3e0ddb85	0.13853271
216	0xbd1b0da9	-0.037854824
217	0x3e0dd92f	0.1385238
218	0x3e21a4a5	0.15785463
219	0xbe196779	-0.14980878
220	0x3dc89ae3	0.09795167
221	0x3e1872c8	0.14887536
222	0x3c4e0df7	0.012576572
223	0xbe1b3dea	-0.15160337
224	0xbe668b1a	-0.22514
225	0x3e0a3c4b	0.13499562
226	0x3e3985d8	0.18117464
227	0xbde13dea	-0.10998137
228	0x3e236dbd	0.1595983
229	0x3e10e98b	0.1415159
230	0x3e13b24a	0.1442348
231	0x3cccc05f	0.024994073
232	0x3d73999d	0.05947267
233	0xbc3626d5	-0.011117657
234	0x3e2aff2e	0.16698906
235	0x3e53cb50	0.20683026
236	0x3d1c4475	0.038151223
237	0x3e634bfa	0.22196952
238	0x3cbf0d73	0.023321843
239	0x3bf3b5b5	0.0074374327
240	0x3e5da6ce	0.21645662
241	0xbe001bcd	-0.12510605
242	0xbd9c5b09	-0.07634551
243	0xbe7862b8	-0.24256408
244	0x3e25d808	0.1619569
245	0xbd718042	-0.058960207
246	0xbde383fa	-0.11109157
247	0x3e38a7d4	0.18032771
248	0x3e3424fe	0.17592236
249	0x3e289db4	0.16466409
250	0xbe2787c6	-0.16360387
251	0x3e721720	0.23641634
252	0xbce7159b	-0.028208544
253	0xbd4ff4cd	-0.05077057
254	0x3dc80956	0.09767406
255	0xbe02f6c7	-0.1278945

bias f4 [16]
0	0xbe1c3a97	-0.15256725
1	0xbe0341ac	-0.1281802
2	0x3e22709f	0.15863274
3	0x3dc8c844	0.09803823
4	0x3e4fe1e5	0.20301016
5	0xbe6ee036	-0.23327717
6	0xbe369272	-0.17829302
7	0xbe25de68	-0.16198123
8	0x3e0904fb	0.13380806
9	0xbe3078bc	-0.17233557
10	0xbb9acc54	-0.004724065
11	0xbe72c67f	-0.23708533
12	0x3cae2ba9	0.021261053
13	0xbe1637d4	-0.14669734
14	0xbdb0389f	-0.086045496
15	0xbdfa390b	-0.12217911

weight f4 [1, 16]
0	0x3e1f6741	0.15566732
1	0xbd7f89a9	-0.062387142
2	0x3e5dbade	0.21653315
3	0x3d9c884b	0.07643183
4	0x3d7146bf	0.05890536
5	0xbe350bb3	-0.17680244
6	0xbca67d3e	-0.020323392
7	0xbe5680be	-0.20947549
8	0xbe4a4b45	-0.19755276
9	0x3e6d0ff6	0.2315062
10	0x3df7040f	0.12061321
11	0xbd25091f	-0.0402919
12	0x3e6a30ae	0.22870132
13	0x3d8fdcb8	0.07024521
14	0x3d25dc05	0.04049303
15	0x3c9b0e79	0.0189278
