examples/data/saved_models/pytorch_connect/saved_model_income7.pth (torch, 5888 bytes, 5 tensors)

weight f4 [16, 8]
00000000: 9b96 64be a0a1 303e 5b67 ab3e 5724 b33e
00000010: ec3f b43e 61b8 a6be e38d a2be ad8b 09be
00000020: 9796 0a3d 8073 533e 3ed6 b1be 735a d63d
00000030: 5cc2 3bbe c524 e73d a989 92be 7953 09be
00000040: 5f7e 7dba ddee a23e 0688 403e ff36 86be
00000050: 09b3 82be e4d4 ad3e a892 debd 0cab 5a3e
00000060: 49fc a93e 341e 97be 3e20 983d 86d9 4cbe
00000070: c50a 9e3e 2f68 bcbd 99aa 85be 98b4 623d
00000080: da77 0ebe fa15 033e 60cd c23d 8f89 30be
00000090: 93b3 bfbd 6a70 13be f75d a6be c618 693e
000000a0: 00d2 4b3d fe08 b63e c1d0 683e 1515 8b3e
000000b0: 7f11 b43e 2d4f 003e bd0f c1bd 52e7 6f3e
000000c0: 67fd 80bd 2135 06be 07b8 efbd b850 90be
000000d0: b083 423e 9051 a53e 854a 6e3c 177d b53e
000000e0: 242f a13e 5f32 b03e 73cd 30bd 9a8e 29be
000000f0: 73b6 803e 12f4 543e d64c 79bb 9497 81bd
00000100: be65 c7bd 7a8f 9bbe 1806 eebd 08f1 ad3d
00000110: df41 a0be a96c 2fbe 5853 673e 96a8 8a3d
00000120: 1579 bdbd a36b 98be 892f a0be 9d54 e03d
00000130: 8e75 e7bc 326a 3abd 7f2f 4e3e 8b3e 403e
00000140: a183 a7be 0f63 293e 90e6 863e 9065 de3d
00000150: 8550 803e c758 80be e76e ee3d 5cd8 a93e
00000160: 9479 90be 9666 74be bff3 25be d291 99bd
00000170: eb44 453e 2002 a13e bf2d afbe eef2 ef3d
00000180: a8f6 823d d7c1 e33d 9af7 9e3e a837 6cbe
00000190: fcb3 473e b142 bf3d 437b 733e 4580 7abe
000001a0: 53e9 0dbd b05f 04be b494 a63e 5e5b a53e
000001b0: bbc7 7dbd 65e2 ac3e 0b31 1f3e 14e0 d23d
000001c0: ac66 9f3d 36ca 37bc 6d09 83be ffea e1bd
000001d0: 15e6 58bd d714 14be 4816 52be 5281 67be
000001e0: 1a62 193e 4c07 69bd 800f 923d 0bf8 78be
000001f0: 66fd a6be bd71 ecbd 4c3a 753c ba42 64bd
-0.22323076 0.17249155 0.3347729 0.34988663 0.3520502 -0.32562545 -0.31748876 -0.13432188
0.03383502 0.20649529 -0.34733766 0.104664706 -0.18335861 0.1128631 -0.2862065 -0.13410749
-0.0009670015 0.31822863 0.18801889 -0.26213834 -0.25527218 0.33951485 -0.10867816 0.21354312
0.3320029 -0.2951523 0.07428025 -0.20004854 0.30867592 -0.09199559 -0.26106718 0.05534801
-0.13912907 0.12801352 0.095118284 -0.17239974 -0.09360423 -0.14398351 -0.32493564 0.22763357
0.04976082 0.35553735 0.22735883 0.27164522 0.35169598 0.12530203 -0.0942683 0.23428085
-0.06298333 -0.13106205 -0.11705022 -0.28186584 0.18995547 0.3228879 0.014544134 0.35446998
0.31481278 0.3441343 -0.04316468 -0.16558304 0.25139198 0.2079623 -0.0038040183 -0.06327739
-0.09736203 -0.303829 -0.11622256 0.08493239 -0.31300256 -0.17131294 0.22590387 0.067704365
-0.0925161 -0.2976962 -0.31286266 0.10953639 -0.028254297 -0.045511432 0.20135306 0.18773858
-0.32717612 0.16541694 0.2634778 0.10859215 0.25061432 -0.25067732 0.11642247 0.33172882
-0.28217757 -0.23867258 -0.16206263 -0.07498516 0.19264571 0.31446934 -0.3421459 0.11716257
0.06394702 0.111209564 0.3104828 -0.23068106 0.19502252 0.09338892 0.2377749 -0.24462993
-0.034646343 -0.12927127 0.32535326 0.3229627 -0.061958056 0.33766475 0.15546052 0.10296646
0.07783255 -0.011217644 -0.2559313 -0.1103115 -0.0529538 -0.14461075 -0.20516312 -0.22607926
0.14978829 -0.056891724 0.07131863 -0.24313371 -0.32615203 -0.11545131 0.014967512 -0.055727698

bias f4 [16]
00000000: 4365 58be 7b7e 083e c8ac 5cbe 0a2b 933d
00000010: 215b b23e 4f7f a43e 6249 c53d 60dd a6bd
00000020: 4d96 043e 556d 593d da5f 3f3e 09e0 9fbe
00000030: 1b20 b2be f013 643e 6f19 803e 447a 23be
-0.21132378 0.13329498 -0.21550286 0.071859434 0.3483515 0.3212838 0.09633137 -0.08147693
0.1294796 0.053082783 0.18688908 -0.31225613 -0.3479012 0.2227323 0.25019404 -0.1596461

weight f4 [16, 16]
00000000: b0d1 213e 1b74 193e 321c 3b3e b408 5cbe
00000010: 12df bd3c e732 ed3d a69f 30be 1be7 64be
00000020: 0682 38be 2e36 58bd 80d2 1c3e 0cdb f2bd
00000030: 021e 653c cff2 603e c77b b53d 860f 7e3e
00000040: 2028 43be 1d82 4e3e 4542 67be 738d 93bc
00000050: c513 e03d 1806 eebd fd24 d5bd 2978 fdbd
00000060: 9e5c 24be 5f56 5f3e ba96 4ebe 2d81 1bbe
00000070: 0bfc 8f3d 7a06 503d 4d44 0dbe be0a 58bb
00000080: 2ae6 5bbd f410 10be f6b3 41be 1253 99bd
00000090: 0c29 0abe f861 6ebe d414 95bc 3b47 7dbe
000000a0: 8805 ccbd 1e8b 7fbe 3374 e63d 140e 3abd
000000b0: fb9c 183e 93ae b33c db89 4fbe 3102 ae3d
000000c0: 740a 46bd 8a79 25bb 8c37 6fbd 624a f43d
000000d0: 6c91 ce3d 7247 373e 30d7 33be 90ea 8e3d
000000e0: 05d6 9c3d 9cfb 063e ee4d 46be a495 08bd
000000f0: 7435 8d3d 78c0 653e 42b8 e63c 97fb 3e3e
00000100: f2e9 763e cc7e 41bd d74e af3d d543 c2bd
00000110: 6f14 37be 015f 513e b839 5dbe 09f6 2d3e
00000120: e272 2c3e 5d73 df3d 86f1 b3bd 2e67 2f3e
00000130: 4c7d 203e c310 6b3e 639f ca3b 1fdf 21be
00000140: 18cf 713c edb4 50be 7a20 3fbe 393f 483e
00000150: 6be0 21bd 6b96 e33d f47e 403e b0b5 21be
00000160: 975b fc3c ecce 643e 71d8 443d 6061 19be
00000170: 1909 7abd a876 60be 15a8 c73b 12a8 9c3d
00000180: 012a 7c3d 2bfd 85bd d94a 0ebe c595 7fbc
00000190: e9d7 4dbe 7635 b63c 3a0f c93c e314 513e
000001a0: 1cb7 5a3e b665 773c a1fd e0bd bc34 30bd
000001b0: 0d97 afbd 4705 d4bd 0beb 77bd a26a d83d
000001c0: a2e6 b33b 400e a1bd 36a1 2cbc 897e 4cbe
000001d0: d207 753e f067 393e 8b41 2abe c65e 26be
000001e0: 4bcf 5dbe f213 f73d 4974 09be 8425 dbbd
000001f0: 86bd 68bd 3d26 39be 6ca7 32bc f9ad 1ebe
00000200: 7224 a8bd 8c8b 343e 8f20 41be 65e2 38be
00000210: e18e f4bd cf6d 593c d900 003e 053c 7e3e
00000220: adf4 fcbd ffe8 713e b2b3 793e 69ee 513e
00000230: a36b a93d 9315 1bbd a4a8 37be 8ea9 233e
00000240: 26d2 7fbe 038b a6bd 4ce6 c63d e224 543e
00000250: 5564 61bc 94fa 383d b5c7 11be 8f8b fcbd
00000260: 2035 2c3e 6538 43be 59ec 63be df48 753e
00000270: 4ed7 dcbd b56f 193e a53c 1c3e d25b e3bd
00000280: 0589 51bd e107 703e 88ac a9bd 21c0 773e
00000290: 6850 18be 3620 573d 0cf7 1b3d cf18 1a3e
000002a0: 02c6 39be 4c20 31be bc87 0c3e 9fe2 1a3e
000002b0: c8cc 3d3e e4a3 9b3d 00fb b7bb 6b65 47be
000002c0: 0aa9 ac3d 2d38 223e 451a 39be b6c9 f2bc
000002d0: 2868 fcbd 0c6e 6dbe ae80 a9bd e3a3 14be
000002e0: 0713 3b3e 7f67 813e 313f 68be 4056 e0bd
000002f0: 7acb 703d c798 30bc 5d8d e53d 25a3 96bb
00000300: 6b97 933d 6e90 6f3c 649b 1d3e 5408 e73c
00000310: 2513 1b3e 2ab1 49be a6ec fcbd 3477 f0bd
00000320: 4e39 1a3e f1ff 6a3e 4384 b7bc 751b c73d
00000330: f576 183d 598b c53c 7677 603e 9a2f d6bd
00000340: 9a5e 16be dc69 583e 0b0d 373e 0905 773e
00000350: 20ef d63d 648f 94bc f33d 58be 24a8 783d
00000360: 7436 163e d171 29be df79 42be 1be4 64be
00000370: 29e7 91bd e858 763d c9a0 9d3d 359a 72be
00000380: 928e 7cbe 39bb a2bd e157 c3bd 4de6 7b3e
00000390: e78e e03d 18b8 cf3c e761 0c3d 2561 2b3e
000003a0: 49e7 75be 1e61 7b3e eb0d 64be 5d69 3d3e
000003b0: ab86 4dbe 6550 4bbe f9a0 5cbe 44df 213d
000003c0: 17ab e33c 7e65 7abe d929 7abe 5001 cabc
000003d0: a17e 993d ee2b 70be 0d77 7fbd 9350 6ebe
000003e0: 7bec c33d eb3f 183e 334e 2cbc 8d09 07be
000003f0: 633c 0ebe f27b 4b3e 72c7 2abe 43b7 053e
0.15802646 0.14985697 0.18272474 -0.21487695 0.023177657 0.115819745 -0.17248401 -0.22353785
-0.1801835 -0.052786045 0.15314674 -0.11858186 0.013984205 0.21967624 0.08861499 0.24810609
-0.19058275 0.20166822 -0.22583874 -0.018011784 0.10941271 -0.11622256 -0.104074456 -0.12376434
-0.16050956 0.21810292 -0.20174685 -0.15185995 0.07030495 0.050787427 -0.13795586 -0.0032965387
-0.0536863 -0.14068967 -0.18916306 -0.074865475 -0.1349222 -0.2327956 -0.018198408 -0.24734204
-0.099619925 -0.24955413 0.11252632 -0.045423582 0.14903633 0.02193383 -0.20267431 0.08496512
-0.048349813 -0.0025249445 -0.058402583 0.1192825 0.10086331 0.17898348 -0.17562556 0.06978333
0.076580085 0.13181919 -0.19365665 -0.033345833 0.06894961 0.22436702 0.028164033 0.18650661
0.2411268 -0.047240064 0.085599594 -0.09485594 -0.17878889 0.20446397 -0.21604049 0.16988386
0.168407 0.10910676 -0.08786301 0.17129204 0.15672797 0.22955613 0.006183551 -0.1580777
0.014758848 -0.20381518 -0.18664733 0.19555368 -0.039520662 0.11112674 0.18798429 -0.15791965
0.030805392 0.2234456 0.048057977 -0.14978552 -0.061043832 -0.21920264 0.006093035 0.07649244
0.061563496 -0.065424286 -0.1389574 -0.015599673 -0.20101894 0.022242289 0.024543393 0.20418124
0.21358913 0.015099933 -0.10985876 -0.04301904 -0.085737325 -0.10352569 -0.06052689 0.105672136
0.00549014 -0.07864046 -0.010536483 -0.19970144 0.23928764 0.18106055 -0.16626565 -0.1624709
-0.21661107 0.12064351 -0.13423266 -0.10700515 -0.05682137 -0.18080993 -0.010904174 -0.15496053
-0.082100764 0.17631358 -0.18860076 -0.18055113 -0.119413145 0.013270809 0.12500323 0.24827583
-0.12351356 0.23624037 0.24384955 0.20501103 0.08272483 -0.03786237 -0.17935425 0.15982649
-0.24982509 -0.08131983 0.097118944 0.20717195 -0.013756831 0.045160845 -0.14236338 -0.12331306
0.1681714 -0.19064482 -0.22258128 0.2395358 -0.107832536 0.14984019 0.15257509 -0.11101498
-0.051156063 0.23440506 -0.08284861 0.24194385 -0.14874423 0.052520953 0.0380774 0.15048526
-0.1814194 -0.17297477 0.13723654 0.15125512 0.18535149 0.07599619 -0.0056146383 -0.19472282
0.08430679 0.15841742 -0.18076427 -0.029637199 -0.12324554 -0.23186511 -0.08276497 -0.14515643
0.18268977 0.25274274 -0.22680356 -0.10953951 0.0587878 -0.010778612 0.112086035 -0.004597085
0.07206615 0.014621837 0.15391308 0.028202213 0.15144022 -0.19696489 -0.123498246 -0.11741486
0.15060923 0.22949196 -0.022401934 0.09722034 0.03722282 0.024114298 0.2192057 -0.10458298
-0.14684525 0.21134132 0.17876069 0.24123015 0.10494828 -0.01813478 -0.21117382 0.060707226
0.1466921 -0.16547324 -0.18991803 -0.2235264 -0.071241684 0.06014338 0.07696683 -0.23691638
-0.24663761 -0.07945866 -0.09538246 0.24599572 0.109647565 0.025356337 0.034273054 0.16736276
-0.2401401 0.24548766 -0.22270934 0.18497224 -0.20070903 -0.19854887 -0.21545781 0.039519563
0.027791543 -0.24452779 -0.24430026 -0.024658829 0.07494856 -0.23454258 -0.062369395 -0.23272924
0.095665894 0.14868133 -0.010516691 -0.13187237 -0.13890223 0.198715 -0.16677645 0.1305819

bias f4 [16]
00000000: 1ac1 f4bd 1fdd 9f3c d1ce 623e 6dfe 5a3d
00000010: 47ec 103e 90c9 b03d 85ff 473e d865 123e
00000020: a9f2 81bd 16eb 2bbd 0b9b bcbc c19f 8fbb
00000030: 20b0 773e 9311 113e f246 9bbc fd7f 1b3e
-0.11950894 0.019514618 0.22149207 0.053465296 0.14152633 0.08632195 0.19531067 0.14296663
-0.06345112 -0.041972242 -0.023023149 -0.004383058 0.2418828 0.1416686 -0.018954728 0.15185542

weight f4 [1, 16]
00000000: 3c2d 2dbe 33e6 25be a4ee 6e3e 2ddd 3c3e
00000010: 8d44 5abe d338 93bd aff6 1a3e fcfd c1bc
00000020: 44d5 6cbe c2b5 c73d 0a2d 403e ac3f 52be
00000030: d16b 46be 2791 b53c ff2f 033e 3d57 343e
-0.16911787 -0.16201095 0.23333222 0.18443747 -0.21315213 -0.07188573 0.15133165 -0.02368068
-0.2312823 0.097514644 0.18767181 -0.20532101 -0.19377066 0.02216394 0.12811278 0.17611404
